degradation_transformer_model.safetensors (safetensors, 866672 bytes, 38 tensors)

lm_head.weight f4 [1000, 64]
000000 98 c7 37 3f ce 01 d8 3e 7e f9 af bf 93 73 8c 3e
       0.7178893 0.42188877 -1.3748014 0.27431926
000010 a9 02 01 bf 29 92 13 bf 49 5d d8 3f ef 96 47 bf
       -0.50394684 -0.576449 1.6903468 -0.7796468
000020 93 55 16 3e ba 39 cb 3e ec 6f 0c 40 05 38 f3 3f
       0.14681081 0.3969248 2.1943312 1.9001471
000030 ca 49 c2 3e a0 29 88 3e 10 b8 99 bf 35 5a c3 bf
       0.37946922 0.26594257 -1.2009296 -1.5261904
000040 8d 04 4a be 80 99 e6 bf 0a aa a8 be bf 90 11 bf
       -0.19728298 -1.8015594 -0.3294223 -0.5686149
000050 23 48 3a 3f 0d 36 30 3f e8 80 3f bf 0d 32 49 bf
       0.7276632 0.68832475 -0.7480607 -0.78591996
000060 1e f1 7e bf 98 be 6b be 39 dc e0 3f 9d 50 aa 3e
       -0.99586666 -0.23021924 1.7567207 0.33264628
000070 c0 7e 9d be 81 09 27 bf 80 f1 4b 3f 08 80 fe be
       -0.30760765 -0.65248877 0.79665375 -0.49707055
000080 16 02 58 bf 9a db d3 bf a5 ba 69 3e a5 2a ed 3e
       -0.8437818 -1.6551392 0.22825105 0.46321598
000090 3d 3e 85 bf ea a9 00 bf d0 43 55 bf 68 45 a0 3f
       -1.0409619 -0.5025927 -0.833066 1.2521181
0000a0 9f 65 21 be bb d9 fd bf 30 60 cb be 6a 64 5c 3f
       -0.15761422 -1.9832071 -0.39721823 0.8609072
0000b0 40 56 0c 40 05 95 8d bf 1e 8f ae 3e 64 e2 f7 bf
       2.1927643 -1.1061102 0.34093565 -1.9365964
0000c0 90 4a e8 3f be 53 f4 3e 53 06 a3 be f6 35 00 3f
       1.8147755 0.4772014 -0.31840762 0.5008234
0000d0 17 65 e0 bf a3 50 3b bf e0 ec 92 3f b6 58 29 be
       -1.753085 -0.73169917 1.1478539 -0.16537747
0000e0 53 ba b9 3f ee 1f 89 3a 85 a5 45 3f bf 8b df bf
       1.4509987 0.0010461786 0.7720569 -1.7464522
0000f0 1d 43 5b bf fd 34 15 c0 21 33 91 be 9d cf 97 3e
       -0.8564928 -2.3313591 -0.2835932 0.29650584
000100 e9 c8 bb 3f 29 83 a6 bd ed 62 71 3f d1 c1 17 3f
       1.4670688 -0.081304856 0.94291574 0.59280115
000110 4c 64 6a bf 1c b0 6a 3e c8 89 42 3f 06 1c 06 bf
       -0.9155929 0.22918743 0.7599149 -0.5238651
000120 cc 49 cc be ba 7d 8f 3f d8 57 ae 3f 3f 11 b8 3e
       -0.39900053 1.1210244 1.3620558 0.35950658
000130 73 c0 0d be 03 ff bd bf d8 95 59 3f de cb 1c bf
       -0.13842945 -1.4843448 0.8499427 -0.61248577
000140 70 e9 cd 3d c4 03 0a 3f c9 51 73 bf 9f 2d 5b be
       0.1005429 0.53911996 -0.9504667 -0.21404122
000150 bc 0d 7f bd eb a8 0a 40 16 df 70 3e 67 81 12 bf
       -0.062268957 2.16656 0.235226 -0.572287
000160 8f 45 96 bf 6c a4 4f bf 08 ef be 3f 7d c3 61 3f
       -1.1739978 -0.8111026 1.4916697 0.88188916
000170 af 8c 57 3f bd f4 cb bf ff 6e f9 3e b0 f2 a0 3e
       0.8419904 -1.5934063 0.48717496 0.31435156
000180 3c 2e 06 bf ba df 31 bf 32 d3 c8 bf 3f 9c e6 be
       -0.524143 -0.69482005 -1.5689452 -0.4504108
000190 33 ab 89 3e 8c 94 5b 3f 4c eb d3 bf d7 7d 9e bf
       0.26888427 0.8577354 -1.6556182 -1.2382153
0001a0 ec 13 11 3f a2 5e d1 3d 17 a6 f4 3e 83 75 bd be
       0.56671023 0.10223128 0.47782966 -0.37003717
0001b0 65 2b 8f bf 6c f0 61 bf 4e 8c 8f bf 15 c6 8a 3f
       -1.1185118 -0.8825748 -1.1214693 1.08417
0001c0 a6 c1 e4 be 9d 6f 99 be cf 8f b1 3c d4 70 34 bf
       -0.44678992 -0.29967967 0.021675019 -0.7048466
0001d0 f3 77 6d bf 38 c1 7b 3f d9 39 87 3f 26 c1 ab bf
       -0.92761153 0.98341703 1.0564529 -1.3418319
0001e0 3f d1 02 40 4f 48 5f 3f 1e 76 ca 3f 4e 99 81 3f
       2.0440214 0.8721971 1.5817297 1.012491
0001f0 fb c9 a3 bf 24 1a cd bf a8 9b 23 bf d8 e0 6f 3f
       -1.2796015 -1.6023602 -0.6390939 0.9370246
000200 11 13 2f 3f 5b 8a fd be db c2 4d 3f 9e 69 c0 bf
       0.6838847 -0.4951962 0.8037545 -1.5032232
000210 bc a6 9c be 3d ca 66 bf ab f5 f7 3e ed f4 0f 3f
       -0.30595958 -0.9015234 0.48429617 0.562331
000220 41 1d 31 3f af ac 0a 3e 24 68 c7 3f 17 cd 99 3f
       0.6918526 0.13542436 1.5578656 1.2015713
000230 12 96 f2 3e 8f 8b 14 bf c5 a5 64 3d 54 21 47 bf
       0.4738012 -0.5802545 0.055822153 -0.7778523
000240 0c 54 cf 3d 33 bb b1 bf cf cf 5c 3d 6e bf 07 3e
       0.101234525 -1.3885254 0.05390912 0.13256618
000250 74 90 b9 be ff 73 d6 3e 7b a0 88 bf ab d3 48 bf
       -0.3624302 0.41885373 -1.0673975 -0.7844798
000260 76 dc 22 bf 70 15 86 bd 53 e6 9f be 5d 0c c0 be
       -0.63617647 -0.06547058 -0.3123041 -0.37509432
000270 b2 99 9f 3d b6 e8 e5 bb ef 31 3c 40 39 ca 29 3f
       0.07792987 -0.0070162667 2.9405477 0.6632419
000280 f8 ad 5a be f6 cc 77 3f bb 47 88 3e bc a3 0b 3f
       -0.21355426 0.9679712 0.26617226 0.54546714
000290 e2 8f 04 3f 89 d3 12 3f 9e ab 2e 40 5a 6c 1c 3d
       0.5178205 0.5735403 2.7292247 0.03818927
0002a0 27 b4 53 3e 83 b3 9a bf 57 65 24 bf 89 09 c2 3e
       0.20674191 -1.2086033 -0.6421713 0.378979
0002b0 bb 3b 20 bf c8 a2 aa bf 45 28 e1 3f 78 df 41 bf
       -0.6259114 -1.3330927 1.7590414 -0.7573161
0002c0 b2 ed ca be a9 6f 6f 3e 0b 6d f6 be fa 8c ab bf
       -0.39634472 0.23382439 -0.48130068 -1.3402398
0002d0 cb cc 03 3f b4 07 3b 40 ab 65 96 3f 81 06 b1 bc
       0.51484364 2.9223452 1.1749777 -0.021609547
0002e0 e1 04 4d bd e3 95 72 bf 86 e8 87 3f 2a 74 b6 3f
       -0.05005348 -0.9475996 1.0617836 1.42542
0002f0 b8 ce a3 bf ca 37 8e 3f 82 d3 ab 3f 68 d1 a1 be
       -1.279746 1.1110775 1.3423922 -0.31605077
000300 1c f2 fd 3f dc 95 0f 3f d8 af 83 3f 0e 1a 6f bf
       1.9839511 0.5608804 1.0288038 -0.9339913
000310 8b 18 87 3f c6 cb a5 bf 83 43 6a be b4 3b e9 3d
       1.0554365 -1.2952812 -0.22877316 0.113883406
000320 b1 34 85 3f 7c 1e e1 be 20 c6 f4 be ff 47 c8 be
       1.0406705 -0.4396857 -0.47807407 -0.3911743
000330 9d 96 2d bf 3c 69 18 bf fa 52 09 40 21 30 14 3f
       -0.6780794 -0.59535575 2.1456895 0.5788594
000340 f2 59 a1 bf c2 e7 56 be 6b b9 96 3e 36 c9 ad 3f
       -1.2605574 -0.20986846 0.29438338 1.357703
000350 45 e1 90 3e e8 de c8 bf 6a b6 bf be 8d 85 19 c0
       0.28296867 -1.5693026 -0.37443858 -2.3987763
000360 77 dd b3 be 1e 46 9a 3f 6d d5 54 3e 87 3c 50 be
       -0.35129902 1.2052648 0.2078454 -0.2033559
000370 c6 7b 0c bf 34 92 b1 bf 62 df 69 3e 4e 8c e8 be
       -0.54876363 -1.3872743 0.2283912 -0.45419544
000380 2c ea b4 be 03 bb f6 3d 2a 92 34 bf ac 7d cf be
       -0.3533491 0.120473884 -0.7053553 -0.40525568
000390 2b 9a 02 3f 03 c4 8d bf ac d1 a5 3f 51 7b c5 3f
       0.5101649 -1.1075443 1.2954612 1.5428258
0003a0 ef 58 5a 3d d6 71 39 c0 2b ca 2b bf 11 ed 13 bf
       0.05330747 -2.897573 -0.6710536 -0.5778361
0003b0 2a 7e 03 40 6c f8 51 bf e4 fe 50 3f 19 44 29 3f
       2.0545754 -0.82019687 0.8163893 0.66119534
0003c0 64 b4 e7 bd 2f ef 94 be 3e 26 d3 bf e1 06 b6 bf
       -0.11313704 -0.29088733 -1.6496046 -1.4220849
0003d0 c4 96 ad bf 98 c2 8a 3e 68 2f 5b bf 8a f0 6e 3f
       -1.3561635 0.27101588 -0.8561921 0.93335783
0003e0 22 78 5b bf cb 8b 0c c0 98 66 c7 3f c2 50 a0 3f
       -0.85730183 -2.1960323 1.5578184 1.2524645
0003f0 ae 5e 91 bf 54 f7 15 3e 00 ff ef bf ea 4e 4d 3f
       -1.1357019 0.1464513 -1.8749695 0.8019854

tbls_list.0.ff.first_proj.bias f4 [256]
000000 70 df e4 bd fa 53 0c be 4b 4e 94 be 54 60 c1 bd
       -0.1117543 -0.1370391 -0.28965983 -0.09442201
000010 8e b4 d5 bd 8d a6 22 be 1d 85 34 be 5d 71 0e be
       -0.10434829 -0.15883847 -0.17628904 -0.13910432
000020 d1 27 4a be db 5f 90 bd 36 13 b8 bd e0 ca 3e be
       -0.19741751 -0.07049533 -0.08988039 -0.18632078
000030 a2 b5 1b be 62 73 79 bd 53 10 da bd 45 ae 3e be
       -0.15206006 -0.060901053 -0.10647645 -0.18621166
000040 5e 35 ea bd 05 fb 7e bd a6 f6 50 bd a5 3d 53 bd
       -0.1143596 -0.06225111 -0.051016472 -0.05157246
000050 cf e5 25 bd 11 f3 2b 3c bb fb 08 3d 17 12 38 be
       -0.040502366 0.010494963 0.033443194 -0.1797565
000060 62 7b 2e be e6 6d 50 be c5 dc 17 bd 0a 1a 81 be
       -0.17039254 -0.20354423 -0.037075777 -0.2521518
000070 91 cc 8b bd 21 0d 00 be 47 80 74 be f0 77 46 be
       -0.06826127 -0.12505008 -0.23877059 -0.1938169
000080 ea 3c 91 be b9 66 d3 bd f2 4e 1c bd 97 23 7f be
       -0.28366786 -0.10322327 -0.038161226 -0.2491592
000090 5e ff 04 be 76 f8 7e be 26 c1 28 bd f6 1b 82 bd
       -0.1298804 -0.24899468 -0.041199826 -0.063529894
0000a0 81 e3 49 bd 7a d8 5d be 60 61 05 be df 45 14 be
       -0.04928923 -0.2166461 -0.13025427 -0.14479779
0000b0 f1 67 64 be 45 c8 1f be 09 17 7a bd 63 94 26 be
       -0.22305275 -0.1560374 -0.061057124 -0.16267543
0000c0 b5 50 0d be 1d a7 3b be 3d 39 9e bd 87 c2 1f be
       -0.13800319 -0.18325467 -0.07725761 -0.1560155
0000d0 0c 8d 97 be 72 6d 0c be 11 85 95 be 9b cb 08 bd
       -0.29599798 -0.13713625 -0.29203084 -0.0333973
0000e0 fa ba 46 bd 35 59 32 be 05 6a 4d be 50 a1 34 bd
       -0.04851816 -0.17416842 -0.20059974 -0.044099152
0000f0 4f d0 10 be d2 22 36 bd 08 4e 72 be cd f2 3d bd
       -0.14141963 -0.0444668 -0.23662579 -0.04637413
000100 21 d6 8e bc 6e 10 dd bd 12 71 41 bd fb 79 9f bd
       -0.017436089 -0.10794149 -0.047226973 -0.07786938
000110 69 60 45 be cd eb 13 be 84 a6 df bd e5 91 d7 3a
       -0.19275059 -0.1444542 -0.10920432 0.0016446678
000120 d9 b9 f9 bd b4 70 db bd 37 6a 84 be 68 0b 41 be
       -0.12193651 -0.10714856 -0.25862285 -0.18852007
000130 98 a3 8a be 2c e1 a9 bc 3a 6d de bd 33 63 2e be
       -0.27077937 -0.020737253 -0.10860677 -0.17030029
000140 90 52 a5 bd 39 24 5f be 65 13 99 bd d9 0c b3 bc
       -0.08072388 -0.21791162 -0.07474402 -0.021856712
000150 39 eb 19 be 58 34 6a be 2c da 51 be 77 ec 8f be
       -0.15031137 -0.2287153 -0.20493382 -0.28110096
000160 8c 93 74 be 2f 8d 8f bd 61 42 14 3b b5 37 24 be
       -0.2388441 -0.070093505 0.0022622573 -0.16036876
000170 51 60 75 be 1b 4e 0a be 78 25 6f be 21 03 14 be
       -0.23962523 -0.13506357 -0.23354137 -0.14454319
000180 d9 bb e7 bd 05 7a fe bd 34 7e 43 be 98 bb cd bd
       -0.11315126 -0.12425617 -0.19091111 -0.10045546
000190 09 4f a2 bd 99 cc a6 be 18 ea 89 bd 72 90 a3 bd
       -0.07925231 -0.3257797 -0.06734103 -0.07986535
0001a0 ee ae c3 bd 86 c9 37 be 27 4d a6 bd 7d dd 16 be
       -0.095548496 -0.17947969 -0.081201844 -0.14732929
0001b0 88 86 5c 3c 8d 24 16 bd 34 8e 9f bd f8 83 30 be
       0.013459809 -0.03665595 -0.07790795 -0.17237842
0001c0 55 a2 49 be 2e 12 fe bc 8d e2 0e be fa d7 2c bd
       -0.19690831 -0.031014528 -0.1395361 -0.04219816
0001d0 c8 0a 6f be 1f 09 4e bd 8f b2 89 be b2 fb 29 be
       -0.23343956 -0.050301667 -0.26894042 -0.1659992
0001e0 d0 fa a9 bb 3f ff f0 bd c4 76 fd bd d5 36 1d be
       -0.00518737 -0.11767434 -0.12376168 -0.15352948
0001f0 01 b1 2f be 97 bf d2 bd 49 36 87 be 58 7f 1b be
       -0.17157365 -0.10290449 -0.26408604 -0.15185297
000200 f3 6b 08 bd 5a 3e 94 bd af 63 76 bd 16 b7 7c bd
       -0.033306073 -0.07238455 -0.06015366 -0.06169804
000210 40 b5 3d 3c 0d 28 17 3c 8e 4c a0 bd c4 ff 13 bd
       0.011578858 0.009225857 -0.07827102 -0.03613259
000220 91 33 b8 bd 5f 69 08 be 44 59 47 be f0 cd b3 bc
       -0.089942105 -0.13321446 -0.19467646 -0.021948785
000230 84 09 29 be 48 bd 74 bd a8 87 1f be 55 4f 14 be
       -0.16507536 -0.059750825 -0.15579093 -0.14483388
000240 09 49 cb bd 82 81 53 be cc 61 89 bd 3e df c6 bd
       -0.0992604 -0.20654872 -0.067081064 -0.09710549
000250 ed ea 34 be ee f1 f8 bd 95 ce 94 3c 7c 1c 80 be
       -0.17667742 -0.121555194 0.018164912 -0.25021732
000260 42 fd df bc f6 71 86 bd 7a da d8 bd a6 5b 23 be
       -0.027342442 -0.06564705 -0.10588546 -0.1595293
000270 de db ad bd 76 a0 46 be 98 74 7e bd cb 00 8b bd
       -0.08489202 -0.19397148 -0.06212291 -0.067872606
000280 c2 51 0d be f0 67 51 be b0 5a 3a be 6c 55 00 be
       -0.1380072 -0.20449805 -0.18198657 -0.12532586
000290 07 e1 28 be 61 fd de bd 38 d8 60 be 92 40 af bd
       -0.16492091 -0.10888172 -0.21957481 -0.08557238
0002a0 8d a0 04 be b8 26 4c be 92 d3 68 be 9b ec 2a be
       -0.1295187 -0.19936645 -0.22736958 -0.1669182
0002b0 0b a1 57 be c1 69 77 be 9f d3 2a be c3 77 37 3b
       -0.21057527 -0.24161436 -0.1668229 0.0027994968
0002c0 d0 19 47 be 12 1b 8b be 7f fc ae bc 18 8c 62 be
       -0.1944344 -0.2716909 -0.021360634 -0.22123754
0002d0 a6 80 a9 bd c1 f7 e5 bd aa f8 6c be 6d 9a 42 bd
       -0.08276491 -0.11228896 -0.23141733 -0.047510553
0002e0 90 d4 57 be 0d 67 b9 bd 2c 9d 6b be 3c b3 0c be
       -0.2107718 -0.090528585 -0.23009175 -0.13740247
0002f0 ac 26 f6 bd c7 d8 f3 bd 3f b2 b5 bd b7 33 87 bd
       -0.12019095 -0.11906581 -0.08871888 -0.06601661
000300 8c e5 d2 bd b9 6b 3b be 2b f1 09 be 66 02 91 bd
       -0.10297689 -0.18302812 -0.13470905 -0.070805356
000310 13 ed 23 be 01 a3 56 be 43 6e 2f be 45 5e 05 be
       -0.16008405 -0.20960619 -0.17131905 -0.13024242
000320 4e 1e 94 bd c8 4c 2e be a8 9e 07 be 14 06 76 be
       -0.07232343 -0.17021477 -0.13244116 -0.24025756
000330 5a c0 4e be 60 30 43 be 29 fa 8d bc 6b 17 2d be
       -0.20190564 -0.19061422 -0.0173312 -0.16903464
000340 ab 46 03 be d5 af ea bd fe 58 9f bd 08 ed e9 bd
       -0.12819926 -0.114593185 -0.07780646 -0.11422163
000350 a9 9f c3 3c d5 dd 85 be 96 f9 83 bd 57 bd 25 be
       0.023879843 -0.26145807 -0.06444089 -0.16185509
000360 9e c8 fe bd 75 77 22 be 4c c7 88 bd 92 41 05 be
       -0.124406084 -0.15865882 -0.06678638 -0.13013294
000370 83 7b 1e be 43 20 ad bd a3 2a 33 be 1c e5 04 bd
       -0.15476803 -0.08453419 -0.17496733 -0.03244506
000380 05 a0 eb bd 95 d9 ca bd 68 f6 6d be 00 c4 cf bc
       -0.11505131 -0.09904782 -0.23238528 -0.025362015
000390 79 5d 13 be a2 4e ea bd 3f aa 75 be 64 b7 41 3d
       -0.14391126 -0.11440779 -0.23990725 0.047294036
0003a0 d1 c0 ec bd 4d 6c 54 bc e3 48 82 be 99 35 a7 bd
       -0.11560214 -0.012965274 -0.25446233 -0.0816452
0003b0 c9 f9 3f be c5 bc 09 be f8 ed ab bd 96 ae 14 be
       -0.18747629 -0.13450916 -0.08394998 -0.14519724
0003c0 a7 a9 35 be 52 87 25 be 8b 4c e3 bd 52 0d 2f be
       -0.17740498 -0.16164902 -0.11098584 -0.17094925
0003d0 8e 1d d4 bd 5a 1c 54 be ce 50 25 be ab 15 1d be
       -0.103571996 -0.2071394 -0.16144106 -0.15340297
0003e0 f7 50 4c be 70 16 aa bd 65 69 2f be 3c ad 6c be
       -0.1995276 -0.08305061 -0.17130049 -0.23112959
0003f0 d4 f0 55 be 54 c5 1a bd ae 0f 88 be f8 cd 59 bd
       -0.2089265 -0.037785843 -0.26574463 -0.053174943

tbls_list.0.ff.first_proj.weight f4 [256, 64]
000000 20 89 bd bd 5a 6a f4 bc f4 68 d0 3d c9 ec 6a 3d
       -0.0925467 -0.029835869 0.10176268 0.057354722
000010 9c f5 a5 bd e9 e7 aa 3d 39 1e 3d 3e 41 9a 9b 3d
       -0.08103487 0.083450146 0.1846856 0.07597781
000020 15 e4 88 3d 21 88 45 be c2 ae ef 3d 60 e9 2b bd
       0.06684128 -0.1929021 0.11703254 -0.04197061
000030 3e 8a 4e 3d c2 08 1a be 3c 16 42 be 6b 9f a6 bd
       0.050424807 -0.15042403 -0.18953794 -0.08135875
000040 a6 f8 e1 3b 04 25 cc 3d 67 1b 00 be fa 39 06 3e
       0.0068960963 0.09967998 -0.12510453 0.13108054
000050 8c 7e 9c bd 9b f0 4f 3e fd 6a 5a be a9 db 03 3e
       -0.076413244 0.20306627 -0.21329875 0.12876762
000060 04 8b 17 3e d3 cf cb bd 11 21 9f 3b fb 08 3e be
       0.14799124 -0.09951749 0.0048562367 -0.18558113
000070 5f bd ee 3d 83 b4 49 bd 4c 75 15 be 3e 99 37 bc
       0.116572134 -0.049244415 -0.14595526 -0.011205969
000080 28 53 8d bc af 92 9b 3d 99 de 03 3e 37 aa 84 3b
       -0.017251566 0.07596337 0.12877883 0.0040486115
000090 14 43 89 3c 30 ec 2b 3d 9c dc 86 3e 73 8f ba 3d
       0.016755618 0.041973293 0.26340187 0.09109392
0000a0 76 8e 97 bc bd d5 5f 3e f2 41 38 3d 62 ef da bd
       -0.018500548 0.21858878 0.044984765 -0.1069019
0000b0 be 1d 43 3d ab a2 52 3d bc 03 82 3c ce 3f 8a 3c
       0.047635786 0.051424664 0.015870921 0.016876128
0000c0 e9 36 1d bb 97 a9 14 be a7 bc 31 be 1b 23 b9 bd
       -0.0023989028 -0.14517818 -0.17357121 -0.09039899
0000d0 76 3f 3a 3d c0 a0 a2 bc b9 a2 bf 3b 3c d9 04 be
       0.045470677 -0.019852042 0.0058482555 -0.12973493
0000e0 49 16 fa bc ae 71 1c bc 7d e3 a7 bd 4d 3b 10 be
       -0.030528205 -0.009548588 -0.08197687 -0.14085121
0000f0 f9 6b df bd 05 29 ea 3d f6 8e 17 3e 0b 6c 9d 3c
       -0.10909266 0.11433605 0.14800629 0.019216558
000100 96 31 c9 bb 95 d1 17 3e 73 b9 c9 3d bf e1 2a be
       -0.0061399443 0.14826043 0.09849825 -0.16687678
000110 a6 b2 28 3d 51 8d 82 3a 73 e4 11 be 1d bd 44 3e
       0.041185997 0.0009960328 -0.14247303 0.19212766
000120 35 b1 ad 3c 64 a7 83 3d b8 cf ed bd 0a fd 9a 3d
       0.021202663 0.064284116 -0.11611885 0.075677946
000130 eb f3 56 bd 46 db 66 3d 5c a9 91 bb c9 16 13 3d
       -0.052478712 0.05636146 -0.004445238 0.0359104
000140 f9 70 09 be cf f5 63 3e 8c 6a 89 3d a8 40 50 be
       -0.13422002 0.22261737 0.06709775 -0.20337164
000150 53 f5 10 be 8d 29 5b 3e fc c6 2b bd d2 6e db bd
       -0.14156084 0.21402569 -0.041937813 -0.10714497
000160 58 78 f8 bd c9 16 0a be 5c c0 22 3d be a5 e7 bc
       -0.12132329 -0.13485254 0.03973423 -0.028277274
000170 9e 78 8f 3d 01 89 64 3e 8f 58 0c be 12 f7 0e 3e
       0.07005428 0.22317888 -0.13705657 0.13961437
000180 d3 cf be bd b1 b4 df 3d 9b b0 bc 3d 68 f6 1e 3d
       -0.09316983 0.10923136 0.09213372 0.03880921
000190 0c 87 f9 3c cb 1d 29 be 2d 91 c7 bd 20 6e 46 be
       0.030459903 -0.16515271 -0.09744487 -0.19377947
0001a0 f8 e0 1f 3e f1 0a 5f be d5 64 e1 3d dc f6 8d bd
       0.15613163 -0.21781518 0.1100556 -0.0693185
0001b0 38 8b 24 3e 5d 75 16 bb b9 d1 90 3d cc 65 b1 bd
       0.16068733 -0.0022958138 0.070712514 -0.08661994
0001c0 e0 c4 0a 3e 03 ca 2b 3e ca 3a e2 bc 0f d3 51 be
       0.13551664 0.1677628 -0.027615923 -0.20490669
0001d0 ac 11 15 bd c0 ea 35 be 62 d5 b6 3d 84 3d 0d be
       -0.036393806 -0.17765331 0.08927418 -0.13792998
0001e0 1d e6 03 3c 53 97 50 bd b4 b4 48 bc 6e 35 22 bc
       0.008050469 -0.050925564 -0.012250114 -0.009900434
0001f0 0e e0 a9 3d d7 a0 dd bd f9 a0 2b 3e a8 e6 6a 3c
       0.08294688 -0.108216934 0.16760625 0.014337219
000200 99 2d d0 bd b9 7d 98 be 0a 8e 12 3d a4 f9 49 bd
       -0.10164947 -0.2978342 0.03577999 -0.04931034
000210 9f 8c 7e bd f8 67 27 3d 2e 7c 4f 3d c6 d6 e9 3d
       -0.062145825 0.040870637 0.050655536 0.11417918
000220 91 8d 7f bc de 41 3d bd d4 1a df 3b 58 8c 7a 3c
       -0.015597717 -0.046205394 0.006808618 0.01529225
000230 14 e6 eb bd b1 8a 9e 3c 2f a2 0d bd 34 2e 17 bb
       -0.11518493 0.019353243 -0.0345785 -0.002306831
000240 47 36 fb 3c c6 ad b9 3d 65 6a 02 3d e5 ac 70 bd
       0.03066553 0.09066348 0.031839747 -0.058758635
000250 d2 05 b8 3d 9f 71 13 bd 7e e4 be 3d 3f e9 9a bd
       0.08985485 -0.03599703 0.09320925 -0.075640194
000260 f7 28 18 3d 01 71 7b bd 23 46 23 bd a3 76 c3 bd
       0.037148442 -0.061387066 -0.03986181 -0.095441125
000270 be 94 53 bd 21 cf 1a 3e 89 a6 01 bd 20 7b 8f bb
       -0.051655523 0.15118076 -0.03165296 -0.0043786913
000280 23 f3 58 bc 3c 40 82 bd da 42 4f bd 2b fb 30 bd
       -0.013241562 -0.06359908 -0.050600864 -0.043208282
000290 ed fa 3a bd ee 9e 08 3b cf eb b1 3d 00 88 c3 3d
       -0.045649458 0.0020846683 0.08687555 0.09547424
0002a0 66 00 26 3d a9 18 87 3d 63 9e b0 bc 7b 9b 6c bd
       0.040527724 0.065965004 -0.0215599 -0.057765465
0002b0 a0 da 84 3d d9 07 17 bc d1 04 02 3e aa f2 0d 3e
       0.06487012 -0.00921818 0.1269715 0.138621
0002c0 b8 1e 84 3d ed 9d 69 bd ae a7 e2 bd 09 f8 41 bd
       0.06451172 -0.057035375 -0.110671386 -0.047355685
0002d0 31 76 6f bc ac 89 0a 3c b6 25 c2 3d 83 79 90 3d
       -0.014615581 0.008455675 0.09479849 0.070544265
0002e0 b3 fe 5b bd b4 ac 84 bd f6 83 1c bd 47 e2 3a 3d
       -0.053709697 -0.06478253 -0.038211785 0.04562595
0002f0 78 ee e3 3c 96 c4 75 bd f0 52 91 3d cd db ab bd
       0.027823672 -0.060001932 0.07095897 -0.08391533
000300 47 f7 8a bc c2 3d c5 3d 78 43 da bd 48 d3 11 bd
       -0.016963614 0.0963092 -0.106574 -0.035601884
000310 cd 73 4b 3d 22 3f 7d 3d 60 38 c7 bd 4c a7 ca 3d
       0.049670983 0.061827786 -0.097275496 0.098951906
000320 aa 4b fa bd 95 2e 2e be fe e2 4f 3d 03 b7 10 3d
       -0.12221463 -0.17009957 0.050753586 0.035330784
000330 c4 ee 0f 3c 00 d0 3b 3c 22 9d 9e 3d 3c af 29 3b
       0.0087849535 0.011463165 0.077448145 0.0025891801
000340 19 c0 42 3e 98 7f 2d 3c b2 db 64 bd 67 22 32 bd
       0.19018592 0.010589503 -0.05587358 -0.04348984
000350 0a a1 8d bd fa 08 88 3d 74 33 f2 3d 8e 55 a2 bd
       -0.069154814 0.06642337 0.1182622 -0.079264745
000360 9d 3f a6 bd 9c c5 5e be b1 6b 1e be fd eb 1f be
       -0.08117602 -0.2175507 -0.15470769 -0.15617366
000370 86 b4 f2 3d 94 58 85 bd 90 6d 1e bd ba 94 c0 3d
       0.11850838 -0.065110356 -0.038678706 0.09403367
000380 a8 02 34 be cc 9a 1c 3e 6e 8c 68 3d 6f e5 a5 3d
       -0.17579138 0.15293425 0.05677455 0.081004016
000390 50 ce 5d 3d a2 c9 83 bc a7 2c 71 bc ea 53 39 bd
       0.054151833 -0.016087357 -0.014720119 -0.045246042
0003a0 19 aa b1 bd 34 a3 06 3e 9f c2 92 bd 7c 9f af 3b
       -0.08675022 0.13148195 -0.07166027 0.005359588
0003b0 c0 88 bf bc f4 97 25 bb de ae 2b bd f4 6e f4 3b
       -0.023380637 -0.0025267573 -0.041914813 0.0074595157
0003c0 79 ec 4d bd 02 a1 8b 3a 84 9e 82 bd 68 83 04 be
       -0.050274346 0.0010652842 -0.06377891 -0.12940753
0003d0 3a c0 36 be 02 2a 53 bd 55 65 e6 3d fe 2f a8 bc
       -0.17846766 -0.051553734 0.11249796 -0.020530697
0003e0 1d 0d bc 3c 1c 42 c6 3d 76 5c 5b 3e b4 05 d5 bc
       0.022955472 0.09680578 0.2142199 -0.026003696
0003f0 f3 1c 05 3e df 6d 89 3c d6 95 0b 3e 8d 76 b8 3d
       0.12999325 0.016776023 0.13631377 0.09006987

tbls_list.0.ff.layernorm.bias f4 [64]
000000 a0 d0 21 bd 78 0a 00 3d 69 6c 91 3c 3f bf db bc
       -0.0395056 0.031259984 0.01775189 -0.026824592
000010 f9 8c 10 bc 0a b7 4a bc 85 4d e9 3c 1e 32 52 3c
       -0.008822673 -0.0123727415 0.028479347 0.012829332
000020 d4 66 d9 bc fc ee 0e bd 65 b4 41 bc 4c 07 19 bc
       -0.02653829 -0.034895882 -0.011822795 -0.009340119
000030 b1 e9 41 bd 1c 2f 9f bc fb 90 19 bc b4 89 67 bc
       -0.047342006 -0.019431643 -0.009372945 -0.014131952
000040 be 54 6d bb e3 12 53 3d 00 93 b5 bc d2 31 72 3d
       -0.003621384 0.051531684 -0.022164822 0.059129544
000050 9b 32 49 3c 31 f9 f2 3c 9e e3 2a bd 1a 63 49 bc
       0.012280132 0.02965984 -0.04172098 -0.012291694
000060 e2 de e6 3c 75 98 88 bc 95 6a d8 3b 93 74 b6 3b
       0.02818245 -0.01667426 0.0066045024 0.005568096
000070 50 57 cc 3c 74 42 96 bc ef 03 61 bd 05 3d 8e bb
       0.024943978 -0.018342234 -0.054935392 -0.00434077
000080 47 47 95 bd 39 5b cd 3a 63 31 b9 bc 08 d8 24 bd
       -0.07288986 0.0015667445 -0.022606557 -0.040245086
000090 b0 8b 19 3b a5 6a e6 bc 02 51 14 3d 88 80 f3 bb
       0.0023429208 -0.028127024 0.036210068 -0.0074310936
0000a0 91 54 e1 3c b8 d9 c6 3c d1 53 9f 3c e3 7a 13 bc
       0.027506145 0.024273738 0.019449146 -0.009001466
0000b0 50 31 19 3c 4a 0e e1 3c ef a7 c3 3c b9 f5 d6 3b
       0.009350136 0.027472634 0.023883788 0.006560054
0000c0 14 28 80 3c cd 9a f6 bb 34 cb 89 bb e2 6a 65 bc
       0.01564411 -0.007525778 -0.004205132 -0.014002534
0000d0 38 ce c9 bc 38 b4 eb bb 46 f6 fc bc 1c fd 58 3c
       -0.024634466 -0.0071931146 -0.030879151 0.01324394
0000e0 a3 4b be 3c e3 a3 3b 3b 2c 59 03 3c b4 ce cb 3c
       0.023229426 0.002863162 0.008016866 0.024878837
0000f0 39 ef 30 bd dc 0e 87 3c 0d 74 00 3d 46 be 69 3c
       -0.04319689 0.016486578 0.031360675 0.014266556

tbls_list.0.ff.layernorm.weight f4 [64]
000000 66 15 86 3f 41 ec 69 3f d9 93 82 3f c5 05 81 3f
       1.047528 0.9137612 1.020137 1.0079886
000010 64 07 84 3f b4 6c 83 3f 5b 33 85 3f 71 33 82 3f
       1.0314755 1.0267549 1.0406297 1.0171949
000020 d8 9e 7e 3f 9d 28 85 3f 69 ca 85 3f ca 9a 79 3f
       0.99461126 1.0403019 1.0452396 0.97501814
000030 3f 71 72 3f b0 57 87 3f 13 58 78 3f 84 76 77 3f
       0.9470405 1.0573635 0.9700939 0.96665215
000040 40 ea 81 3f 80 c4 79 3f 0b 5e 7f 3f 87 41 86 3f
       1.0149612 0.9756546 0.99752873 1.0488747
000050 2e c8 84 3f 14 61 83 3f 23 98 75 3f b6 b5 80 3f
       1.037359 1.0264001 0.9593527 1.0055454
000060 86 e3 85 3f 6b 92 85 3f 69 b0 74 3f 3d 35 8a 3f
       1.046006 1.0435308 0.9558168 1.0797497
000070 33 32 8b 3f 6a 03 8a 3f dc ef 80 3f 71 4c 78 3f
       1.0874695 1.0782292 1.0073199 0.9699164
000080 59 0c 79 3f 89 09 85 3f 7f c6 79 3f 95 99 82 3f
       0.97284466 1.0393535 0.97568506 1.020312
000090 2d 84 80 3f 5b b8 7a 3f 24 7d 84 3f 69 bc 82 3f
       1.0040337 0.97937554 1.035069 1.0213748
0000a0 07 4e 83 3f 22 e5 75 3f a8 28 84 3f ac d9 87 3f
       1.0258187 0.96052754 1.0324907 1.0613303
0000b0 ec 90 7b 3f 5d 3a 89 3f 86 c9 82 3f ec d9 83 3f
       0.9826801 1.0720936 1.021775 1.030088
0000c0 5d 12 82 3f 98 d9 82 3f ed 1e 85 3f 41 c4 84 3f
       1.0161854 1.0222654 1.0400063 1.0372392
0000d0 63 af 8b 3f 50 94 77 3f 0e b0 84 3f b6 da 86 3f
       1.0912899 0.9671068 1.0366228 1.0535495
0000e0 ca 21 82 3f bc 17 7e 3f 99 d8 7b 3f 12 53 85 3f
       1.0166562 0.99254966 0.98377377 1.0415976
0000f0 46 e7 77 3f 08 74 81 3f 0a a3 7d 3f dc d9 74 3f
       0.9683727 1.0113535 0.990769 0.9564493

tbls_list.0.ff.second_proj.bias f4 [64]
000000 fb 76 ba bd 56 3e 76 bc e3 68 cc bc c8 0c d0 bc
       -0.09104725 -0.0150295105 -0.024952358 -0.02539672
000010 c7 af 3b bd f0 8e c8 3c d0 2e 94 3c 97 4e 1c 3d
       -0.04582193 0.02448222 0.018088728 0.038160887
000020 2f d6 e5 bc 84 ae 5c bd 52 e3 3e bd 50 a6 27 bd
       -0.028056232 -0.05387737 -0.04660351 -0.040930092
000030 27 5d 35 bc da d2 9d bc e9 ab c5 3a 43 74 4d 3d
       -0.0110695725 -0.01926558 0.001508114 0.050159704
000040 a3 36 fd 3c 71 f6 5c 3d 0a ac ab bd 2d 1a 22 3b
       0.030909842 0.053945962 -0.08382423 0.002473484
000050 fd 90 91 3d 44 2c dc 3c 31 44 86 3d 89 ac 1e 3d
       0.071077324 0.026876576 0.06555975 0.03873876
000060 e2 63 ae 3c 65 44 1a bd e4 b9 4b bd 15 5d 6a bd
       0.021287862 -0.037662882 -0.049737826 -0.057217676
000070 cd 3a 85 3b a2 c2 ac 3d 7d 68 d3 bd 7b 17 68 bc
       0.0040658475 0.08435561 -0.10322664 -0.014165754
000080 81 2a 89 bd f0 d2 fc 3c df 34 95 bc e9 05 77 bc
       -0.0669756 0.030862302 -0.018213687 -0.015077093
000090 e4 89 df 3c 7b cc 71 bd c3 11 89 3d 0e 8a 50 3c
       0.027287431 -0.0590329 0.06692841 0.012728227
0000a0 3c 31 29 bd a2 f3 95 3d ce c3 49 3d 0f 98 51 3d
       -0.04130672 0.0732186 0.049259 0.051170405
0000b0 3c d3 f9 3d ec d0 59 3d 23 11 31 3c b3 c0 04 bd
       0.12198493 0.05317776 0.010807308 -0.032410335
0000c0 ce fb 6b bd 90 fd c9 3d f6 c2 48 bc ef b8 36 bd
       -0.057613187 0.09862816 -0.012253514 -0.04460996
0000d0 3f 07 02 3c 6e 33 4e bd 79 89 22 3d a9 b0 73 3d
       0.007936298 -0.050342016 0.039681885 0.059494648
0000e0 33 55 66 bd 70 33 50 3d a3 3d 2b 3d 31 76 a1 bc
       -0.056233596 0.050830305 0.04180683 -0.019709678
0000f0 30 12 58 3c 94 c4 22 3d cc 7d 11 3d b3 b3 12 3c
       0.01318793 0.039738253 0.03552036 0.008953976

tbls_list.0.ff.second_proj.weight f4 [64, 256]
000000 0f 83 5d bd 0e 73 2d 3d 26 5e 8c 3d 18 94 5d 3d
       -0.054080065 0.042346053 0.06853895 0.05409631
000010 4e a6 46 3b 41 1e cd 3c 84 f7 58 bc 88 95 1d 3d
       0.0030311528 0.02503884 -0.013242606 0.038472682
000020 da 1f c4 bd 7e d2 91 3d a5 4c f6 bc 3b de 1f bd
       -0.09576388 0.07120226 -0.030065844 -0.039030295
000030 87 00 05 be cd 98 cf bd d1 c4 d6 3c 09 55 ca ba
       -0.12988482 -0.10136566 0.026216896 -0.0015436719
000040 53 14 68 bd bb c8 92 3d 06 19 df bd 66 21 c1 bd
       -0.056660008 0.071671925 -0.10893445 -0.09430198
000050 b1 4b 6c bc 47 07 b5 3d a1 4f 0e 3e af d6 55 3b
       -0.014422343 0.08839279 0.13897564 0.0032629182
000060 b4 f3 f0 bd de 42 9c 3d f2 c6 69 bd 3f d2 ce 3b
       -0.11765233 0.076299414 -0.057074495 0.0063116844
000070 cb 7a 03 be f7 56 12 3c c9 74 da bc 9b f2 a2 3d
       -0.1283981 0.008931867 -0.026667016 0.079564296
000080 bd e8 08 3d bc 5f ce 3d 89 61 35 bd 16 84 24 3c
       0.03342508 0.10076854 -0.04428247 0.010041257
000090 1c 5b 7e 3d 7e d8 f3 3d 6e ee 60 bc b2 89 36 bd
       0.062098607 0.11906527 -0.013728721 -0.04456491
0000a0 dd 13 a7 3d e3 e2 34 3e c8 f3 82 bc 40 04 24 3b
       0.081580855 0.17664675 -0.015985385 0.0025026947
0000b0 2b 81 29 bd d3 3e cf 3c 5e 08 af 3b d9 bd 7a 3d
       -0.04138295 0.025298512 0.0053415736 0.06121621
0000c0 c8 5f 89 bd ea 51 7d bd b1 e4 d2 3d f2 87 76 bc
       -0.06707722 -0.061845697 0.10297526 -0.01504706
0000d0 2b 6a 20 be 91 4c d9 bd 36 42 33 3d 34 42 80 3a
       -0.156655 -0.10610307 0.043764316 0.0009785355
0000e0 d4 d1 b0 3b 88 7f 23 be 78 7e 69 bb 38 1f a0 bd
       0.005396107 -0.15966618 -0.003562836 -0.078184545
0000f0 b3 82 8a bd 98 2f 42 3c ad 31 d5 bd df 5d bb bd
       -0.0676321 0.011852168 -0.104098655 -0.09148764
000100 53 a3 05 3c 7b f9 67 bd 76 97 47 bd 1a 1d 06 bc
       0.008156615 -0.056634407 -0.04872843 -0.008185649
000110 0a 1d 71 3d 1a cf ae bd 93 25 45 bd 09 75 75 3d
       0.058865584 -0.08535595 -0.048131537 0.059926067
000120 46 0e 0f 3e 40 2d 88 3d 0f 26 ba bd bc 1b e3 3d
       0.13970289 0.06649256 -0.0908929 0.11089274
000130 45 77 d5 3d ae c1 28 3b f8 2b 13 3e a0 05 6d 3d
       0.104231395 0.0025750208 0.14372241 0.057866693
000140 36 87 96 3d f9 30 c7 bb ea af c2 bc 35 68 89 bb
       0.07350008 -0.006078836 -0.023765523 -0.0041933306
000150 85 28 c8 3d 74 74 45 3d e0 58 0e bd 8d c3 ef 3d
       0.097733535 0.04820676 -0.034752727 0.1170722
000160 22 91 96 bd 76 61 cb 3c ac 45 19 3d de ab c2 bd
       -0.07351901 0.024826746 0.03741996 -0.09505437
000170 a2 42 6b bc 3d 90 e7 bd d9 c4 04 3e d2 0c 40 bd
       -0.014359148 -0.11306808 0.12965716 -0.046887226
000180 77 b6 38 3d af 09 42 bd 0b 68 a3 3b e6 32 06 3d
       0.045095887 -0.047372516 0.004986768 0.032763384
000190 45 26 db 3a f5 38 a3 bd 25 55 9d bd b8 16 35 bb
       0.0016719779 -0.07969848 -0.07682256 -0.002763195
0001a0 1d 1f 56 3d 8e c5 c3 3d ee 9c 2e 3d ff b8 83 3d
       0.052275766 0.09559165 0.04263013 0.064317696
0001b0 d0 f2 81 ba 4e d6 66 3d 1c 4f 92 bd d1 0c 66 3d
       -0.0009914283 0.05635672 -0.07143995 0.056164566
0001c0 3a 2e 94 3d 36 69 1f be 7f 8c 43 bd 53 06 44 bd
       0.072353795 -0.15567479 -0.04774141 -0.047857594
0001d0 16 44 85 bd bf 02 24 bd 8b 20 be 3c f0 85 ee bd
       -0.06507127 -0.04004168 0.023208877 -0.1164664
0001e0 5b a5 0a 3e 2e c1 8e bc dd 1c f8 3d fa 3f 0f bd
       0.1353964 -0.0174261 0.1211488 -0.034973122
0001f0 4e df d6 bd f4 b5 e2 bd 7c 53 3c be 46 e3 29 3d
       -0.10491811 -0.11069861 -0.18391222 0.04147651
000200 cd 88 b9 bc c7 32 9a 3d 85 64 0d 3d e8 08 26 3d
       -0.02264824 0.07529216 0.03451969 0.040535837
000210 b9 51 89 3d bb 23 06 bd 72 9d 12 be 9b d8 30 3c
       0.067050405 -0.03274892 -0.14317873 0.01079383
000220 59 1e 2d bd 91 21 56 3d 1d 75 f6 3d f0 59 3d 3d
       -0.04226527 0.052278105 0.12034056 0.04622835
000230 fa 77 28 bd 41 b4 70 bd 58 0b ee bb 25 68 8e bc
       -0.041130044 -0.058765654 -0.007264536 -0.017383644
000240 21 a4 04 be 5d b7 35 3d 1b a3 1d 3d 3b 73 03 3e
       -0.12953235 0.044364322 0.038485628 0.12836926
000250 e4 43 f5 3d 70 a9 d8 3d 97 f2 58 bc a0 f9 8c bd
       0.1197584 0.10579193 -0.013241432 -0.0688355
000260 57 f0 7e 3d 70 c4 06 3c 9a 3a b4 3c f3 98 d5 bd
       0.062240925 0.008225545 0.0220006 -0.104295634
000270 89 1b 30 3c e9 fb 20 bc 5d 79 2c 3d 9f 0e 71 3c
       0.010748752 -0.009825685 0.04210793 0.014712959
000280 cb cc b3 bd 20 00 aa 3d eb 30 63 bd a2 07 63 3d
       -0.087792955 0.08300805 -0.055466574 0.0554272
000290 70 bf d1 3c 89 41 35 3c 2e 7e 37 bd cb 5a bf 3d
       0.02560398 0.011062988 -0.04479807 0.09343489
0002a0 3c 69 be 3d 08 a6 0c bc a9 d3 ee bc 11 36 93 bd
       0.092974156 -0.008584507 -0.029153662 -0.07188047
0002b0 e2 57 ea 3c b7 24 80 3b 0c 0a d1 3d b4 9d 04 bd
       0.028606359 0.0039106268 0.102069944 -0.03237696
0002c0 62 1f 01 be 0d 6f 92 3c 69 05 b7 bb 36 fc e5 3c
       -0.12609628 0.017875219 -0.0055853617 0.028074365
0002d0 f1 02 27 3e bb 60 f9 3c ec 8f e8 bd 24 ab 89 3d
       0.16309716 0.030441632 -0.11355576 0.067220956
0002e0 68 b5 1c 3e 56 cb 0f be 1d 72 38 bd 8f 3d 6e bd
       0.15303576 -0.1404241 -0.045030702 -0.058164176
0002f0 50 2d a2 3c 63 13 d3 bc 47 f0 0c 3d da ec 21 3d
       0.019796997 -0.02576608 0.034408834 0.03953252
000300 f1 71 e0 bd 16 61 c8 bc c6 7c 89 3c d6 d1 df 3d
       -0.109592326 -0.024460357 0.01678313 0.10928695
000310 82 0b 2b bd f9 70 21 bd 51 01 34 be 42 6b b5 bc
       -0.04175902 -0.03941438 -0.17578627 -0.022145871
000320 d2 3f 11 bd b8 df 0e bd 37 6e 94 3d 68 cc 16 3d
       -0.035461254 -0.034881324 0.07247584 0.03681603
000330 14 92 92 3d e6 a0 0f bd dc 5f c4 ba 9a a1 4c bc
       0.071567684 -0.035065554 -0.0014982182 -0.012489701
000340 61 01 5c 3d 6d 00 a3 3d 68 e0 09 bb 65 d4 85 bd
       0.053712253 0.079590656 -0.0021038298 -0.06534652
000350 2f bc 07 be 74 5e 00 3b a4 47 e9 3c b7 a4 1c 3d
       -0.1325538 0.0019587548 0.028476544 0.03824302
000360 37 5f cc 3d d5 b9 fc bd 09 b8 d7 3b 27 65 0f 3e
       0.09979098 -0.12340132 0.006583218 0.1400343
000370 af 49 cc bd b0 16 f7 3c 90 86 d8 3d 6c a1 be bd
       -0.099749915 0.030162185 0.10572541 -0.093081325
000380 52 fe 69 3d b3 e3 1a 3d 51 2b 07 bd 92 ad 3d bd
       0.057127304 0.037814807 -0.033000294 -0.046308108
000390 84 66 27 be 34 55 37 3d 80 58 0e 3e 1c 97 82 bc
       -0.163477 0.04475899 0.13900948 -0.015941195
0003a0 1f ce 41 bd 3a 66 0d be b3 39 82 3d 9f 04 9c bd
       -0.047315713 -0.13808528 0.063586615 -0.07618069
0003b0 a6 9e 1f 3d 80 17 65 bd 9d d8 dd bc 25 27 01 3e
       0.03896966 -0.055930614 -0.027080828 0.12612589
0003c0 ba 30 bf 3c a8 25 69 bd c1 e9 ee bc 66 42 c1 bd
       0.023338664 -0.056920677 -0.029164197 -0.094364926
0003d0 ef 8c 8f bb ac 4b f4 bc 08 c9 a5 3d 57 ef 3a ba
       -0.0043808143 -0.02982124 0.08094984 -0.00071310013
0003e0 ce 53 37 3d af ce c5 bd c5 9a 72 bd fa 19 b1 3d
       0.044757657 -0.096585624 -0.05922963 0.08647533
0003f0 d6 5f 95 3c 24 2c da 3c 2a f7 13 3e 5e 10 62 bd
       0.018234175 0.026632376 0.14449754 -0.05519139

tbls_list.0.mha.kproject.weight f4 [64, 64]
000000 44 0f ed 3d 8c c6 a1 3d 35 10 dd bc 35 02 4c bd
       0.11575177 0.07899198 -0.026985267 -0.049806792
000010 0e 2c 0f 3e 06 92 ee 3d e0 97 3e bd 44 0a 59 be
       0.1398165 0.116489455 -0.046531558 -0.21195322
000020 cb 7a fc 3d f2 5f 8d bc 78 15 a0 3d 2c 30 df 3d
       0.123281084 -0.017257664 0.07816595 0.1089786
000030 07 ee 14 3e b0 f6 ea bd 43 09 99 3b 27 53 1f be
       0.14543925 -0.11472833 0.0046702935 -0.15559064
000040 3d 48 c8 bd f8 78 76 be ca d2 56 3e 01 2e f9 3c
       -0.09779403 -0.24069583 0.20978847 0.030417444
000050 40 a2 a3 3d 0e 55 42 3e 36 fc e1 3d 48 1e 6a bc
       0.07989931 0.18977758 0.110344335 -0.014289446
000060 32 dd fb bd 82 0e 7f 3e 11 bf 6b 3e 74 4f 6e bc
       -0.12298049 0.24907878 0.23022105 -0.01454531
000070 bc d8 3d 3e cf e9 61 bd 27 c6 cd bd 70 52 42 bd
       0.18539709 -0.055154618 -0.1004756 -0.0474419
000080 42 dd ce 3d 77 5e ea 3d 7b 9d 62 bd b2 a2 03 bc
       0.10100795 0.11443799 -0.055325966 -0.008034395
000090 44 77 91 bd bd 78 ce bd 64 08 5b bd 86 77 b1 bd
       -0.07102826 -0.10081623 -0.0534748 -0.086653754
0000a0 a8 64 db bd 3d 94 3c be 31 ad 13 3e 85 8a c6 bd
       -0.10712558 -0.18415923 0.14421536 -0.09694389
0000b0 09 43 8d 3d 2e 5e 1f bd f3 fb 0c 3d df 4e 5e be
       0.068975516 -0.038908176 0.034419965 -0.21709774
0000c0 2c f7 11 3d 27 76 a6 bd 19 a3 07 bd 05 be 59 3d
       0.035636112 -0.081280045 -0.033114526 0.053159732
0000d0 d8 65 81 3d 89 46 52 3e fa 27 34 3e 7f b8 5f bc
       0.06318253 0.2053472 0.17593375 -0.013654827
0000e0 d8 7a 05 be 6a 17 ef bc ef de de bb 1a 14 62 3c
       -0.13035142 -0.02918597 -0.006801478 0.013798738
0000f0 12 63 01 bd 26 08 0f be b6 7f 4e bd a2 c7 a3 3d
       -0.03158862 -0.13967952 -0.050414763 0.07997061
000100 a0 91 47 3d c4 85 1d 3d b8 07 9a 3b 49 4f b8 3d
       0.048722863 0.038457647 0.004700627 0.089994974
000110 e7 98 94 3d 31 78 f1 bd 41 b3 8a bd 06 84 c8 3c
       0.07255726 -0.11790503 -0.06772471 0.024477016
000120 0f 0c 1e be c6 5d b9 bd 27 bf 34 3d c8 d4 02 be
       -0.15434287 -0.09051089 0.04412761 -0.12776482
000130 23 45 16 3c e5 77 79 bd 18 96 c1 3d 54 48 6b bd
       0.009171757 -0.060905356 0.09452456 -0.057442024
000140 30 3f 99 3e 90 e2 5f be 22 cd c4 3c 19 be 94 3d
       0.2993102 -0.2186377 0.024023596 0.07262821
000150 3e 19 94 bd ea b8 b5 3d c1 df 05 3e a3 f2 92 bd
       -0.07231377 0.0887316 0.13073637 -0.071751855
000160 9e 81 60 3d 8a b7 11 bd cf f7 35 3e 7d ae 28 3d
       0.054811113 -0.035575427 0.17770313 0.04118203
000170 29 0d 46 3e e9 71 1b be 9d 20 b3 ba 2e 85 5b 3e
       0.19340958 -0.15180172 -0.0013666336 0.21437523
000180 d2 32 1f 3e 8a 16 1c be 8c 36 1c 3e c6 ae 0e be
       0.1554673 -0.15242973 0.15255183 -0.13933858
000190 31 ff 43 3e 01 34 bb 3d 1e b6 a0 3c 5c 46 39 3e
       0.19140317 0.09140778 0.01961809 0.18093246
0001a0 8e c2 b7 3d 45 3e 56 bd ac 7c 0f bd 3e ce bb 3d
       0.08972655 -0.05230548 -0.035031006 0.09170197
0001b0 19 89 65 3e 3d b6 ce 3c cb 37 22 be eb a9 76 bd
       0.2241558 0.025233382 -0.15841596 -0.06022064
0001c0 6a 50 05 3e 12 17 9f 3d 42 48 92 bd 8f a1 2f 3e
       0.13018957 0.07768072 -0.07142688 0.17151473
0001d0 89 02 c5 bc 3f bd 5c 3e 16 61 4b be 86 7d d6 3d
       -0.02404906 0.21556567 -0.19861254 0.104731604
0001e0 0f eb 9f bc a4 1a 07 3d 9f 3a 2c be ff 18 65 bd
       -0.019521264 0.03298439 -0.16819237 -0.05593204
0001f0 0b 97 ff 3d 37 9e 00 be 2e 53 9d 3d fe a1 72 3c
       0.12479981 -0.12560354 0.07681881 0.01480913
000200 0a 5a d7 3d 01 9e e1 bd c1 c3 29 3d f4 dd e0 3a
       0.105152205 -0.11016465 0.04144645 0.0017155991
000210 2a 9f ae bc 1e 54 79 3d 52 35 ca bc ce 7c a6 bd
       -0.02131613 0.060871236 -0.024683628 -0.08129273
000220 92 c8 b7 3d e6 d5 15 3e e4 2d ec bd 3e b5 b3 3d
       0.089738026 0.14632377 -0.115321904 0.087748036
000230 a6 70 0a be 6b 74 02 be 97 ec 27 3e 2d 94 82 be
       -0.13519534 -0.12739722 0.16398846 -0.25503674
000240 48 10 e5 3d 64 d0 7b bd e4 46 12 3e 10 80 2c 3d
       0.11184746 -0.061478034 0.14284855 0.042114317
000250 76 aa 14 3e ef 7e 10 be ce 29 39 bc 40 6b 88 bd
       0.1451815 -0.14110921 -0.011301471 -0.06661081
000260 92 78 82 be 4e 54 0d 3e 79 fa 68 3d 9a ee f8 bd
       -0.25482613 0.13801691 0.056879494 -0.12154885
000270 85 25 17 bd c4 ba 28 3e 48 61 83 3d f1 68 87 bd
       -0.036901016 0.16477495 0.06415039 -0.06611813
000280 fb 4a 3c 3d 5b 99 81 3d 00 10 0b 3e 3b 30 f3 bc
       0.045969944 0.06328078 0.13580322 -0.029686084
000290 dd 90 76 bd 0d 3a 3c 3d 22 e4 ef bd f8 82 a9 bd
       -0.060196746 0.0459538 -0.11713435 -0.082769334
0002a0 64 67 00 be b5 3f 07 3d bf 7b f8 ba cb 42 31 3b
       -0.1253944 0.03301974 -0.0018957778 0.0027047868
0002b0 4d 1f 86 3e 84 c3 d1 3c a4 15 3b 3e 7d 05 22 be
       0.26195756 0.025605924 0.18269974 -0.15822406
0002c0 c3 b6 db 3c 29 0c 41 3e 35 6a da 3b 19 3e 83 bd
       0.026820546 0.18852295 0.006665493 -0.064083286
0002d0 c1 74 e8 bc 58 20 9c 3b de 59 11 3e 96 ce 99 bd
       -0.028375985 0.004764598 0.14194438 -0.07510106
0002e0 a4 91 e7 3b d1 27 48 3d de 25 89 3d 82 3f 37 3e
       0.0070669223 0.048866097 0.06696676 0.1789532
0002f0 d2 36 20 be 2b 37 2f 3e 0f ae 10 3e 60 ee 89 3e
       -0.15645912 0.17110889 0.14128898 0.26939678
000300 76 46 9e bc 34 89 7c 3d 56 95 ff bd 9a e7 15 3e
       -0.019320708 0.061654285 -0.124796554 0.1463913
000310 1b 8c 0d be e3 5c 76 be 06 04 9d 3d d6 9d 05 bd
       -0.13822977 -0.24058871 0.07666783 -0.032621227
000320 43 8d a3 bd e8 c9 c5 3d b8 07 84 3d 14 26 4a bd
       -0.07985928 0.09657651 0.06446785 -0.04935272
000330 9f 30 c5 bd b4 f0 cc 3d ab b6 e0 3c 10 85 05 be
       -0.09628414 0.10006848 0.027430853 -0.1303904
000340 e9 26 4d 3d 39 07 11 be 22 4d 14 be 8b c1 1f 3e
       0.050085936 -0.14162911 -0.14482549 0.15601175
000350 47 73 65 3d 03 b9 8d bd e5 8b 11 bd 70 96 ea 3c
       0.05601814 -0.06920054 -0.035533804 0.028636187
000360 28 ef dd bd 9a 44 53 3e fd 66 8c bb 02 ea 48 3e
       -0.10836631 0.20631638 -0.004284738 0.19620517
000370 4b 4b d0 bc 43 cd bf bd 17 2e f8 bd 40 93 63 3e
       -0.025426527 -0.093653224 -0.12118166 0.2222414
000380 68 b1 88 3d 9b 04 bf bc c1 af 89 3c 30 32 0c bc
       0.066744626 -0.023317626 0.016807439 -0.0085568875
000390 81 70 4a bd 0b 87 f9 bd 29 cc 53 bd c5 67 64 3e
       -0.0494237 -0.121839605 -0.051708374 0.2230521
0003a0 74 1d fe bd a5 a3 63 3d 71 b1 0e bd 49 80 07 3c
       -0.124079615 0.055575985 -0.03483719 0.008270332
0003b0 13 ba 42 3e b4 8d c5 3d f4 53 43 be 86 e1 00 3d
       0.19016294 0.09646168 -0.19074994 0.031465076
0003c0 84 34 dc bc 6f 73 57 bd 68 d9 bb bd e8 cf b0 3c
       -0.02688051 -0.05260032 -0.09172326 0.021583512
0003d0 fd da de 3d f6 a5 3f 3e 62 7e a8 bd 3d 8c ce bd
       0.108816124 0.18715653 -0.082272306 -0.10085342
0003e0 8b 05 c0 bc aa 51 9e 3d ec f4 53 be 9d bf d2 bd
       -0.023440143 0.0773042 -0.20698899 -0.102904536
0003f0 8a 5c b0 3c 43 61 96 bd 3e 08 96 bd 78 b7 e6 3d
       0.021528501 -0.0734277 -0.07325791 0.11265463

tbls_list.0.mha.layernorm.bias f4 [64]
000000 9a e4 ed 3d f9 c0 37 3b 39 2b 2b 3d f5 c5 85 3d
       0.11615868 0.0028038605 0.041789267 0.06531898
000010 f9 50 e0 bc a4 e9 04 be a6 0c 66 bd a3 da bf bd
       -0.02738236 -0.12979752 -0.056164406 -0.093678735
000020 89 d9 13 3e 5e de 06 3e 06 23 59 3d 5e 22 08 3d
       0.14438452 0.13170764 0.053011917 0.0332359
000030 34 5a 0d 3e fb 71 9d bc b7 0b d3 3d 98 98 fc bc
       0.13803941 -0.01921939 0.10304969 -0.030834481
000040 ba 63 08 ba c9 73 d7 bd 76 e4 78 3d 08 da 5c ba
       -0.00052028487 -0.10520131 0.060764752 -0.0008424823
000050 c8 a0 0c bd 1b ae c0 bd 0f 76 c8 bc fe 11 15 3e
       -0.03433302 -0.09408208 -0.024470357 0.14557645
000060 f5 d8 2a 3c 20 65 a1 3d 23 a8 91 3c 01 23 fb 3d
       0.010427703 0.07880616 0.01778037 0.12262536
000070 b0 42 9e 3c d5 ec b8 bd 69 28 96 3d f9 e5 cd 3d
       0.019318908 -0.09029547 0.073319264 0.100536294
000080 15 0c 84 3d 19 08 ba 3d 69 5b a3 3d 38 5f 01 bd
       0.06447617 0.09083576 0.079764195 -0.03158495
000090 e7 39 9f bd f6 33 b0 3d a4 7c a2 bd 21 1f bf bd
       -0.07774716 0.08603661 -0.079339296 -0.09332109
0000a0 93 8e ad bd 80 1c 99 bd 5f 08 48 bc 27 eb 67 3d
       -0.084744595 -0.07476139 -0.012209027 0.056620743
0000b0 21 de 25 be a7 60 27 bd 1f 06 88 bd 98 3d 0e bc
       -0.16198017 -0.04086366 -0.066417925 -0.008681677
0000c0 7e fe d7 3c 97 74 46 3c a0 81 97 3c 6f 32 53 3d
       0.026366469 0.012112758 0.018494427 0.05156177
0000d0 59 4d e3 3d 60 da 23 3e 12 e4 0b 3b 3e d0 06 3d
       0.11098737 0.16001272 0.0021345657 0.03291344
0000e0 c5 5d f3 bd 71 29 5d 3e 69 93 c7 bd 7c dd 5c bd
       -0.118831195 0.2159784 -0.09744913 -0.05392216
0000f0 fc b7 48 bd 39 cd d4 bc b5 f7 62 bd af 61 6d bd
       -0.049003586 -0.025976764 -0.055412013 -0.057954486

tbls_list.0.mha.layernorm.weight f4 [64]
000000 50 30 83 3f 92 a4 7a 3f e3 2a 83 3f 01 f1 77 3f
       1.0249119 0.97907364 1.0247463 0.9685212
000010 d9 74 7e 3f 5e ab 81 3f 0a 01 84 3f bb 26 81 3f
       0.99397045 1.0130422 1.0312817 1.0089945
000020 1b 38 7f 3f b5 be 80 3f 03 c3 7c 3f 03 86 7b 3f
       0.99694985 1.0058199 0.98735064 0.9825136
000030 2a 4a 75 3f 91 08 79 3f 43 82 6d 3f 67 b8 7e 3f
       0.9581629 0.97278696 0.9277689 0.99500126
000040 7e 06 80 3f 1e b9 81 3f a8 64 79 3f bd 03 87 3f
       1.0001981 1.0134618 0.97419214 1.0548016
000050 7b 35 83 3f 89 1a 83 3f b9 ca 6d 3f 65 6f 7a 3f
       1.0250696 1.0242473 0.92887455 0.97826225
000060 81 a1 81 3f 13 d0 85 3f e7 0e 85 3f 7c 5d 83 3f
       1.0127412 1.0454124 1.0395173 1.0262904
000070 16 bc 86 3f 7c c7 8a 3f fb 2b 73 3f 8a 20 74 3f
       1.0526149 1.0842128 0.94988984 0.9536215
000080 ef ef 80 3f 50 59 7e 3f 58 63 7d 3f fb a2 7a 3f
       1.0073222 0.9935503 0.9897971 0.9790494
000090 e4 82 83 3f 1e 12 6d 3f 08 60 80 3f 8d ff 84 3f
       1.027432 0.9260577 1.0029306 1.0390488
0000a0 ea 4e 83 3f 03 ec 6e 3f a5 d1 85 3f a0 59 82 3f
       1.0258458 0.93328875 1.0454603 1.0183601
0000b0 88 7a 85 3f 04 d8 89 3f c9 7f 83 3f 04 cd 84 3f
       1.0428019 1.0769048 1.0273372 1.0375066
0000c0 f8 bd 7a 3f f2 9a 72 3f b8 96 83 3f 40 b0 88 3f
       0.9794612 0.9476768 1.0280371 1.0678787
0000d0 a1 90 81 3f cf 83 80 3f e4 3b 7e 3f 3a ab 85 3f
       1.0122262 1.0040225 0.99310136 1.0442879
0000e0 96 9b 7f 3f ee b5 79 3f 2f 57 81 3f 36 c4 85 3f
       0.9984678 0.9754323 1.0104731 1.0450504
0000f0 ef 69 7a 3f 53 56 80 3f 3b b5 7d 3f f0 71 67 3f
       0.9781789 1.0026344 0.9910466 0.9040823
