degradation_transformer_model.safetensors (safetensors, 866672 bytes, 38 tensors)

lm_head.weight f4 [1000, 64]
000000 ff 1a 0e 40 d6 ae 89 bf bf 8a da be cb 0b d6 be
       2.2203977 -1.0756481 -0.4268398 -0.41805872
000010 3f fc 81 3e d8 f7 a0 be ed 5f a0 3f 4f 50 00 c0
       0.2538776 -0.3143909 1.2529274 -2.0049016
000020 55 e2 56 be ed 93 3c 40 bc f6 87 be 54 03 fc 3e
       -0.20984776 2.9465287 -0.2655543 0.4922129
000030 21 39 83 bf 2c be 69 3e b0 5f b4 3c 23 33 a3 bf
       -1.0251809 0.22826451 0.022018284 -1.2749981
000040 02 66 9c 3d 49 14 ad 3e 7d 23 a1 bf 6a a9 72 3e
       0.07636644 0.3380454 -1.2588955 0.23697439
000050 31 11 be bd 89 66 8f be 9e e5 5a 3d df 26 4c bf
       -0.09280623 -0.28007916 0.053441636 -0.7974681
000060 f8 9b 3d 3f 70 0b a4 bf b6 25 aa be 99 ab 62 bf
       0.74066114 -1.281599 -0.33231896 -0.8854309
000070 67 08 72 3f f8 3a 86 bf 92 bd 82 3f ca 56 40 be
       0.9454407 -1.0486746 1.0214102 -0.18783107
000080 da 82 ff 3f 7d e0 f3 3e a3 b5 33 3d 56 6e aa bf
       1.9961808 0.47632208 0.043874394 -1.3314922
000090 9e 2b 9f bf 43 ed ee bf d0 51 36 bd 7b 32 dc bf
       -1.2435186 -1.8666157 -0.044511616 -1.7202905
0000a0 a2 b9 84 3f d4 06 70 3c 73 12 89 bd 80 f6 ac bf
       1.0369151 0.014650065 -0.06692972 -1.3512726
0000b0 54 5f 6f 3e 19 70 b9 bd 51 60 65 bf 3d a5 77 bf
       0.23376209 -0.09054584 -0.8960009 -0.9673651
0000c0 e6 ae 87 bd 4a 3f b1 3f 41 a8 64 bf 1a 83 aa 3f
       -0.06625156 1.3847439 -0.89319235 1.3321259
0000d0 52 df ec 3e 5c f0 87 be ba 64 88 bf da 58 2b bf
       0.4626413 -0.26550567 -1.0655739 -0.6693245
0000e0 ed b4 82 be ed 56 fb be 25 ca 22 3f 97 2e 89 3e
       -0.2552866 -0.49089757 0.635897 0.26793358
0000f0 11 e5 d4 bd fc 6b 11 40 0c 07 01 c0 22 95 f1 be
       -0.103952534 2.2722158 -2.016055 -0.47184092
000100 1b 16 b1 be 88 5f 5e 40 de a3 ba bd 29 51 c2 bd
       -0.34587178 3.4745808 -0.091132864 -0.09488136
000110 48 4a 90 3e 5f 20 7b 3f ad 46 af 3f 20 e2 33 3e
       0.28181672 0.9809627 1.3693444 0.17566729
000120 19 7e 28 bf 7a ab 8e 3f 3d c5 a6 bf 10 51 c0 bf
       -0.6581741 1.114608 -1.3028942 -1.5024738
000130 98 71 04 c0 20 5b cf bf 8e 36 c1 3f 56 47 81 3f
       -2.0694332 -1.6199684 1.5094774 1.0099895
000140 e3 3c cc 3f b5 1f 1b be c1 54 8b 3f 95 7d b8 bf
       1.5956081 -0.15148814 1.088524 -1.4413325
000150 81 ed 56 be b9 b0 81 3f 18 ad 91 be df 03 3b c0
       -0.20989038 1.0132056 -0.28452373 -2.9221113
000160 3e 4b c1 3f d8 3c f5 3f b7 5d 25 40 9b 32 38 3f
       1.5101087 1.9159193 2.583845 0.7195222
000170 7c d8 1a be 20 03 a3 3f 2a 15 9a 3f 67 94 a8 be
       -0.15121645 1.2735329 1.2037709 -0.32925722
000180 10 6e 64 3f 6d 9b 05 be f3 32 1c c0 cc 69 f4 3f
       0.8923044 -0.13047571 -2.4406097 1.9094787
000190 37 f6 a0 3f f1 8d 90 3e 61 a9 70 3f 3d 3d 6b 3f
       1.2575139 0.28233293 0.9400845 0.9189032
0001a0 17 c7 ac 3f fa 66 64 bf 23 0b d6 3d 5d 61 e2 bf
       1.3498257 -0.8921963 0.10451343 -1.7685963
0001b0 ca 4a 15 3f af 76 ce 3e e8 81 98 bf d2 98 00 3f
       0.58317244 0.40324923 -1.1914644 0.50233185
0001c0 0f 37 37 bf 90 a9 37 3f ac a1 e8 3e 3a 6f 80 3f
       -0.7156839 0.71743107 0.45435846 1.0033944
0001d0 92 c0 9a 3f db 14 7f 3f 37 5f 27 bf f6 14 27 bf
       1.2090018 0.996412 -0.6537966 -0.6526636
0001e0 dc 4d 10 bf 5a d6 0d 40 6a f5 91 bf ed 0c 3e 3f
       -0.56368804 2.216208 -1.140302 0.74238473
0001f0 09 a4 d6 bf e2 a1 e0 bf d5 db 1c c0 a4 fb b8 3e
       -1.676881 -1.7549403 -2.4509175 0.36129487
000200 84 07 3a bf b9 7b ab bf 1b 1b e3 3f ab aa b7 bf
       -0.7266772 -1.3397132 1.7742647 -1.4348959
000210 05 08 c4 3e a6 e6 bc 3e 73 6f f4 be 17 74 00 3e
       0.38287368 0.3689472 -0.4774128 0.12544285
000220 52 54 98 3f 27 de 46 3f aa 98 90 3f f4 af ce be
       1.1900733 0.7768273 1.1296589 -0.40368617
000230 b0 df f3 bf ee a8 49 bf fe 0c 55 3b 13 b3 a3 bf
       -1.9052639 -0.7877339 0.0032508965 -1.2789024
000240 16 03 b3 3f 31 17 37 3f 42 49 f5 be d8 84 df bf
       1.3985317 0.7151976 -0.47907454 -1.7462416
000250 1e 9c ec 3f 4a 47 ce be 6f c9 f9 be 2b ee 70 bf
       1.8485143 -0.40288764 -0.48786494 -0.94113415
000260 0d 96 ad bd 90 1e af be 81 ba bd 3f 17 66 e5 bc
       -0.084758855 -0.34203005 1.4822541 -0.028002782
000270 18 9e b7 be d6 3d 0e c0 cf cb cb 3e 21 3b 5d 3f
       -0.35862803 -2.2225242 0.3980393 0.8641835
000280 3b e5 d5 bd 95 4f c8 3e 0e 27 10 3f 9a 92 09 40
       -0.10444113 0.39123216 0.5630959 2.1495728
000290 6b 8f 5d bf 52 8c 4c 3f e1 bd 15 bf 6b fe 82 3f
       -0.86546963 0.7990161 -0.5849286 1.0233892
0002a0 fd 42 6c bf 29 9f 2c 3f 22 0b a1 bf c2 11 34 bf
       -0.92289716 0.6743036 -1.2581522 -0.70339596
0002b0 6d f2 53 bf a8 45 9d 3f 4c d3 6d bf 0e 7d 9c 3f
       -0.8279179 1.2286882 -0.9290054 1.2225664
0002c0 2a e5 a0 3f 6e 5c 7a bf b4 52 90 be 14 6e 12 c0
       1.2569935 -0.97797287 -0.28188097 -2.2879686
0002d0 f5 ea 14 bf 0f fd 55 3f 84 aa 0d 3f c6 31 c4 3e
       -0.58171016 0.8358926 0.5533831 0.38319224
0002e0 ec 98 55 3f 8a df a6 3f 60 e1 c4 3f 99 8c 97 3e
       0.83436465 1.3036969 1.5381279 0.29599455
0002f0 3a 19 41 3f 8c e0 94 bf e2 b8 77 3e 2e 88 65 be
       0.7542912 -1.1631026 0.24191621 -0.2241523
000300 03 54 8e be 90 d2 33 3f 04 23 bb 3e 40 70 3d bf
       -0.2779847 0.7024317 0.36550152 -0.73999405
000310 97 39 ef 3e 54 e8 2c 3f 5c 48 6b bf e9 8b 29 bf
       0.46723625 0.67542005 -0.91907287 -0.6622911
000320 56 d3 25 3e 34 6b 82 3f 66 9f eb 3e f7 3a bd bc
       0.161939 1.0188966 0.4602005 -0.023099406
000330 46 1d c1 3e 88 15 fb 3e 8e b2 46 3f ed 93 fe be
       0.37717646 0.49039865 0.776162 -0.49722233
000340 40 fb 87 3f a9 1e fb be e3 b9 17 40 7a ed 6d be
       1.062355 -0.4904683 2.3707206 -0.23235121
000350 0b d1 1c 3e 6d 01 10 3e 89 d1 10 be 0d 24 2f bd
       0.15314119 0.14063044 -0.14142431 -0.04275899
000360 e7 13 87 bf 7b b7 14 bf 77 af 9d bf 80 74 4f bf
       -1.0552949 -0.5809247 -1.2319173 -0.8103714
000370 5b 15 12 3e 41 27 16 3e f9 62 2b 3f a9 36 44 bf
       0.14265959 0.14663412 0.66947895 -0.76645905
000380 07 ae 97 be c5 ca d3 3f 02 b7 22 3f 13 c8 7c bf
       -0.2962496 1.6546255 0.635605 -0.9874279
000390 13 e5 c2 be d8 47 32 3e 9e 68 96 3f 1b f6 d5 3e
       -0.38065395 0.17410219 1.1750677 0.41789326
0003a0 32 26 33 be bd ad 1f bf 61 d4 9f 3f 07 c0 db bf
       -0.17495039 -0.6237448 1.2486688 -1.7167977
0003b0 b1 de 03 3f 9e 77 b9 3f 08 22 8e bf d8 ee 22 40
       0.51511675 1.4489629 -1.1104136 2.5458279
0003c0 d6 23 98 3f 6a 06 12 bf 60 79 38 3f 23 61 94 3f
       1.1885936 -0.5704104 0.72060204 1.1592144
0003d0 81 54 6e 3f cd b2 b4 3f fc 6f 31 bd aa 00 9d 3e
       0.9309769 1.4117066 -0.043319687 0.3066457
0003e0 a5 ae 53 3f f6 25 cc 3e 5b d6 54 bf 1c d8 1d bf
       0.8268836 0.39872712 -0.8313958 -0.6165788
0003f0 b8 44 5e bf 4a 58 8a bd 14 b3 a4 3f 56 c1 e7 3e
       -0.86823606 -0.06755121 1.286715 0.4526469

tbls_list.0.ff.first_proj.bias f4 [256]
000000 f9 4b 3e be ef 74 b1 bd c8 1f 65 bd 5e bb bd bd
       -0.18583669 -0.086648814 -0.055938512 -0.09264253
000010 36 cf 61 be 4b 8e 13 be 68 dd 88 bd 16 06 92 bd
       -0.22051701 -0.14409749 -0.06682855 -0.07130067
000020 db ac 78 bd 62 e8 d7 bc 70 10 57 bd 42 c3 9d be
       -0.060711723 -0.026355926 -0.05250591 -0.30813032
000030 06 94 a5 bd b7 b3 04 be 1d 28 51 bd 9d e6 2c be
       -0.08084874 -0.12959181 -0.051063646 -0.16884847
000040 8e 1b cf be 1c 8e c9 bc e3 f7 b2 3d ef 3c 92 bd
       -0.4045071 -0.024603896 0.08738687 -0.071405284
000050 4e 47 70 be 05 21 2f be 04 74 68 bc f6 8b 5f be
       -0.234647 -0.1710244 -0.0141878165 -0.21830735
000060 a1 7e ad bd c4 a3 1d be e6 37 1d be b8 9e 87 be
       -0.08471418 -0.15394503 -0.15353355 -0.2648828
000070 bc ef 9c be 59 f2 be bd 09 24 eb bd b9 62 d9 39
       -0.30651653 -0.09323568 -0.114814825 0.0004146302
000080 dd 05 a6 bd 7c a3 97 3d 54 d6 8f be db 89 11 be
       -0.08106587 0.07404229 -0.28093207 -0.14212744
000090 57 de 88 bd 3b fd e0 bd 01 9c 48 be 2f 5c cd bd
       -0.06683033 -0.109858 -0.19590761 -0.10027348
0000a0 6a 2a de bd 1f d4 08 be c0 29 c3 be 4a 8f 10 be
       -0.108479336 -0.13362168 -0.3811779 -0.1411716
0000b0 da 81 8e bd 72 ed 7c be b2 4d aa be 96 5c 98 be
       -0.06958361 -0.24699953 -0.33262402 -0.29758137
0000c0 5b 14 84 bd dc b6 c2 bd 41 9d 3e be 3a bf 87 be
       -0.06449195 -0.09507534 -0.18614675 -0.26513082
0000d0 29 04 a5 38 00 ff 19 be b2 5f 37 be 5e 07 56 bd
       7.868588e-05 -0.15038681 -0.17907599 -0.05225312
0000e0 ba 73 bf bd a9 e9 13 bc 27 a9 c0 bd 09 9e 0f be
       -0.09348245 -0.009027877 -0.09407263 -0.1402513
0000f0 b2 e3 9a be f6 43 74 be 68 6e 8a 3d 3a 5d a0 be
       -0.30251843 -0.2385405 0.067593396 -0.31321126
000100 66 af a4 be 1c 0e 85 bd 99 b0 81 be ec 33 30 be
       -0.32165068 -0.06496832 -0.25330046 -0.17207307
000110 19 8e 60 be 26 64 2a be 32 85 99 bb 41 ca 17 be
       -0.21929206 -0.16639766 -0.0046850676 -0.14823247
000120 ed cd 53 be 3c 12 4a be e9 55 46 bd 34 b8 88 bd
       -0.20684023 -0.19733518 -0.048421774 -0.06675759
000130 54 c8 34 be 80 37 1d be 05 4c 84 be e4 cf 00 bd
       -0.17654544 -0.15353203 -0.25839248 -0.03144826
000140 79 11 e8 bd 86 0d 94 bd b1 30 96 be 25 53 37 be
       -0.11331458 -0.07229142 -0.29334024 -0.17902811
000150 2a 38 0d be 5f 01 30 bd 13 39 58 bd d4 7a dd bd
       -0.13790956 -0.042970058 -0.052788805 -0.10814443
000160 0b 30 06 bd e6 98 a8 bb 71 32 91 be d7 8f ea bd
       -0.03276066 -0.00514518 -0.28358796 -0.114532165
000170 5a 64 5f bd 4c d6 9a bd 66 35 97 be 4c 62 82 3d
       -0.054539062 -0.07560405 -0.29532927 0.06366405
000180 dd 30 3f be 2d 98 4b be 80 30 6e be 50 80 15 be
       -0.18670984 -0.19882269 -0.23260689 -0.14599729
000190 2c 46 30 bd 5f 40 09 bd 1a c4 f3 3c ac d6 63 be
       -0.04303567 -0.033508655 0.029756594 -0.2224986
0001a0 83 6c 87 be ed c6 89 be a1 e0 05 be 9b 17 8a be
       -0.26449975 -0.2690958 -0.1307397 -0.26971135
0001b0 43 58 3e be b1 ab a8 be 41 67 8e be d3 42 26 be
       -0.18588357 -0.3294349 -0.2781315 -0.16236429
0001c0 56 d3 62 be 4a e2 46 bd 3c 2d ae bd d7 dd 84 bd
       -0.22150931 -0.04855565 -0.085047215 -0.06487625
0001d0 c9 07 01 bd eb e6 76 bd a5 f4 19 be 44 bc 13 be
       -0.031501565 -0.060278814 -0.1503473 -0.14427286
0001e0 b0 dd 7b be c6 08 cf be 5c 87 61 bd 78 71 53 be
       -0.24596286 -0.4043638 -0.05506073 -0.20648754
0001f0 7b 51 86 be 55 c0 00 be f0 d8 1f be 70 88 00 be
       -0.2623404 -0.12573369 -0.15610099 -0.12552047
000200 57 7b 5b be 92 77 a5 bd f4 b7 4f be 35 d7 85 bd
       -0.21433769 -0.08079447 -0.20285016 -0.06535188
000210 a1 c6 39 be cb da 74 bd cc 3e 06 be c1 24 28 be
       -0.18142177 -0.05977897 -0.13109893 -0.1642027
000220 f6 83 ad be c5 52 c8 3c c9 df 88 be a6 09 98 be
       -0.3388974 0.02445353 -0.26733235 -0.2969486
000230 b9 f8 19 be b4 24 96 bc 87 dc 50 be eb 1d ea 3c
       -0.15036286 -0.018328048 -0.20396625 0.02857872
000240 b2 cd e0 bd 61 be c1 bd 6a 9d 8a be ed 27 73 be
       -0.10976733 -0.0946014 -0.27073222 -0.23745699
000250 39 ca 07 be d7 85 08 be 5b 50 2f be f6 5f 81 bd
       -0.13260736 -0.13332306 -0.17120497 -0.06317131
000260 62 8b 79 bd 61 f6 43 bd ff f3 0c bd 16 fd 80 be
       -0.06092394 -0.047842387 -0.03441238 -0.2519309
000270 c5 a6 3f be f8 c3 cc 3b 1f 5a 98 be 8c 6b 34 be
       -0.18715961 0.0062489472 -0.29756257 -0.17619151
000280 1e 6b 0a be 11 b6 f8 be fc c4 26 be f1 0b 91 be
       -0.13517424 -0.48576406 -0.16286081 -0.28329423
000290 15 40 95 bd 46 8e b9 bd 52 49 2a 3d 79 6c 6b be
       -0.07287613 -0.0906034 0.04157383 -0.22990598
0002a0 6c 1d df bc 77 91 5b be d2 f5 6e bc e2 a3 a7 bd
       -0.02723571 -0.21442209 -0.014584975 -0.08185555
0002b0 ba 18 a5 bd ed 10 27 3d b7 24 25 be 09 02 94 be
       -0.08061357 0.040787626 -0.16127287 -0.28907803
0002c0 8d 35 60 be f4 a1 90 be da ec 10 be 1d 3d 48 be
       -0.21895428 -0.2824856 -0.14152852 -0.19554563
0002d0 83 8c 5d bd 8e dd 2b bd bc 6b 1b be f1 42 3e be
       -0.05408908 -0.041959338 -0.15177816 -0.18580224
0002e0 66 00 60 be ae 53 a2 bd bf a5 97 be 1b 13 db 3b
       -0.21875152 -0.07926117 -0.29618642 0.006685627
0002f0 55 d6 78 be 09 df b6 3c 45 c9 90 bd 43 7a 08 be
       -0.24300511 0.022323148 -0.07069639 -0.13327889
000300 a2 05 b7 bd ba 18 45 be dc 78 35 be e7 47 53 be
       -0.08936621 -0.19247714 -0.17721885 -0.20632897
000310 ac 48 7b be 87 fb 18 be 9a b6 8a be 3b 25 44 be
       -0.24539441 -0.149397 -0.2709244 -0.19154827
000320 b3 ca 1c 3e 0b f8 a8 be 0a 15 1a bd 93 2b 50 be
       0.15311699 -0.33001742 -0.03761772 -0.20329122
000330 be f6 85 be bb f4 44 be d8 22 25 be 54 59 a1 bd
       -0.26164812 -0.19233982 -0.16126573 -0.07878366
000340 07 be 03 be e2 07 bd bd fb 4b 47 be cf 9d 9d be
       -0.12865458 -0.09230019 -0.19462578 -0.3078446
000350 8a 64 01 3c ec 9c 70 be 2d a8 aa bd e7 40 41 bc
       0.007897506 -0.23497361 -0.08332858 -0.011795259
000360 d5 c6 bf bd a1 c6 87 be 4b fa 11 bb 66 fb c8 bd
       -0.09364096 -0.2651873 -0.002227443 -0.098135754
000370 f8 96 87 be 72 c9 25 bd 84 bf e1 bd d7 76 dd bd
       -0.26482368 -0.040475316 -0.11022857 -0.108136825
000380 85 d4 29 be f4 15 a7 be 9a d9 34 bd 62 d1 5e be
       -0.16584976 -0.32633936 -0.044152834 -0.2175956
000390 28 a2 ae be d6 4c 9b bd d3 d4 25 be 40 6a bc bc
       -0.3410809 -0.07583015 -0.16194467 -0.022999883
0003a0 8e 34 a3 be 48 21 ad be d7 a6 35 be ef 7a 73 be
       -0.31876034 -0.33814454 -0.17739426 -0.23777364
0003b0 66 d4 c3 bd 20 8b 9a be 02 8a a5 bd 5d c8 26 be
       -0.09561996 -0.3018427 -0.080829635 -0.1628737
0003c0 fa a4 de bd fd e9 ae be 94 5c 15 be df 49 83 3c
       -0.108713105 -0.34162894 -0.14586097 0.016026435
0003d0 1f e2 2c bd d3 64 f3 bc 6c 76 39 bd 6b fe 76 3d
       -0.042207833 -0.029711163 -0.04527895 0.060301226
0003e0 97 b7 e7 3d fa f9 80 bd 38 e7 bb bd 7d b9 25 be
       0.11314314 -0.06297679 -0.09174961 -0.1618404
0003f0 cc dc e5 bd 6d a5 48 be 3f d9 9f be f8 84 be be
       -0.11223754 -0.19594355 -0.31220433 -0.37210822

tbls_list.0.ff.first_proj.weight f4 [256, 64]
000000 e0 fe 94 3e 00 0e 06 bc 78 a3 26 3e 83 e8 20 3d
       0.29100704 -0.008182049 0.16273296 0.03928424
000010 04 4f 18 be da 93 4f 3d c0 a8 48 bd f4 81 ff bd
       -0.14873892 0.05067811 -0.048989058 -0.124759585
000020 b6 4e f4 bd b2 26 b9 3d 92 d6 0f be 47 30 40 be
       -0.119290754 0.09040584 -0.14046696 -0.18768416
000030 ee b8 72 be aa 9b 74 bc 3e a2 b5 bd 8a 07 8f 3d
       -0.23703358 -0.014929691 -0.08868836 0.0698386
000040 ae 46 e2 3d f4 e6 2e be e8 ad be 3c d7 0e 96 3c
       0.11048637 -0.17080289 0.023276284 0.018317623
000050 42 17 17 be 22 60 1a 3e f0 c9 37 3d 10 ae 71 3e
       -0.14754966 0.15075734 0.044870317 0.23601556
000060 68 a0 0e bd 09 09 90 bd 24 b5 19 bc 49 63 d2 bc
       -0.034820944 -0.07032973 -0.009381566 -0.025682108
000070 88 c9 2e be af 2a 9d 3d 4f df 5f bc 82 e3 ae bc
       -0.17069066 0.07674157 -0.013664081 -0.021348719
000080 8b 25 51 be f3 c0 8c 3e f4 94 0f 3e 6a f8 9c 3d
       -0.20424478 0.2749096 0.14021665 0.07664569
000090 09 f8 a9 bd a4 ea 89 bd 46 1f 31 be dd 94 eb 3c
       -0.08299262 -0.06734207 -0.17297086 0.028757507
0000a0 1c 25 b4 bd 08 47 45 3e c6 de a4 3d 6a 2b 4e bc
       -0.087961406 0.19265378 0.08050303 -0.012583593
0000b0 07 c4 c8 3c ce f1 1f 3d 8c 9b 5f 3c 2f ed 36 3e
       0.024507536 0.039048962 0.013647925 0.17863916
0000c0 2e 10 4d bd 8e 22 2e 3e 18 bc 92 3e cd 43 0d bd
       -0.05006426 0.17005369 0.2865913 -0.034488488
0000d0 c5 3f 81 be 94 d2 3f 3e 3e e3 89 3e e0 5f 98 bc
       -0.25243965 0.18732673 0.26931185 -0.018600404
0000e0 ea ac 63 be 4c 17 c3 3b a9 dd 04 3d c6 b6 71 bd
       -0.2223393 0.005953705 0.032437954 -0.059012197
0000f0 b5 b3 43 3e f1 c8 92 bd 85 f9 2e be 23 36 28 bd
       0.19111522 -0.07167233 -0.17087372 -0.041067254
000100 4a 18 31 3d f2 9a f4 3b 38 1d 83 be 57 b5 0d 3e
       0.043236054 0.00746476 -0.2560823 0.13838707
000110 12 67 d5 bd b5 7e c4 bd 54 5f 24 3d 9d b0 45 3e
       -0.1042005 -0.0959448 0.040129974 0.19305654
000120 2d 42 33 bd df 3b 97 3e 7c cf 7b bd a0 da 7e 3e
       -0.043764282 0.29537866 -0.06147717 0.24888086
000130 20 a4 d2 bc 26 0c 14 3d 23 b1 3e 3e c2 43 9f bd
       -0.025713027 0.0361444 0.1862226 -0.07776596
000140 26 a5 10 3e 06 a1 c0 3c 56 56 39 be b6 d3 a2 3d
       0.14125499 0.023514282 -0.18099341 0.07950537
000150 48 d4 98 bd 7e aa c9 bd 2c 04 7d 3d f2 c5 9a bd
       -0.074623644 -0.09846972 0.061771557 -0.07557286
000160 af a0 b0 bc a2 ec da bd 5f dc 81 be ed 32 9f 3d
       -0.021560995 -0.106896654 -0.25363442 0.07773385
000170 6b 98 e4 3d 30 35 5e 3e f1 ab 38 bd a9 db ed 3c
       0.11161884 0.21699977 -0.04508585 0.029035406
000180 fb 3e 79 bb ef ee 6a 3e 60 4e c1 ba 90 5e b6 bd
       -0.0038031924 0.22942708 -0.0014748089 -0.08904755
000190 04 dc 55 bd d9 9f 72 be 2e e2 9a 3d 6b ad cf 3d
       -0.052211776 -0.2369379 0.075626716 0.10140499
0001a0 c1 9d 59 3d a0 53 ee bd f5 d5 08 bd bb c3 f6 bd
       0.05312896 -0.11637044 -0.03340717 -0.120490514
0001b0 88 ea 31 3e 62 3e cf bc f1 3f 63 3d 17 f1 33 3e
       0.17374623 -0.025298301 0.0554809 0.17572437
0001c0 8a a4 59 3b d0 e8 bb bd 68 50 2e 3d 09 93 7c 3d
       0.0033209645 -0.09175265 0.04255715 0.06166366
0001d0 20 b0 03 3e eb 4f e2 bd 2c ac f6 bc a9 55 28 bd
       0.12860155 -0.110503994 -0.030111395 -0.041097317
0001e0 5e a4 a4 bd 3b fb 16 3e 59 ac 18 bd bb c3 12 3e
       -0.08039163 0.14744274 -0.03727374 0.14332478
0001f0 d2 ca 51 3e a1 9c c1 be 0f 33 87 bd 76 14 bd bd
       0.20487526 -0.3781481 -0.066015355 -0.09232418
000200 fa 28 79 3d d1 b0 16 be e9 da a8 be 31 95 47 be
       0.060830094 -0.14715888 -0.32979515 -0.19490506
000210 c5 b6 09 3d fa 0b fe 3d a1 c9 9a bc bb 6f 32 3e
       0.03362157 0.12404628 -0.018894972 0.17425434
000220 9e 29 c1 bc 3f 1c cc bd 6f 26 75 bd b1 90 9c bd
       -0.023579415 -0.09966325 -0.059851106 -0.07644785
000230 31 5d 23 3e d0 f6 78 3c be 7a 8c 3c af 61 88 bd
       0.15953518 0.015195563 0.017148372 -0.06659257
000240 1a 9d 06 be c2 f7 80 be ec e4 a0 bd f6 5c b7 3c
       -0.13145867 -0.25189024 -0.078561634 0.022383194
000250 b6 4d d1 3d ad 8f 86 3d 96 e6 66 bc 73 be 1c 3b
       0.102199 0.06570373 -0.014093062 0.0023917228
000260 bc e8 20 be 8b f9 2c 3d ed e0 7b bd 8b dd 7d bd
       -0.15713781 0.04223017 -0.061493803 -0.061978858
000270 d8 2e bf bd cf f2 94 3d 60 f7 1e 3e 1b a5 7e bd
       -0.093351066 0.072728746 0.15524054 -0.062169176
000280 cf 10 4c 3e ae b0 0a be 4d 66 26 be de 5f 5d 3e
       0.19928287 -0.1354396 -0.16249962 0.21618602
000290 4a 37 89 bd a0 bb 2b 3e ef 80 52 be 0e 85 7b 3e
       -0.06699999 0.16770792 -0.20556997 0.24562475
0002a0 28 52 18 3e ac f8 52 3d 07 ac 3c be 34 cb e4 bb
       0.1487509 0.051506683 -0.18424998 -0.0069822315
0002b0 91 58 61 3d b7 32 9c 3b cc 63 50 be 1e 3d 17 3e
       0.055016104 0.004766788 -0.2035057 0.14769408
0002c0 09 91 57 3e cd 3a 81 3d d2 fd 01 bd 31 fe 20 bd
       0.2105142 0.063100435 -0.031736203 -0.039304916
0002d0 3d e9 07 be e2 c8 64 bd 3d 8e af bd cf 85 32 3e
       -0.13272567 -0.05585564 -0.08572052 0.17433856
0002e0 51 d0 0a bd d9 61 99 3e 42 e4 49 be 7c a3 23 3e
       -0.033890072 0.29957464 -0.1971598 0.15980333
0002f0 d5 be 03 3d b9 2c 02 3e 58 93 6b bd 3f d7 8a bd
       0.032164413 0.12712373 -0.057513565 -0.06779336
000300 84 5d 13 be 32 d2 e3 bd 4d c9 77 bd e8 a9 be 3c
       -0.14391142 -0.11124076 -0.06049471 0.023274377
000310 3e a5 de bd 27 2f 1a 3c 75 2e 13 3e a3 91 3c be
       -0.10871361 0.009410656 0.1437319 -0.18414931
000320 66 3b 5b bd 5f e7 16 3d 3f 62 ce 3d e8 d7 04 3e
       -0.053523444 0.036841746 0.10077333 0.12972987
000330 ef 27 b7 bd 66 ad 09 3e 22 5c 24 be cf f2 1f be
       -0.089431636 0.13445053 -0.16050771 -0.15619968
000340 a0 8d c8 3b 41 aa 44 3e 43 0a a8 3d 21 99 bb bc
       0.0061203986 0.19205572 0.08205082 -0.022900166
000350 f3 80 cf 3e bb f3 9e bd 4a 72 df bc ba e4 0b bd
       0.40528068 -0.07761332 -0.027276177 -0.034153678
000360 18 27 85 3d ff 9c 55 be 7f 6a a5 3d 9d 76 b7 3d
       0.06501597 -0.2086067 0.08076953 0.089581706
000370 3e 67 cd bc 2c 7e 1a be 97 29 7a be 22 16 05 3e
       -0.025073644 -0.15087193 -0.24429928 0.12996724
000380 64 46 64 3d 18 d6 ee bc 2a 13 23 be 43 5e 3f be
       0.055731192 -0.029154822 -0.1592528 -0.18688302
000390 97 b4 bc bd 5a 30 99 3c 90 7e 9a bd 51 00 48 bc
       -0.09214132 0.018699814 -0.07543671 -0.012207107
0003a0 ec 64 03 be d9 f0 2f 3e 64 96 ea bc 71 75 3f 3d
       -0.12831467 0.1718172 -0.028636165 0.04674286
0003b0 91 bf 0c 3e b9 22 57 bd 07 19 00 be 9e 76 05 3e
       0.13744952 -0.05252335 -0.12509547 0.1303353
0003c0 e6 19 df bb 4a e4 e4 bd bb 7c b8 3d 77 19 84 bd
       -0.0068085073 -0.11176355 0.090081654 -0.064501695
0003d0 5f 37 0a 3e 50 91 b7 bd 93 fe b4 be 30 98 60 3c
       0.13497685 -0.08963263 -0.35350475 0.013708159
0003e0 2a 76 47 3d de 08 12 3e 06 d3 22 3e be e6 22 bd
       0.048696674 0.14261195 0.15900812 -0.039770834
0003f0 77 6d 8e bb a8 74 ac 3d f4 88 07 bd f3 a7 95 3d
       -0.0043465453 0.08420688 -0.033089593 0.073074244

tbls_list.0.ff.layernorm.bias f4 [64]
000000 32 50 52 3b e2 7b 84 bd f5 73 a6 3d 1b 3c b4 bd
       0.0032091257 -0.06468941 0.08127586 -0.08800527
000010 f6 48 95 3d f5 1e 3d be 2f 4c 0a 3d e0 ed bd 3c
       0.07289307 -0.1846884 0.03376406 0.023184717
000020 dc a8 31 bd 7a 0e 6a 3d 41 67 44 3c c6 66 11 bd
       -0.043373927 0.057142712 0.011987508 -0.035498403
000030 5e 72 1b bd f1 10 22 3e d0 ef 1d be 09 6a 55 bc
       -0.037950866 0.15826775 -0.15423512 -0.013025769
000040 01 f4 0a 3e a7 9e a4 3a ac d6 f3 bb b1 89 3c bc
       0.13569643 0.0012559489 -0.0074413624 -0.011507438
000050 93 4d f7 3d c3 b7 d6 bd af b2 04 3e 85 7f 20 3e
       0.12075343 -0.104842685 0.12958787 0.15673645
000060 21 ba f9 bd d0 df cc bd f5 f5 96 3d c6 71 65 3d
       -0.121937044 -0.10003626 0.07371131 0.056016706
000070 74 44 06 3b 83 cf c4 bc a3 38 9a bd 9b b1 cb bd
       0.0020487579 -0.02402473 -0.07530334 -0.09945985
000080 8c 6d bb bd 3a 6f c0 3d 02 c2 20 3d e4 be 13 3e
       -0.09151754 0.09396215 0.03924752 0.14428288
000090 e1 92 0e bd b9 f0 6e bd dc 7e 94 3d 9c b3 8e bb
       -0.034808043 -0.05833504 0.07250759 -0.004354907
0000a0 e6 58 a8 3c 25 a3 0a 3c d0 37 d0 3d 17 c5 07 3e
       0.020550203 0.008461748 0.101668954 0.13258778
0000b0 16 a4 06 3c 6c 14 ac 3d e5 53 38 bd 78 9a 86 3d
       0.008217832 0.08402333 -0.045001883 0.06572431
0000c0 be 29 b1 3d 0a ba dc 3d 85 00 98 3d 52 71 ef bd
       0.0865054 0.10777672 0.07421974 -0.11691536
0000d0 79 d5 a7 3d 4f 4f ac bd 0f 87 0b be 38 7f ad bc
       0.081950136 -0.084135644 -0.1362574 -0.021178827
0000e0 5c 56 e8 bb e2 d7 04 be b6 bf ed 3b 9f 2b 5e bd
       -0.007090373 -0.12972978 0.0072555197 -0.05424082
0000f0 d8 de 01 3e 37 14 06 bd 77 0a 13 bd de 2e c1 3d
       0.12682664 -0.032734122 -0.035898652 0.09432767

tbls_list.0.ff.layernorm.weight f4 [64]
000000 3c 29 69 3f 63 17 7f 3f 5b a4 81 3f b1 2c 94 3f
       0.91078544 0.9964506 1.0128282 1.1576139
000010 e0 58 7a 3f f8 da 4f 3f 3f ac 93 3f 36 32 74 3f
       0.9779186 0.81193495 1.153694 0.95389116
000020 79 57 4d 3f c6 ac 6c 3f d2 b9 81 3f 0e ad 89 3f
       0.802116 0.9245113 1.0134833 1.0755937
000030 60 a1 86 3f 0a 23 7a 3f 22 fb 8b 3f bd 35 5c 3f
       1.0517998 0.97709715 1.0936015 0.860195
000040 72 37 80 3f 00 60 75 3f 4e 52 90 3f 5f e0 64 3f
       1.001692 0.9584961 1.1275117 0.89404863
000050 7a d8 91 3f 55 ae 8a 3f ce e0 85 3f b8 22 85 3f
       1.1394188 1.0834452 1.045923 1.040122
000060 a5 7d 98 3f a9 3a 70 3f 02 f5 86 3f d9 ba 8f 3f
       1.1913344 0.9383951 1.054352 1.1228896
000070 2c e5 71 3f ae 48 63 3f 07 bf 69 3f bc a6 8f 3f
       0.94490314 0.88782775 0.9130711 1.1222758
000080 8c b6 7b 3f a7 34 84 3f d3 b3 73 3f 1c 0b 8a 3f
       0.9832542 1.0328568 0.95196265 1.078464
000090 4f 6b 56 3f cf 8c 7b 3f 48 86 87 3f fe fe 86 3f
       0.8375749 0.9826173 1.0587854 1.0546567
0000a0 ae ba 55 3f 04 30 91 3f 3a 1e 88 3f 49 90 9b 3f
       0.83487976 1.1342778 1.0634224 1.2153407
0000b0 95 08 61 3f 71 23 84 3f a2 49 71 3f b3 e9 82 3f
       0.8790372 1.0323316 0.9425298 1.0227569
0000c0 f1 25 60 3f 7b 31 57 3f 4e 19 89 3f 90 44 74 3f
       0.87557894 0.84059876 1.0710847 0.9541712
0000d0 df eb 7e 3f 4d 32 70 3f 9b 3b 68 3f ac a7 80 3f
       0.9957866 0.9382675 0.9071595 1.0051169
0000e0 29 75 73 3f ce bd 72 3f 6a 83 86 3f b5 c6 8c 3f
       0.9510065 0.9482087 1.0508854 1.099814
0000f0 f3 a9 98 3f 2e ea 80 3f 04 66 8e 3f 62 16 81 3f
       1.1926864 1.0071466 1.1124883 1.0084956

tbls_list.0.ff.second_proj.bias f4 [64]
000000 b2 61 41 3d 8d a0 00 be a7 f2 e5 bd b5 88 41 bb
       0.04721231 -0.12561245 -0.11227923 -0.0029530947
000010 bc 2d 98 3d 29 9c 24 be cc c1 ba 3d c2 c0 ea 3d
       0.07430598 -0.16075195 0.09118995 0.11462547
000020 ec 81 8c bd 19 45 f3 3b 2b 67 4b bc 32 84 97 3c
       -0.06860718 0.0074240086 -0.012414734 0.018495653
000030 6d 4a d6 bc bc a4 86 3d 68 11 18 be db 22 38 3b
       -0.026158536 0.06574389 -0.1485039 0.0028096947
000040 11 4f 1e 3e 0e 0d 77 3a d2 2c 89 3c e0 5c 3b bd
       0.15459849 0.00094242475 0.016745005 -0.04574287
000050 13 ef d7 3d 0b 18 3a be c9 83 e0 3c 61 14 5e 3d
       0.10543647 -0.18173234 0.02740659 0.054218654
000060 68 10 3d be 43 41 2b bd 72 96 73 3d a9 30 30 3d
       -0.1846329 -0.041810285 0.059469648 0.043015156
000070 7a b2 dd 3b 7e ef 72 bd c6 90 7a bd 6a 90 db bd
       0.006765661 -0.05931043 -0.061173223 -0.10720904
000080 10 87 34 bd e6 58 e4 3d 9d 20 41 3d c2 b5 4e 3e
       -0.04407412 0.111497685 0.047150243 0.20186523
000090 9a 1e ad bd 5f 2c fc bd f3 99 71 bd 15 8e bc 3d
       -0.084531024 -0.123131506 -0.058984708 0.092067875
0000a0 5b d6 30 3c c8 be cf 3b 41 4d 4e 3c 5d 62 39 3e
       0.010793294 0.0063398816 0.012591661 0.18103929
0000b0 9f b9 4f bc 60 cb 84 3d 68 fc 7f bd c1 d5 5d 3d
       -0.012678533 0.06484103 -0.062496573 0.05415893
0000c0 c4 db 47 3d f9 51 b7 3d 72 fa 83 3d 5e 1d dc bd
       0.04879357 0.08951182 0.06444253 -0.10747789
0000d0 cc b0 b3 3d 9d 9a e5 bd be 48 27 be 89 93 e8 bc
       0.08773956 -0.11211131 -0.16336343 -0.028390663
0000e0 9d 2c 1b bd 90 f0 0c 3c 61 7d 63 bc 64 42 be bc
       -0.037884343 0.008602276 -0.013884873 -0.023225017
0000f0 a3 d0 22 3e 9c f6 ab bd 41 a6 96 ba f2 18 cb b9
       0.15899901 -0.083966464 -0.0011493639 -0.00038737763

tbls_list.0.ff.second_proj.weight f4 [64, 256]
000000 1e 52 8a bd 65 e2 54 bd e4 8e 29 bd a8 44 4f 3a
       -0.06753944 -0.05197372 -0.041396037 0.0007906654
000010 61 10 02 3e 3a 59 17 bd 92 9e c8 bc bd 76 ef 3c
       0.1270156 -0.036950327 -0.024489675 0.029231424
000020 36 df 94 3d 98 fa 10 be f5 f8 2b bc c1 9a 47 3d
       0.072691366 -0.14158094 -0.010496368 0.04873157
000030 c2 54 a5 bd ab 50 a9 bc 17 98 66 3e 28 57 0a bd
       -0.08072807 -0.020668348 0.22518955 -0.033774525
000040 5d 85 3d 3e 3d 84 1c be 5c ec ae bb 3b 37 22 3e
       0.18507905 -0.1528482 -0.005338235 0.15841381
000050 08 cb 4e bd 51 40 07 be ce eb 8e bc 6f 76 bd 3d
       -0.050486594 -0.13208129 -0.017446425 0.09251105
000060 7a 22 aa bb e9 cc 15 be c6 b4 9c 3d bb 89 81 bd
       -0.005192098 -0.14628948 0.07651667 -0.06325098
000070 97 3e cb bd 82 09 8c bd 85 11 66 3d 19 1d a1 bd
       -0.099240474 -0.06837751 0.05616905 -0.07866878
000080 2e 52 cd 3d 33 2d 4f 3d b3 01 b6 bb a8 ff 09 3d
       0.1002544 0.050580215 -0.005554402 0.03369108
000090 d2 c7 91 3d f4 af 20 3d bf 01 37 bd 01 31 34 bd
       0.07118191 0.039230302 -0.0446794 -0.043992046
0000a0 5b 57 96 3c 77 37 43 bd 98 27 0f 3d 2d 63 87 3d
       0.018352201 -0.047660317 0.03494987 0.06610713
0000b0 7f 8e ca bd 60 0f b0 bb cc 6f 83 bb 6f 1f f0 3d
       -0.0989046 -0.0053729266 -0.00401113 0.117247455
0000c0 67 e0 2c 3e 79 bb 8e bc 06 7a 9b bd f4 52 4c bd
       0.16882478 -0.017423378 -0.075916335 -0.049883798
0000d0 1d d7 d8 3d 2a 9e 26 3e f6 7b 81 bd 03 63 c7 bd
       0.105879046 0.16271272 -0.06322472 -0.09735682
0000e0 74 31 23 be d5 b1 41 bd e6 71 9d 3d f0 1f 10 bc
       -0.15936834 -0.047288734 0.0768774 -0.008796677
0000f0 04 5c 68 bd 50 bf 0b 3d 28 05 f1 bd 5f 3e 08 be
       -0.056728378 0.034117997 -0.117685616 -0.13305043
000100 8b f2 39 bd 09 8c b2 bd 72 3f 5a 3d 74 6d 4f bd
       -0.045397323 -0.08718116 0.053283162 -0.050641492
000110 9a 77 07 3d 8a d9 db 3d b9 12 ec bd 4f 52 51 ba
       0.033073045 0.10734852 -0.115270086 -0.0007984982
000120 03 fd 0c be 55 45 8c bd a7 78 e4 bd 2f 12 04 bd
       -0.13768391 -0.068491615 -0.11155825 -0.032243904
000130 3a ad 1d 3d 7d dd 3b bd 5b 53 d2 bc 7b 6f 2f be
       0.03849528 -0.045865525 -0.025674513 -0.1713237
000140 75 a2 c2 3d 97 f0 c0 bd 26 b5 8e be c8 57 89 3e
       0.095036425 -0.09420889 -0.2787258 0.26824784
000150 94 79 5d bd e3 03 35 be c1 6f 6a 3e bf ab 2b 3d
       -0.054071024 -0.17677264 0.22894193 0.041911837
000160 75 ff 62 be 2c 79 8e 3d d0 22 cc bd 3f d9 19 bd
       -0.22167762 0.069567055 -0.099675775 -0.037560698
000170 76 5b aa 3d 0b 66 f4 bd 5d 41 82 bd 22 ac 5f bd
       0.08318226 -0.11933526 -0.06360123 -0.054607518
000180 ea a1 05 bd 49 56 73 ba 41 89 5d 3d ad 9f 63 bd
       -0.032625116 -0.0009282572 0.054085974 -0.0555722
000190 11 87 0d 3b 68 c1 98 bd 23 05 ee 3c 4d 21 93 bd
       0.0021595398 -0.07458764 0.029055184 -0.07184086
0001a0 d0 fd 53 bd a4 2b 1f 3c ac 37 14 bc 1d 25 29 3d
       -0.051755726 0.009714995 -0.009046476 0.04129516
0001b0 69 59 32 be 00 aa 95 bc cc 43 49 bc 47 db 03 bd
       -0.1741692 -0.018269539 -0.01228423 -0.03219154
0001c0 9e 04 02 3c 3a 99 da bb 9a 93 8c bc 7a 85 d1 bd
       0.007935671 -0.006671098 -0.017160226 -0.10230537
0001d0 99 29 25 be 81 4d f0 3c 80 a9 68 be 7d cf 1d 3d
       -0.1612915 0.029333832 -0.22720909 0.038527954
0001e0 ce 24 ef 3b c5 c9 02 3e 7d 21 01 be c1 4e 13 bd
       0.0072980886 0.12772281 -0.12610431 -0.035963777
0001f0 7d dc 09 3e bb c2 38 3a e2 93 7d 3d 4b b2 0a bd
       0.13463016 0.000704806 0.06190861 -0.03386144
000200 33 33 ad 3c 07 87 d1 bd 24 83 85 bd 64 b9 76 3c
       0.021142578 -0.102308325 -0.06519154 0.015058849
000210 c3 78 80 3d b1 b0 0d be 0a 40 dd bd d2 05 51 3c
       0.062730335 -0.13836934 -0.1080323 0.012757735
000220 56 5b 3f bd c7 63 6a be e3 df db bd 42 19 d0 3c
       -0.046717964 -0.22889625 -0.107360624 0.025402669
000230 a1 a5 88 bd a7 57 98 bb 4a 0b 18 bd bb 42 3e bd
       -0.06672216 -0.004649121 -0.03712014 -0.046450358
000240 fe ec d6 bc 4c 7d 42 bb ad d5 56 be f4 b5 33 bd
       -0.026236054 -0.0029676734 -0.20979948 -0.043874696
000250 a2 4e 8b 3d b0 f4 c9 bd c2 d4 93 bc ad 86 41 bd
       0.068021074 -0.098611236 -0.018045787 -0.047247577
000260 cc b5 bb bd de ee 2d 3d 5e 03 ad bd 29 45 7f bd
       -0.091655344 0.04246413 -0.08447908 -0.062321816
000270 93 69 88 bd 7b 9a 07 bd 32 d9 34 be a6 95 05 3d
       -0.06660762 -0.03310631 -0.17660978 0.03261342
000280 ff b7 a7 bd 99 af fb 3d e9 c8 fd bc 7c 6b 92 3d
       -0.08189391 0.12289352 -0.03097959 0.07149407
000290 22 0a bc 3d d1 1e 2d be f5 b6 90 3b aa 33 84 be
       0.0918162 -0.16906287 0.0044163414 -0.25820667
0002a0 28 1c ab 3d 15 5e 69 3e b2 ec 28 be 07 62 36 be
       0.0835498 0.22789796 -0.16496542 -0.17810832
0002b0 99 8c 6b bd f5 64 b2 bc a3 c8 17 be 67 39 dc 3d
       -0.05750713 -0.021776656 -0.1482263 0.10753136
0002c0 ba d0 de 3d ff 3d 20 be d7 a4 18 3d 07 79 d9 bc
       0.10879655 -0.1564865 0.03726658 -0.026546968
0002d0 c2 78 17 3e 84 0c 94 bd 8e 1c 40 3d bd d8 14 bd
       0.14792159 -0.0722895 0.046902232 -0.03633951
0002e0 6c f9 09 bd e2 00 fc bc cb 1d 73 3d 21 b3 c7 bd
       -0.033685133 -0.03076214 0.059354585 -0.09750963
0002f0 7b 1a 9c 39 e4 01 39 bd 87 71 d0 bd 77 89 87 bc
       0.00029774368 -0.04516782 -0.101779036 -0.01654504
000300 22 78 b5 bc c4 c6 df bd 8e 35 06 3e 3d ee 44 3d
       -0.02215201 -0.109265834 0.13106367 0.048078764
000310 34 de 62 3e 81 20 2c 3e 38 42 f3 bd 8c 62 12 be
       0.22155076 0.16809274 -0.118778646 -0.14295405
000320 7a 14 00 be a3 c7 e9 bc 27 83 57 bd 32 cc 79 3b
       -0.12507811 -0.028537577 -0.05261531 0.0038116095
000330 8b 5b 0e bb 66 0e cc bb 7d a4 90 be 51 c1 21 be
       -0.0021722044 -0.0062273024 -0.28250495 -0.157964
000340 77 40 70 bc b2 c2 62 3c 6f f6 46 bd 19 45 52 3c
       -0.014663807 0.013840364 -0.04857486 0.012833857
000350 75 75 03 be 63 0e ab 3d 2a 22 16 3e 94 34 ad bc
       -0.12837775 0.083523534 0.1466147 -0.021143235
000360 69 79 34 3c 56 9f 8c 3d a0 31 98 bd 99 52 b2 3d
       0.011015275 0.068663284 -0.0743134 0.087071605
000370 2b 72 66 bd ee 84 5d bc 22 63 5c be b6 43 1b bc
       -0.056261223 -0.013520462 -0.21522191 -0.009476593
000380 95 64 23 be 76 6b 4c 3e f1 b6 48 3b 15 de 4d 3d
       -0.15956338 0.19962868 0.003062662 0.050260622
000390 1f de 4e be 23 7d 14 be 7e 47 cb 3d 58 cd 14 be
       -0.2020192 -0.14500861 0.099257454 -0.14531457
0003a0 f2 3b 14 bd e4 12 c6 bb 05 ed d7 bb 34 ef 0b be
       -0.03618998 -0.0060447324 -0.006589534 -0.13665468
0003b0 5b 41 22 3e 33 f3 11 bd 78 af d9 bc fb 36 87 3c
       0.15845244 -0.035632323 -0.026572928 0.016505709
0003c0 ca 48 f1 bd 5e df 2c bd 50 4d a0 3d 78 ca d1 3d
       -0.117814615 -0.042205207 0.07827246 0.10243696
0003d0 c8 a3 b9 bd 30 02 a3 bc d7 e8 73 3d 3e 35 99 3d
       -0.09064442 -0.019898504 0.059548225 0.07480858
0003e0 68 bf 04 be 2e 00 52 bd d0 0c 05 be 9b 8d 3a bd
       -0.1296364 -0.051269703 -0.12993169 -0.0455452
0003f0 ba 68 fd 3d d5 ac a4 bb 33 4b 34 3d 37 59 4b 3d
       0.12373491 -0.005025486 0.044017028 0.04964563

tbls_list.0.mha.kproject.weight f4 [64, 64]
000000 ac eb 6d 3e ac 40 5a be 75 9a d5 3d 4d 5b bc 3d
       0.23234433 -0.21313733 0.10429851 0.09197102
000010 ab ba 0b 3e 91 2c 1e 3e d4 eb 46 3e 66 a6 89 be
       0.13645427 0.15446688 0.19425899 -0.26884764
000020 76 c8 59 bd bf d4 af bc 9f 01 1d be 55 0b 9b 3e
       -0.05316969 -0.02146375 -0.1533265 0.30282083
000030 98 1d cd 3c 04 c2 75 3d 67 79 8e 3c af f1 7f 3c
       0.025038525 0.05999948 0.017391874 0.015621587
000040 39 59 31 bd a0 d6 7d bd b3 46 f3 bd 09 ee ba 3d
       -0.04329798 -0.06197226 -0.11878719 0.09127433
000050 e9 4d 1c be 4a 5e 4c bd a4 75 ba 3d 83 b1 77 3e
       -0.15264095 -0.04989461 0.091044694 0.24188809
000060 9e 60 3a ba 9c 7c 82 3e 29 e2 0a bd 4b 76 4c 3e
       -0.0007109734 0.25485694 -0.03390709 0.19967
000070 31 68 ee 3b 3d 68 67 be fe 8a b1 bb 3c 3c 28 be
       0.007275604 -0.22598357 -0.0054181805 -0.16429228
000080 b6 8d 96 bd 1c dd 39 be 22 68 5f bd 76 68 31 be
       -0.07351248 -0.18150753 -0.05454267 -0.17325005
000090 28 ca b7 bd 62 32 00 be 71 fa db 3c 38 2a 8f 3c
       -0.08974105 -0.1251922 0.026852818 0.017476186
0000a0 d9 21 70 bd a0 1a 47 3d d6 6a 0e be 67 8b ec 3d
       -0.05862603 0.048609376 -0.13907942 0.115500264
0000b0 26 01 00 3e 87 02 3c 3e b8 5c 25 3d 3e 43 15 3e
       0.12500438 0.18360339 0.040371627 0.14576432
0000c0 36 12 08 bc 4f 0e 17 3e 99 7a 01 be d9 c4 c5 3d
       -0.008305123 0.14751552 -0.12644424 0.09656686
0000d0 6b 25 36 bd 12 71 bd 3c e5 15 82 3d d2 f6 f2 3d
       -0.04446928 0.023125205 0.06351832 0.118634835
0000e0 16 6f 94 bd d1 41 fb 3d 52 87 29 be d4 a7 1a be
       -0.072477505 0.12268413 -0.16555527 -0.15103084
0000f0 d8 6a 46 be b8 ad f2 3d 0c c3 48 bd 78 56 4c 3d
       -0.19376695 0.118495405 -0.049014136 0.04988715
000100 0b 07 b6 3c 0f 2c bf 3d 8f 67 9b 3e ff 9b eb bd
       0.022220155 0.093345754 0.30352446 -0.11504363
000110 b1 e8 9e bd 51 04 2f be f9 18 4f 3e 63 82 07 3e
       -0.07759226 -0.1709149 0.2022437 0.13233332
000120 c0 83 ba 3d 40 32 f4 3d 2b 86 07 be d6 c2 8b be
       0.091071606 0.11923647 -0.13234775 -0.27297086
000130 6d 29 42 bd 24 0b 51 bd dc 0d e2 3d f9 7d a0 3d
       -0.047402788 -0.051036015 0.110378 0.078365274
000140 b9 e8 39 bd 5f ea e0 3d 62 0d b9 bd d3 38 c3 bc
       -0.045387957 0.10982203 -0.09035756 -0.023830807
000150 7f 02 19 be 00 8a 0f be af b2 d9 bd 0c 0d 4b be
       -0.14942358 -0.14017487 -0.10629784 -0.19829196
000160 2e 1c fe bd fc 74 75 3d f9 e4 0a 3e d4 c8 ea bc
       -0.124077186 0.059926018 0.13563909 -0.028660215
000170 7d 61 d3 bd 20 7c d4 3d ca a8 28 be 54 71 44 be
       -0.10321329 0.103752375 -0.16470638 -0.19183856
000180 23 af fd 3d 0a b4 9f bd 77 04 14 bd cf 97 bc 3e
       0.1238692 -0.077980116 -0.03613707 0.3683457
000190 dd 73 d1 bd 8e 0c 33 3d d6 b2 3e be 36 da 90 3d
       -0.10227177 0.043713145 -0.18622908 0.070728704
0001a0 da e0 22 3e 7c 87 45 be db 1c eb 3c 66 98 c9 3d
       0.15906087 -0.19289964 0.028700283 0.09843521
0001b0 f6 2d 1c be 98 c5 74 3e eb 92 f4 3d 5d 66 a3 3d
       -0.15251908 0.23903501 0.11942085 0.079785086
0001c0 ad f8 8c bc 4d 31 40 3e 52 f9 f2 bc 31 ed 37 3d
       -0.017208422 0.18768807 -0.0296599 0.044903938
0001d0 aa 90 ed bd 63 21 1e 3e d0 cb 5a 3d d1 c1 69 3e
       -0.11599858 0.15442424 0.053417027 0.22827841
0001e0 d9 ef a2 3e c2 a3 06 be 0c 42 03 3e 45 67 32 3d
       0.31823614 -0.13148406 0.12818164 0.043555517
0001f0 91 67 72 3d e2 d7 b9 be 89 97 18 bd d2 b6 b4 bc
       0.0591808 -0.36297518 -0.03725389 -0.022059832
000200 18 3a a7 3d 0d a7 78 3d eb a1 2a be c6 1e b6 bd
       0.081653774 0.060706187 -0.1666333 -0.08892588
000210 9b f1 13 3e 3a 91 1a 3d 0b ae 23 bc 06 ba 9b be
       0.14447634 0.037736155 -0.009990226 -0.30415362
000220 88 a9 1e 3e 17 b5 0b 3e a5 d1 a7 bc 5b aa 0a be
       0.15494359 0.13643299 -0.020485708 -0.13541548
000230 8a c0 aa 3e d8 e0 13 3b 74 37 dc bc b1 1f 65 3e
       0.3335002 0.0022564437 -0.02688191 0.2237537
000240 05 84 2b 3e fa 48 22 3e 31 2c c5 bd 4c a6 30 bd
       0.1674958 0.15848151 -0.096275695 -0.043127343
000250 ee 34 27 3e f9 04 9b 3c 2c 67 63 3d 27 61 0c 3e
       0.16328785 0.01892327 0.055518314 0.13708936
000260 f6 bd 08 3e 3f 92 1c 3e 14 6c 82 be de 4f d4 bc
       0.13353714 0.15290163 -0.25473082 -0.02591699
000270 f6 7a 1a 3e 95 17 0f 3e 9a cc 2a be b0 8b 20 bd
       0.15085968 0.1397384 -0.16679612 -0.039195716
000280 42 5b 95 3d 13 ee 01 3e 99 6b 6a be bb 01 86 be
       0.07292797 0.12688474 -0.22892608 -0.26173195
000290 0c ab a0 be 1e 53 ef bc e3 fa d6 bc c6 6e 80 be
       -0.31380498 -0.029214438 -0.026242679 -0.25084513
0002a0 0e 99 b8 be 53 dc 9c 3c 80 a2 47 bc 13 77 95 3d
       -0.3605427 0.019148028 -0.012184739 0.07298102
0002b0 61 87 42 3e a2 db 8c 3d ed 8d 8b be 1d d5 c2 3d
       0.18996955 0.06877829 -0.27256718 0.095133044
0002c0 0e 9a 14 3d f0 6b 26 3b 25 46 31 be f8 e1 2e bd
       0.03627973 0.0025393926 -0.17311914 -0.04269597
0002d0 47 32 2a 3d 19 65 c9 bd f7 a9 73 be 43 26 99 3c
       0.041551854 -0.09833736 -0.23795305 0.018695002
0002e0 63 5c 12 be 55 6e 3c 3e cd f3 39 3e a8 01 e9 bd
       -0.14293055 0.18401463 0.18159409 -0.11377269
0002f0 d6 43 25 3d b0 e2 0e 3e 69 55 5b 3d e1 0a 94 3d
       0.040347897 0.13953662 0.05354825 0.072286375
000300 25 69 d2 bd 46 72 0f 3d 58 6f aa bd ae 1c 4f be
       -0.10273961 0.03502109 -0.083220184 -0.20225784
000310 0e 30 7d bd 51 a4 7d bd 67 d4 91 bd 5d 38 51 3d
       -0.061813407 -0.061924282 -0.07120591 0.051079143
000320 30 5d 3c be 52 5c 3d 3d f4 22 fa 3d d8 82 a5 3d
       -0.18394923 0.04623062 0.12213698 0.08081597
000330 12 60 ce be 6c da d1 bd 44 5b 8f bd ca 30 a3 3c
       -0.4030767 -0.10246739 -0.069998294 0.019920725
000340 09 ea be 3c 32 56 2a 3e c0 16 af bd f3 b8 9d 3c
       0.023304956 0.16634443 -0.08549261 0.01925323
000350 2b 4c 03 bd 0d 9c 0c 3e c2 28 f8 3d 4d 4b 28 be
       -0.03205506 0.13731404 0.12117149 -0.16434975
000360 30 29 4f 3d b4 aa 12 be 89 a2 70 3e 33 7c 1e 3d
       0.05057639 -0.1432293 0.23499502 0.038692664
000370 0c 9a 21 be 9b f2 ed bd 1a 30 9d 3c 2a 3d 27 be
       -0.1578142 -0.11618539 0.019187976 -0.16331926
000380 af e8 10 bc b8 db 9d bd 38 8d df bd 08 fa d8 bd
       -0.008844539 -0.07707924 -0.10915607 -0.10594565
000390 7f 2c 53 3c d0 17 95 3e 04 cc c1 3c 23 3e 59 be
       0.012889027 0.2911973 0.023656853 -0.2121511
0003a0 3d c2 94 3e 9d 51 41 be f7 21 42 be a8 57 29 3d
       0.29054442 -0.18878789 -0.18958269 0.04134336
0003b0 c9 8b a6 bc 20 78 e1 bb 1f 28 58 3e a9 3d f7 bd
       -0.020330327 -0.006880775 0.21109055 -0.120723076
0003c0 46 05 6b bd be 61 1a 3e f9 ab 7c 3e fe e9 42 be
       -0.057378076 0.15076348 0.24674977 -0.19034573
0003d0 34 c2 c4 3d 25 1a 01 be 76 62 6b 3e 24 0c 98 3d
       0.09607354 -0.1260763 0.22986779 0.07424191
0003e0 dc b9 a0 3e 8d 60 8a be b9 fe 13 be 19 c9 10 3d
       0.313918 -0.27026787 -0.14452638 0.03534803
0003f0 38 ae f8 bd 88 b0 37 bd 08 05 7e 3c 2e f4 96 be
       -0.121426046 -0.044846088 0.015504129 -0.2948317

tbls_list.0.mha.layernorm.bias f4 [64]
000000 fe f6 e5 bd ab 5c f9 bd 67 1a 5d 3e 56 eb b7 bd
       -0.11228751 -0.12175878 0.21592103 -0.08980434
000010 77 f1 71 3e 3a c2 03 3e 2b 96 1c bd 3c 9c 5e bd
       0.23627268 0.1286706 -0.03822915 -0.054348215
000020 b8 6f 5b bd 19 e4 3b be ac 95 f9 bd 03 23 6c be
       -0.05357334 -0.18348731 -0.12186751 -0.23060231
000030 e5 8b b9 bd 5a 6b 7c 3d 66 08 25 bd fc 09 bd bd
       -0.09059886 0.061625816 -0.040291212 -0.0923042
000040 d0 4f 00 3e 21 1f e0 3d 94 a5 cf 3d 35 c9 88 bd
       0.12530446 0.10943437 0.101390034 -0.06679002
000050 29 41 44 be 13 2f 74 be 42 33 d7 3d 2b f7 09 3e
       -0.19165482 -0.23846082 0.105078235 0.13473193
000060 c0 c9 41 bd 26 60 8a 3d a3 72 18 3e e6 db d0 3d
       -0.047311544 0.0675662 0.1488748 0.10198192
000070 12 ce 2f 3e a9 7f 34 bc bf 37 6e 3c d9 2a bf bd
       0.17168453 -0.011016765 0.014539658 -0.093343444
000080 7a 8f a2 bd 8f 6c 04 bd 77 49 25 3d c4 f9 32 3e
       -0.07937522 -0.032330092 0.040353265 0.1747809
000090 4d 92 22 be 57 50 13 3d 65 29 0d be 77 6f 94 3d
       -0.15876122 0.03596529 -0.13785322 0.07247823
0000a0 d4 7f 9e 3d 1b 2a 50 bd 36 d8 16 3e 91 f5 52 3e
       0.07739225 -0.050821405 0.14730915 0.20601489
0000b0 09 1e e1 3c b4 22 bd bd c6 47 62 bd c4 cc 99 3c
       0.027480142 -0.09235135 -0.05524423 0.018774398
0000c0 d2 93 e3 3c a8 33 41 3e d1 9d a4 3c 7d 3a db bd
       0.027780447 0.18867362 0.020094784 -0.10704515
0000d0 41 27 91 bd 7d e4 b0 3c 3b a9 37 3c 38 bc d5 3d
       -0.07087565 0.021593327 0.011209781 0.104362905
0000e0 4a fa 30 3e df 5c c9 bd 64 9f 7d bd 9d 11 89 be
       0.17282978 -0.09832167 -0.061919585 -0.2677125
0000f0 6a f6 2f 3e 99 27 d1 3d f0 4e 53 bd 86 6c 23 3e
       0.17183843 0.10212631 -0.051588953 0.15959367

tbls_list.0.mha.layernorm.weight f4 [64]
000000 e7 e3 91 3f 88 46 7e 3f 37 85 87 3f 8d 2c 8a 3f
       1.1397675 0.9932637 1.0587529 1.0794846
000010 00 d0 69 3f 22 a5 52 3f f9 80 87 3f 87 2b 8a 3f
       0.9133301 0.8228322 1.0586234 1.0794533
000020 e7 4d 55 3f 6f 5f 89 3f 03 51 85 3f a7 4c 8e 3f
       0.83321995 1.0732249 1.0415348 1.1117142
000030 03 da 88 3f 5c 86 61 3f c3 91 73 3f bb 34 58 3f
       1.0691532 0.8809564 0.9514429 0.8445546
000040 86 cf 77 3f 18 61 8c 3f 3a f2 68 3f a3 8f 73 3f
       0.9680103 1.0967131 0.9099461 0.9514105
000050 68 97 76 3f ae a3 75 3f 6a 89 68 3f 20 b1 73 3f
       0.9632478 0.9595288 0.9083468 0.95192146
000060 9a aa 94 3f 83 41 6f 3f 26 34 95 3f ea b7 80 3f
       1.1614563 0.9345934 1.165654 1.0056126
000070 d9 49 84 3f 50 99 60 3f b6 d9 6f 3f 28 0b 8d 3f
       1.0335037 0.87733936 0.93691576 1.101903
000080 2f da 82 3f fc 4d 7c 3f 3c 99 74 3f 77 11 82 3f
       1.0222834 0.98556495 0.9554632 1.016158
000090 f6 bf 76 3f 8d e7 54 3f 29 32 6e 3f f7 11 8d 3f
       0.9638666 0.8316582 0.9304529 1.1021107
0000a0 5d 12 55 3f 1d 4f 8d 3f 76 45 8a 3f 8a 63 8a 3f
       0.83231145 1.1039768 1.0802448 1.0811627
0000b0 89 2e 7b 3f 23 d4 88 3f 4b 60 81 3f a7 83 7f 3f
       0.9811788 1.0689739 1.0107511 0.9981026
0000c0 3d 10 89 3f 16 c4 71 3f b8 fb 83 3f 4d c1 62 3f
       1.070808 0.9443983 1.0311193 0.88576204
0000d0 aa c9 56 3f 57 8b 5e 3f 38 a3 51 3f 7d 7b 6b 3f
       0.83901465 0.86931366 0.8188968 0.91985303
0000e0 df 7e 71 3f 7a dd 82 3f 6a d8 8b 3f aa e7 93 3f
       0.94334215 1.0223839 1.0925419 1.1555073
0000f0 32 4e 8d 3f a9 ec 86 3f ea 2a 6a 3f 88 13 7f 3f
       1.1039488 1.0540973 0.9147173 0.9963918
