degradation_transformer_model.safetensors (safetensors, 738672 bytes, 38 tensors)

lm_head.weight f4 [500, 64]
0.72635174 1.3782272 0.21515942 -0.33311352 -0.84010583 -0.0019651589 0.9544358 0.9075685
0.31774923 -0.270861 0.8305629 -0.46268833 -0.7713139 0.62862283 -0.78298634 -1.3551065
-2.2014692 1.6507734 1.0106281 -0.8049186 0.90324795 0.6867135 0.89563423 0.9259611
-0.012656405 1.6496823 -0.7530176 1.8562051 -0.625526 1.4736742 -0.06747641 0.0796873
0.4124504 1.0196053 0.9670341 -0.3530412 0.7207591 -0.4946905 -2.4261067 -0.19201988
-1.3727062 0.42642817 -1.2317846 -0.2807452 0.3708256 -0.26815197 -0.35960117 -1.5980796
-1.6164744 -0.6729533 -0.379305 0.44238803 1.0000318 -0.3108905 0.76257193 1.6084901
-0.8619095 1.111775 0.20027378 0.92607015 -1.2469206 -0.4476513 -0.0148064 1.5198607
1.5141709 -2.9069712 1.2602537 -0.8635732 -1.162813 1.7089226 1.2358665 -0.9193653
-0.44303948 -0.80742866 -2.6118765 0.96257746 -0.7171548 1.3380414 2.8865335 -0.9408836
-1.7890168 0.55968916 -2.4553897 -0.5509797 2.212745 0.98518103 0.1108736 -0.8331071
-2.6077464 0.18593419 -1.5500667 -1.1422442 -1.2116745 -1.8462163 0.98980355 0.81714785
1.5650462 2.6712177 0.5860412 -1.7255753 2.3105855 -0.05822187 -1.8033499 -1.7014536
0.52552015 1.3983566 -1.8887821 1.0862203 -1.1707 0.342397 -0.6905649 -0.787268
1.4061706 0.816339 3.9210377 0.93458265 -1.47357 -1.1697352 -0.5873007 -1.3849989
-3.4368343 2.0219932 -1.3703429 0.5487995 1.3912896 -0.047809087 -2.7230372 -1.3163071
-0.6889967 -1.305354 1.9592614 0.9975718 -0.86695963 -0.4880396 1.6338836 2.4251342
-0.19432199 -0.8047304 0.2834748 -0.71965873 -1.459656 0.2129764 0.10149492 -1.0740403
0.50060636 -0.13216361 1.306511 0.67151105 -2.0865803 -0.910266 -0.048928127 -0.4271762
0.8484989 -0.56787676 0.8585884 -0.34042767 -0.20607984 1.0638266 -1.1006749 -1.9979247
-0.7646443 -3.3130665 1.223389 -0.008146264 1.7253708 1.3125004 -0.8982838 1.0221353
0.59405345 -1.2780675 -1.6672388 -2.2319086 1.9215897 0.028871134 0.68156916 0.052728985
-0.12215258 2.8802285 1.3610264 0.20105876 -2.19615 -0.5828724 -0.15174289 -2.3491585
0.2604775 -0.8109947 1.7629337 -1.8393142 1.1071465 -1.5547042 0.8139738 1.5131364
1.3786058 0.23158105 1.2448372 1.0972527 0.5167543 0.0714082 1.5377135 0.14542653
0.953449 -0.6133821 0.5563969 -0.61086994 2.1087933 0.67012477 -1.2876341 0.88002163
-0.19102645 -1.351886 -0.39792818 -2.5915837 0.109496005 0.21151844 0.042133354 -1.1292177
0.8015685 -0.5894868 -1.053057 -1.128851 -2.4027417 -0.65809435 -0.77425563 2.4649613
0.25535908 -0.9197988 1.4606756 0.29446074 1.108909 1.1892537 0.3273993 1.1216242
1.2881001 0.4173521 -1.3505753 2.6107466 -0.61859864 -1.8955332 -0.63731945 -0.7137508
-2.3504333 -1.4653367 -1.0153079 0.9602268 1.0011109 0.37460616 -0.77484244 1.7629019
0.64236647 0.24177702 0.7941849 0.09195119 0.9941084 -0.91629833 1.0050251 -1.0980188
00000000: 30f2 393f c069 b03f c052 5c3e db8d aabe
00000010: 2d11 57bf e5c9 00bb e855 743f 6956 683f
00000020: 07b0 a23e 4bae 8abe c59f 543f 7ce5 ecbe
00000030: d474 45bf 6ded 203f cb71 48bf 2174 adbf
00000040: dfe4 0cc0 8b4c d33f 435c 813f 250f 4ebf
00000050: 423b 673f 75cc 2f3f 4948 653f c90b 6d3f
00000060: cf5c 4fbc ca28 d33f c3c5 40bf 2198 ed3f
00000070: 7922 20bf 5ba1 bc3f 1231 8abd 1833 a33d
00000080: b32c d33e 6d82 823f 8c8f 773f d1c1 b4be
00000090: ab83 383f 1348 fdbe 5545 1bc0 dca0 44be
000000a0: d6b4 afbf cb54 da3e 1eab 9dbf d6bd 8fbe
000000b0: dadc bd3e 374b 89be a51d b8be df8d ccbf
000000c0: a2e8 cebf ab46 2cbf 4434 c2be af80 e23e
000000d0: 0b01 803f 0a2d 9fbe ea37 433f 01e3 cd3f
000000e0: 1aa6 5cbf a54e 8e3f 9214 4d3e ef12 6d3f
000000f0: 189b 9fbf 8d32 e5be 8b96 72bc cc8a c23f
00000100: 5ad0 c13f d10b 3ac0 fe4f a13f 2213 5dbf
00000110: 0ed7 94bf fabd da3f e030 9e3f 865b 6bbf
00000120: 12d6 e2be a5b3 4ebf fc28 27c0 7a6b 763f
00000130: 7597 37bf f144 ab3f f7bc 3840 bfdd 70bf
00000140: 81fe e4bf ca47 0f3f 1b25 1dc0 010d 0dbf
00000150: 9d9d 0d40 d334 7c3f b311 e33d 8246 55bf
00000160: 51e5 26c0 8865 3e3e 9668 c6bf 0f35 92bf
00000170: 2618 9bbf d150 ecbf c463 7d3f 9a30 513f
00000180: 6f53 c83f 3bf5 2a40 cc06 163f a7df dcbf
00000190: a2e0 1340 0e7a 6ebd 2bd4 e6bf 3bc9 d9bf
000001a0: 7d88 063f 59fd b23f 9dc3 f1bf 4409 8b3f
000001b0: 7fd9 95bf a94e af3e dcc8 30bf 658a 49bf
000001c0: 66fd b33f 98fb 503f 48f2 7a40 cf40 6f3f
000001d0: f19d bcbf e2b9 95bf 5759 16bf a547 b1bf
000001e0: 18f5 5bc0 5668 0140 6567 afbf 207e 0c3f
000001f0: c715 b23f 76d3 43bd 3e46 2ec0 c07c a8bf
00000200: 1662 30bf d715 a7bf 14c9 fa3f de60 7f3f
00000210: 11f1 5dbf 54e0 f9be 1923 d13f 6635 1b40
00000220: 58fc 46be d002 4ebf 9c23 913e 8e3b 38bf
00000230: 02d6 babf 7c16 5a3e 92dc cf3d 277a 89bf
00000240: bd27 003f e655 07be c13b a73f 26e8 2b3f
00000250: 888a 05c0 3107 69bf dc68 48bd d7b6 dabe
00000260: 3937 593f 5f60 11bf 73cc 5b3f 894c aebe
00000270: 9806 53be 782b 883f eae2 8cbf ffbb ffbf
00000280: bbbf 43bf 4809 54c0 0398 9c3f e877 05bc
00000290: f3d8 dc3f 0300 a83f edf5 65bf 54d5 823f
000002a0: e313 183f b797 a3bf 1568 d5bf 97d7 0ec0
000002b0: a7f6 f53f 2883 ec3c 517b 2e3f 59fa 573d
000002c0: 222b fabd aa55 3840 1d36 ae3f 59e2 4d3e
000002d0: b98d 0cc0 2037 15bf 7d62 1bbe 9d58 16c0
000002e0: 4f5d 853e 599d 4fbf d0a7 e13f a66e ebbf
000002f0: fab6 8d3f 8c00 c7bf 9660 503f 74ae c13f
00000300: 2876 b03f 9523 6d3e d356 9f3f c772 8c3f
00000310: 034a 043f 763e 923d ccd3 c43f b1ea 143e
00000320: 3c15 743f 9c06 1dbf 0770 0e3f f961 1cbf
00000330: 78f6 0640 4c8d 2b3f 32d1 a4bf 1949 613f
00000340: 709c 43be 9a0a adbf 3ebd cbbe 82dc 25c0
00000350: 713f e03d 4a98 583e 0694 2c3d 358a 90bf
00000360: 9833 4d3f 9be8 16bf 92ca 86bf 317e 90bf
00000370: 85c6 19c0 df78 28bf 9e35 46bf edc1 1d40
00000380: 6dbe 823e ef77 6bbf 6bf7 ba3f 8fc3 963e
00000390: bbf0 8d3f 7739 983f e2a0 a73e 6291 8f3f
000003a0: 77e0 a43f 2daf d53e a7df acbf 7916 2740
000003b0: 7b5c 1ebf d5a0 f2bf 5e27 23bf 5fb8 36bf
000003c0: 806d 16c0 2790 bbbf 9cf5 81bf 6cd1 753f
000003d0: 6724 803f 61cc bf3e 135c 46bf c5a6 e13f
000003e0: 2172 243f 6594 773e b44f 4b3f e850 bc3d
000003f0: e37d 7e3f 8792 6abf aaa4 803f e18b 8cbf

tbls_list.0.ff.first_proj.bias f4 [256]
-0.26311305 -0.4781941 -0.6534102 0.05103074 -1.1128486 -0.7681932 -1.0070846 -0.5576807
-0.60944986 -0.70564497 -0.6951948 -1.0020524 -0.62711954 -0.31121802 -0.71782416 -0.86119795
-0.5835437 -0.20542248 -0.20812595 -0.27827713 -0.6867023 -0.5237655 -0.1932409 -0.37189412
-0.55664384 -0.30454543 -1.068439 -0.6285678 -0.48529628 -0.22074558 -0.748707 -0.42084426
-0.11959967 -0.57894343 -0.2916519 0.028820345 -0.4495224 -0.4322346 -0.49058667 -0.4671997
-0.49352962 -0.41974026 -0.22769417 0.036646973 -0.11596111 -0.508822 -0.75596225 0.39165264
-0.27247652 -0.22508079 -0.18845986 -0.11015651 -0.33607656 -0.2814256 -0.6577601 -0.7955382
-1.2625266 -0.55953294 -0.5046314 -0.9307687 -0.40727526 -0.7623542 -0.45228004 -0.35007504
-0.43405128 -0.5834117 -0.2345865 -0.5031614 -0.7644107 -0.34583268 -0.35848713 -0.31036285
-0.27660057 -0.4050742 -0.42968592 -0.509687 -0.21136051 -0.6869851 0.032134287 -0.4587311
-1.0987202 -0.4396843 -0.72979635 -0.3391077 -0.24828124 -0.06642364 -0.02234687 -0.39771757
-0.5165515 -0.20616348 -0.018404558 -0.49749234 -0.7988862 -0.3467447 -0.27680072 -0.09110563
0.0427195 -0.12022103 -0.90065193 -0.102843545 -0.5134705 -0.0963452 -0.74358773 -0.42883682
-0.8076408 -0.32921094 -0.5548534 -0.43561405 -0.13580334 -0.275198 -0.3035345 -0.2722538
-0.08260812 -0.53474665 -0.5461691 -0.4906762 -0.4778287 -0.12009026 -0.8686556 -0.6257897
-0.2961527 -0.52828044 -0.34450147 -0.032784794 -0.45619085 -0.33065036 -0.3454352 -0.3688911
-0.5698633 -0.5905162 -0.8126743 -0.44437662 -0.544089 -0.5361928 -0.51186055 -0.9187543
0.19385059 -0.55129015 0.11642521 -0.44176897 -0.80441356 -0.5138236 -0.1813506 -1.0309869
0.181148 -0.007882854 -0.65665436 -0.21648352 -0.6761474 -0.04022054 -0.55845886 -0.67897534
-0.56790805 -0.6958808 -0.2483176 -0.857971 -0.11353668 -0.58213204 -0.45238447 -0.4374501
-0.114897296 -0.3351916 -0.1087609 -0.20107995 -0.4104293 0.17333409 -0.33924675 -0.6878604
-0.8102353 -0.23920155 -0.39427298 -0.28406805 -0.87379396 0.035075545 -0.25070155 -0.52724457
-0.40596846 -1.1435477 -0.5135769 -0.58645153 -0.31174847 -0.70470124 -0.5117903 0.0894496
-0.48302162 -0.3089613 -1.2407372 0.03478238 -0.07039279 -0.26916355 -0.11674227 -0.25126085
-0.29885232 -0.1709857 -0.0673664 -0.4380622 -0.4283344 -0.5428055 -0.48566824 -0.4988175
-0.64112276 -0.5271465 -0.8124569 -0.48378837 -0.613496 -0.2988943 -0.24199548 -0.5096898
-0.98528445 -0.47293097 -0.6584252 0.35244164 -0.45244372 -0.627425 -0.5533586 -0.12974727
-0.24886674 -0.4972477 -0.50470656 -0.6503838 -0.3837467 -0.90029067 -0.3347054 -0.08865851
-0.4116005 -0.10427712 -0.6338244 -0.24592991 -0.1123812 0.15092461 -0.11083089 -0.57989544
-0.1637862 -0.70973086 -0.50480086 -0.37673372 -0.14623539 -0.110026 -0.1806497 -0.20380609
-0.6253149 -0.55332255 -0.17135544 -0.14592926 -0.56014436 -0.28149936 0.048491113 -0.65669453
-0.42348528 -0.5910057 -0.7354212 -0.16161352 -0.48930708 -0.72153026 -0.3928877 -0.9452418
00000000: c1b6 86be dbd5 f4be e445 27bf 9c05 513d
00000010: d371 8ebf 4fa8 44bf 26e8 80bf 2ac4 0ebf
00000020: e804 1cbf 26a5 34bf 49f8 31bf 4143 80bf
00000030: e88a 20bf f857 9fbe 53c3 37bf 7877 5cbf
00000040: 1f63 15bf 455a 52be f81e 55be 577a 8ebe
00000050: b9cb 2fbf 7f15 06bf f1e0 45be e868 bebe
00000060: 3680 0ebf 61ed 9bbe 9cc2 88bf d2e9 20bf
00000070: c178 f8be 210b 62be 43ab 3fbf e678 d7be
00000080: acf0 f4bd a335 14bf 6653 95be a518 ec3c
00000090: cd27 e6be da4d ddbe 2d2e fbbe cd34 efbe
000000a0: eaaf fcbe 32e8 d6be a928 69be 231b 163d
000000b0: 057d edbd 2942 02bf be86 41bf b286 c83e
000000c0: 0b82 8bbe 947b 66be 9ffb 40be bc99 e1bd
000000d0: 3a12 acbe 0417 90be f762 28bf 64a8 4bbf
000000e0: 799a a1bf 8d3d 0fbf 862f 01bf dc46 6ebf
000000f0: 6286 d0be a529 43bf 4091 e7be 093d b3be
00000100: f83b debe 785a 15bf 7237 70be 2fcf 00bf
00000110: 6bb0 43bf fb10 b1be a08b b7be e1e7 9ebe
00000120: 979e 8dbe e365 cfbe cbff dbbe d97a 02bf
00000130: e46e 58be 41de 2fbf 3e9f 033d cede eabe
00000140: dda2 8cbf 4d1e e1be efd3 3abf 869f adbe
00000150: 703d 7ebe 1e09 88bd c810 b7bc a3a1 cbbe
00000160: b83c 04bf 851c 53be 28c5 96bc 51b7 febe
00000170: ce83 4cbf 8588 b1be d3b8 8dbe 9795 babd
00000180: a4fa 2e3d 7236 f6bd 2091 66bf a39f d2bd
00000190: cd72 03bf a250 c5bd c45b 3ebf 8090 dbbe
000001a0: 8cc1 4ebf 568e a8be df0a 0ebf ce08 dfbe
000001b0: 0810 0bbe c1e6 8cbe e068 9bbe da64 8bbe
000001c0: 722e a9bd 28e5 08bf bdd1 0bbf e939 fbbe
000001d0: f7a5 f4be e2f1 f5bd 3760 5ebf c133 20bf
000001e0: 54a1 97be 633d 07bf 7f62 b0be 5949 06bd
000001f0: d991 e9be 014b a9be e2dc b0be 4bdf bcbe
00000200: 90e2 11bf 122c 17bf 6c0b 50bf 5585 e3be
00000210: 6b49 0bbf ee43 09bf 4b09 03bf 7b33 6bbf
00000220: c580 463e 5a21 0dbf 5770 ee3d 8b2f e2be
00000230: 0cee 4dbf f289 03bf f9b3 39be 61f7 83bf
00000240: dc7e 393e 1627 01bc 801a 28bf dbad 5dbe
00000250: ff17 2dbf 4bbe 24bd 29f7 0ebf 54d1 2dbf
00000260: 6c62 11bf 3e25 32bf f846 7ebe fda3 5bbf
00000270: eb85 e8bd 9b06 15bf f09e e7be 76f9 dfbe
00000280: 464f ebbd 3c9e abbe 09be debd e7e7 4dbe
00000290: ca23 d2be 7e7e 313e c0b1 adbe 9f17 30bf
000002a0: 956b 4fbf 40f1 74be 26de c9be 5e71 91be
000002b0: f6b0 5fbf 60ab 0f3d f45b 80be 80f9 06bf
000002c0: 19db cfbe c55f 92bf c779 03bf b021 16bf
000002d0: 7f9d 9fbe 4d67 34bf b004 03bf 5a31 b73d
000002e0: 9c4e f7be 2d30 9ebe 7ad0 9ebf f877 0e3d
000002f0: 182a 90bd cecf 89be 9216 efbd 43a5 80be
00000300: 2c03 99be e016 2fbe 65f7 89bd b049 e0be
00000310: a54e dbbe 4df5 0abf 82a9 f8be 0265 ffbe
00000320: 9f20 24bf 13f3 06bf 2dfd 4fbf 1cb3 f7be
00000330: 130e 1dbf ac08 99be aacd 77be 087b 02bf
00000340: 9a3b 7cbf 0224 f2be 8e8e 28bf 3b73 b43e
00000350: b4a6 e7be ed9e 20bf e9a8 0dbf 78dc 04be
00000360: ecd6 7ebe 4097 febe 7334 01bf 8d7f 26bf
00000370: 737a c4be 7379 66bf 825e abbe 9892 b5bd
00000380: 4dbd d2be 3e8f d5bd 5142 22bf 0dd5 7bbe
00000390: 1d28 e6bd fb8b 1a3e 4efb e2bd 0774 14bf
000003a0: 92b7 27be ecb0 35bf a13a 01bf 3ee3 c0be
000003b0: bbbe 15be 5055 e1bd 3cfc 38be 8bb2 50be
000003c0: a314 20bf 8ca6 0dbf cd77 2fbe 7b6e 15be
000003d0: 9f65 0fbf af20 90be 9e9e 463d 221d 28bf
000003e0: 10d3 d8be 264c 17bf 9044 3cbf 047e 25be
000003f0: 7586 fabe 35b6 38bf 9428 c9be 5efb 71bf

tbls_list.0.ff.first_proj.weight f4 [256, 64]
0.017848192 0.4190585 -0.4401394 1.2391771 -0.0099137155 -0.21703805 0.14625001 1.1721227
0.43946815 0.18022779 0.15991397 -0.058367506 0.48065895 -0.84887534 0.70507026 0.30022654
0.38820273 -0.4099366 0.30526614 -0.47421438 -0.8070555 0.1311591 0.8305224 0.63774425
-0.20490868 -0.06716815 0.48501843 -0.33767128 0.24120125 -0.82997936 -0.5548422 -0.8710257
0.24031901 -0.46476242 -0.5579421 0.6423322 0.00031137432 -0.28111818 0.6219314 0.30582947
0.33318004 0.2822029 0.4409682 -0.22726877 0.17700784 -0.080150574 0.06015679 -0.20756689
-0.04755321 0.23572285 -0.6189176 -0.30533314 -0.69581205 -0.19764881 -0.1730958 -0.13437141
0.6128301 -0.46814275 0.42421997 -0.2752489 -0.47445524 -0.3661158 0.17137781 -0.44747084
0.5508738 1.0789837 0.66152436 -0.06310089 0.24854398 0.09465267 -0.02612233 -0.05899221
0.5541171 -0.67367625 1.651458 0.43314385 0.06469074 -0.10141657 -0.17940693 -0.5141699
-0.1372274 -0.74039435 0.39906955 -0.073128715 0.35297117 -0.027132686 -0.053699616 -0.18624613
-0.11869039 0.2323353 -0.60357594 -0.037349008 -0.28125003 -0.20440324 -0.27799615 -0.6706652
-0.17930457 -0.043085713 0.31588513 -0.074620835 -0.21615733 -0.1670939 -0.18936168 -0.2876525
0.35507262 -0.8762047 -0.8883146 -0.23268078 0.27960086 -0.24475063 0.1739839 -0.3808333
0.8135605 -0.06257758 -0.20496702 0.43263242 0.29858914 0.95727104 -0.36838454 -0.020440968
0.6451124 0.3323359 -0.35447642 -0.2103945 -0.46661538 -0.08023763 0.30921802 -0.7629177
0.17649874 0.08202693 -0.3024989 -0.073958166 0.053920288 -0.6288823 0.09577251 -0.6476903
-0.48950183 0.08304867 0.16143838 0.16051888 -0.40115646 -0.1554567 -0.59312624 -0.56515837
0.11918905 -0.4111125 0.6539829 -0.032996356 0.27149498 0.49684396 0.47914088 -0.43826598
0.871018 -0.57616264 -0.71886206 0.034950256 0.17780466 0.3256699 0.1896745 -0.10923349
-0.16852956 0.25040194 0.29585513 -0.12929186 -0.016036792 -0.72473675 0.014971602 0.21838251
-0.09999963 -0.21586289 0.12799357 0.06828339 0.039836206 -0.53034675 -0.78170687 -0.488307
-0.39804345 0.47462073 -0.73602414 0.043548096 0.6158002 0.059866216 -0.03905933 2.070093
0.13679741 -0.23271938 0.773907 0.200551 -0.4835378 0.11109788 0.58330375 0.2465471
-0.03556443 -0.14715199 -0.4236221 0.098259404 -1.1229846 -0.6913711 -0.5277217 -1.0478102
0.8997967 -0.32280335 0.032885205 -0.21285242 -0.3495295 0.44897446 0.1283392 0.060608726
0.90392214 -0.068199955 0.20118563 -0.23477529 -0.43793863 0.4608324 0.04760007 0.16692916
1.2535429 0.40062326 0.65905976 0.2468739 -0.6921251 0.75516057 0.06946771 -0.11554392
1.2008396 -0.40096253 0.2221169 0.3575104 -0.056769643 0.095357314 -0.85300314 0.34062526
-0.89555234 -0.44083136 -0.04406964 0.89204895 -0.20777008 0.41870162 -0.6422535 -0.3960785
0.0930512 -0.00024413352 0.4821379 -0.09392472 0.046694186 -0.47561502 -0.7511153 1.3106705
-0.15609564 0.09868958 0.8210164 -0.6555249 -0.43464652 0.33105406 -0.1313301 -0.3329126
00000000: 5f36 923c d68e d63e f459 e1be 5b9d 9e3f
00000010: 236d 22bc 393f 5ebe 90c2 153e 1e08 963f
00000020: f801 e13e a28d 383e 7dc0 233e c412 6fbd
00000030: ee18 f63e e54f 59bf 7c7f 343f 4bb7 993e
00000040: 82c2 c63e 36e3 d1be d84b 9c3e 3acc f2be
00000050: 309b 4ebf 924e 063e 1e9d 543f 3543 233f
00000060: 95d3 51be 748f 89bd 5654 f83e 40e3 acbe
00000070: 76fd 763e 8779 54bf 230a 0ebf 8afb 5ebf
00000080: 3016 763e 57f5 edbe 4bd5 0ebf e26f 243f
00000090: f43f a339 b9ee 8fbe e536 1f3f ae95 9c3e
000000a0: 9396 aa3e e67c 903e 95c6 e13e 25b9 68be
000000b0: 8b41 353e fc25 a4bd f766 763d 6a8c 54be
000000c0: 28c7 42bd 5561 713e 6271 1ebf a054 9cbe
000000d0: bd20 32bf 7364 4abe 0740 31be a998 09be
000000e0: 6fe2 1c3f 68b0 efbe 5c33 d93e 6ced 8cbe
000000f0: cceb f2be 8873 bbbe aa7d 2f3e e61a e5be
00000100: 1106 0d3f 231c 8a3f a959 293f 0a3b 81bd
00000110: 5082 7e3e 42d9 c13d 7ffe d5bc d1a1 71bd
00000120: 9eda 0d3f 0c76 2cbf fa62 d33f 08c5 dd3e
00000130: 947c 843d 7eb3 cfbd 73b6 37be a3a0 03bf
00000140: 5785 0cbe 7c8a 3dbf d852 cc3e 82c4 95bd
00000150: a3b8 b43e 5e45 debc 21f4 5bbd 4eb7 3ebe
00000160: f213 f3bd 4ee9 6d3e f483 1abf 46fb 18bd
00000170: 0100 90be 154f 51be 8355 8ebe b7b0 2bbf
00000180: 9e9b 37be a57a 30bd b2bb a13e cfd2 98bd
00000190: 5958 5dbe aa1a 2bbe 07e8 41be 3047 93be
000001a0: 14cc b53e f44e 60bf 9668 63bf df43 6ebe
000001b0: d827 8f3e e99f 7abe d628 323e 95fc c2be
000001c0: 8045 503f ad28 80bd e0e2 51be ff81 dd3e
000001d0: ade0 983e b70f 753f e69c bcbe d173 a7bc
000001e0: 1626 253f ee27 aa3e ef7d b5be a871 57be
000001f0: 36e8 eebe a053 a4bd d351 9e3e 934e 43bf
00000200: 16bc 343e bcfd a73d 23e1 9abe 6177 97bd
00000210: 85db 5c3d 6efe 20bf 6124 c43d 08cf 25bf
00000220: fc9f fabe 6c15 aa3d 1a50 253e 105f 243e
00000230: 6164 cdbe 0b30 1fbe 1fd7 17bf 38ae 10bf
00000240: 6319 f43d 567d d2be 6c6b 273f 3027 07bd
00000250: 6401 8b3e 5562 fe3e f451 f53e 6664 e0be
00000260: 09fb 5e3f 657f 13bf 5807 38bf 0028 0f3d
00000270: 6d12 363e 35be a63e 083a 423e cfb5 dfbd
00000280: 0393 2cbe af34 803e 537a 973e 1665 04be
00000290: 975f 83bc 5988 39bf 734b 753c aa9f 5f3e
000002a0: 9bcc ccbd 290b 5dbe bf10 033e 29d8 8b3d
000002b0: 4a2b 233d cec4 07bf f11d 48bf 6003 fabe
000002c0: 5acc cbbe 7d01 f33e 146c 3cbf 7d5f 323d
000002d0: 15a5 1d3f 4736 753d adfc 1fbd 677c 0440
000002e0: 9f14 0c3e fd4d 6ebe c51e 463f 3e5d 4d3e
000002f0: 4492 f7be 4987 e33d 6553 153f d876 7c3e
00000300: 02ac 11bd 03af 16be ffe4 d8be 3a3c c93d
00000310: f6bd 8fbf b2fd 30bf c518 07bf a51e 86bf
00000320: 1459 663f 7b46 a5be a3b2 063d fcf5 59be
00000330: 88f5 b2be fbdf e53e 5a6b 033e db40 783d
00000340: 7167 673f 6bac 8bbd 9b03 4e3e ef68 70be
00000350: 7e39 e0be 39f2 eb3e 4af8 423d 7aef 2a3e
00000360: 1874 a03f 7e1e cd3e 24b8 283f 83cc 7c3e
00000370: 1c2f 31bf 3452 413f 1645 8e3d 4aa2 ecbd
00000380: 1db5 993f f64a cdbe 9d72 633e 9a0b b73e
00000390: 4987 68bd b24a c33d 6a5e 5abf 6f66 ae3e
000003a0: eb42 65bf a6b4 e1be 5e82 34bd 525d 643f
000003b0: aec1 54be 0f60 d63e ba6a 24bf cdca cabe
000003c0: a191 be3d 18fe 7fb9 c7da f63e 9b5b c0bd
000003d0: 6742 3f3d d083 f3be 1849 40bf 0dc4 a73f
000003e0: 89d7 1fbe c31d ca3d 212e 523f 7bd0 27bf
000003f0: fd89 debe eb7f a93e 667b 06be 8573 aabe

tbls_list.0.ff.layernorm.bias f4 [64]
0.0010713912 -0.1812279 0.07943072 0.028086426 -0.01618843 0.16618112 0.23382473 -0.04121987
0.0061961845 -0.10141027 0.13357337 0.33094797 -0.07106569 -0.025303243 -0.3095038 0.16212529
0.023345266 -0.2314663 0.22436693 -0.24571967 -0.07532256 0.36235777 -0.013395077 -0.009074794
0.006477427 -0.0069669173 0.03465591 -0.14228378 -0.112714 0.014051191 0.029419905 -0.10118428
-0.0521604 0.20983599 0.024089418 0.1654481 0.19885197 -0.12711789 -0.037961684 -0.092249155
0.0057814675 -0.094215564 -0.1330802 -0.13662273 0.10292779 -0.03415726 -0.032295886 -0.23694304
-0.06594853 0.064497024 0.01067485 -0.1287741 -0.08081981 0.30098978 0.0075619053 0.050989147
-0.19697778 0.24531275 0.04040477 -0.18149985 -0.048666712 -0.06948879 0.59552765 0.030474016
00000000: ec6d 8c3a ce93 39be 93ac a23d 8115 e63c
00000010: 999d 84bc 622b 2a3e c06f 6f3e 2bd6 28bd
00000020: 5d09 cb3b 30b0 cfbd 75c7 083e 0372 a93e
00000030: e38a 91bd bf48 cfbc 4877 9ebe 2c04 263e
00000040: 923e bf3c 8005 6dbe 72c0 653e f09d 7bbe
00000050: b742 9abd f586 b93e 0677 5bbc 72ae 14bc
00000060: 9940 d43b bd4a e4bb 5bf3 0d3d d7b2 11be
00000070: 99d6 e6bd f736 663c 0302 f13c b439 cfbd
00000080: 25a6 55bd 3fdf 563e 2c57 c53c 3a6b 293e
00000090: da9f 4b3e 312b 02be b67d 1bbd 20ed bcbd
000000a0: 7772 bd3b 17f4 c0bd 2d46 08be d4e6 0bbe
000000b0: cecb d23d 7ce8 0bbd b148 04bd 32a1 72be
000000c0: 0610 87bd 0417 843d 91e5 2e3c 5cdd 03be
000000d0: db84 a5bd 551b 9a3e dcc9 f73b ffd9 503d
000000e0: 8bb4 49be 4433 7b3e 797f 253d 19db 39be
000000f0: bf56 47bd 2450 8ebd 8074 183f a5a4 f93c

tbls_list.0.ff.layernorm.weight f4 [64]
0.35521752 0.30127248 0.10620938 0.02627996 -0.027394505 2.1037729 0.11117479 0.3628873
0.13670178 0.38766012 1.6648141 0.5137301 0.2786486 0.1414056 1.8583779 0.8351416
0.0074259997 1.1176108 0.566562 1.2185438 0.12860036 0.2353446 0.015165637 1.31779
2.2763765 0.12728108 0.45154133 0.3891701 0.07626006 -0.08776154 1.6386471 -0.0017361783
-0.10862704 0.42104927 0.0055069486 1.4694828 0.66287386 0.45329136 0.20016113 0.12822272
0.120666094 0.22956322 0.6758504 0.40181836 2.6034625 -0.20189191 0.20869648 0.41239634
0.6485402 0.13211645 0.13004246 0.026974782 0.23589608 0.7206967 0.07573026 0.031573303
0.51587766 0.12922795 0.12921654 0.22524618 0.32952803 0.3031827 0.2884333 0.16921815
00000000: 12df b53e 6340 9a3e 4e84 d93d 1249 d73c
00000010: 716a e0bc 37a4 0640 9caf e33d 5dcc b93e
00000020: 8dfb 0b3e 637b c63e a118 d53f d183 033f
00000030: 08ab 8e3e a1cc 103e 54df ed3f d7cb 553f
00000040: cd55 f33b df0d 8f3f 350a 113f 3ef9 9b3f
00000050: d0af 033e 2dfe 703e 4b79 783c 58ad a83f
00000060: 27b0 1140 f955 023e 6d30 e73e 4e41 c73e
00000070: 3c2e 9c3d 53bc b3bd 30bf d13f 7a90 e3ba
00000080: db77 debd c593 d73e a273 b43b 0318 bc3f
00000090: 1ab2 293f ce15 e83e 0af7 4c3e d14c 033e
000000a0: c91f f73d 9f12 6b3e 8804 2d3f 23bb cd3e
000000b0: 219f 2640 c1bc 4ebe 88b4 553e 9d25 d33e
000000c0: bb06 263f 8949 073e da29 053e 38fa dc3c
000000d0: be8e 713e 947f 383f 7718 9b3d 0253 013d
000000e0: 8f10 043f 5554 043e 5751 043e efa6 663e
000000f0: e6b7 a83e c33a 9b3e 88ad 933e 8647 2d3e

tbls_list.0.ff.second_proj.bias f4 [64]
-0.24977401 0.06284512 0.46121323 0.11677541 -0.28081864 0.8652676 -0.1725004 0.10813363
-0.013301509 -0.10844385 0.17612572 -0.1477923 0.5574927 -0.19328608 -0.46558285 0.28434148
0.037313536 -0.26476237 0.048904736 -0.18525203 0.2262489 -0.4084802 0.013054731 -0.06061453
-0.0870384 -0.39065185 0.051236473 0.12396413 0.3375037 0.31935984 0.29862863 -0.12567668
0.11351956 0.21148892 -0.09775814 0.2829312 0.0048149335 -0.0067347307 -0.08325028 -0.002783675
0.28781074 0.19749644 -0.045767657 -0.031040713 -0.66788536 0.11883821 0.080470584 -0.14272302
-0.23507793 -0.24631476 0.19440284 0.5672344 -0.13872571 0.09072258 0.20645897 0.28798717
0.16984984 -0.9878057 0.18039317 -0.05274783 -0.14005128 -0.23570214 -0.77559763 -0.10018168
00000000: c2c4 7fbe f1b4 803d 2424 ec3e f227 ef3d
00000010: 76c7 8fbe 2d82 5d3f f2a3 30be 2a75 dd3d
00000020: 93ee 59bc cf17 debd 4d5a 343e dd56 17be
00000030: d7b7 0e3f c9ec 45be e060 eebe 3595 913e
00000040: 14d6 183d ef8e 87be 5550 483d b5b2 3dbe
00000050: cbad 673e 5124 d1be 83e3 553c f146 78bd
00000060: 3041 b2bd 8503 c8be 56dd 513d e8e0 fd3d
00000070: 49cd ac3e 2283 a33e dae5 983e 63b1 00be
00000080: f17c e83d 8d90 583e 6b35 c8bd 5cdc 903e
00000090: 97c6 9d3b 04af dcbb 1f7f aabd 516e 36bb
000000a0: ee5b 933e 823c 4a3e de76 3bbd 1849 febc
000000b0: 89fa 2abf 7361 f33d c3cd a43d fc25 12be
000000c0: 45b8 70be f039 7cbe 8a11 473e 4636 113f
000000d0: 1d0e 0ebe c3cc b93d fb69 533e 0e73 933e
000000e0: 1eed 2d3e d6e0 7cbf fdb8 383e 1c0e 58bd
000000f0: 9a69 0fbe e75b 71be 918d 46bf 0d2c cdbd

tbls_list.0.ff.second_proj.weight f4 [64, 256]
0.5549814 -0.14965388 -0.26186714 0.085118115 -0.39681363 -0.31933933 0.13168614 -0.26457176
0.66063875 0.02276135 -0.18964367 -0.72723126 0.3944331 -0.09822572 -0.062938 -0.011667872
-0.35686088 -0.08987593 -0.0751104 -0.5055438 -1.0109811 -0.6242437 0.18039061 0.110268764
0.9499685 0.40892044 0.06625542 -0.42889354 0.20103164 0.17266573 -0.13009405 -0.2274371
0.23293746 0.48382446 0.54770434 -0.56241727 -0.464007 0.043260083 -0.49533358 0.7550968
0.27167144 0.17471784 -0.505184 0.33429125 0.21225786 0.6323989 -0.007193027 -0.86642045
0.27605426 -0.21450269 0.5552808 0.017467128 0.74817777 0.61169696 -0.11304628 0.077089116
0.15026474 -0.3878191 -0.38304302 0.35656723 0.9807374 0.069453046 0.24722485 0.6036249
0.29260206 -0.32579115 0.7583892 0.4854643 -0.22577271 -0.4333278 0.42747557 -0.010230313
0.018489823 0.8162384 -0.3775795 -0.39224145 0.37301028 -0.45252958 -0.61948913 0.032051325
0.022159277 -0.5474888 -0.16950929 -0.40755045 -0.44102842 -0.838228 0.047882136 0.42279527
-0.2358508 -0.51908064 -0.44856545 0.15779114 1.3317524 0.3339197 0.2061051 -0.3338139
0.14303057 0.4145504 -0.0838708 -0.021754205 0.48286918 -0.19972715 0.16829668 0.31499767
0.3246546 -0.5091493 -0.0009439435 0.24329734 -0.13970707 0.29114088 -0.16506128 0.03750299
-0.22507611 -0.12575461 -0.07674754 0.07617539 -0.34098727 -0.16523384 -0.28228128 -0.47293562
-0.19554788 0.60721236 0.41527295 -0.0613614 0.45931575 0.22205956 -0.33913004 -0.17882872
0.68917507 0.4852451 0.1580792 0.16812159 0.2319938 0.13414538 0.8220881 0.006140284
-0.48859406 -0.054411903 0.4038323 -0.51743907 -0.106027946 0.23957086 -0.1514926 -0.67693317
-1.0762757 0.41801968 0.359174 0.104762085 -0.28754038 -0.17244266 -0.632617 0.4926787
0.3934908 -0.26854238 0.11284822 0.3800666 -0.61596745 -0.029872542 0.29865637 -0.3728996
1.0037079 0.017141826 -0.16043769 -0.16512291 0.12198673 -0.22034763 -0.123493955 -0.24661896
0.16062592 -0.20723975 0.18426204 -0.027293565 -0.21197897 0.6409427 -0.07309382 -0.23913902
-0.85213673 0.012372019 0.16095854 -0.48710278 0.804112 0.019536152 -0.08297737 0.03276154
0.11177555 -0.007130409 0.65723366 -0.42265117 0.41300732 -0.19603093 -0.86335915 -0.5011681
-0.24679543 0.4762147 0.4328155 -0.20944405 -0.23709397 0.20015083 -0.68667966 -0.19765128
-0.583196 -0.051678944 -0.59040576 -0.42046574 -0.15668723 0.14684036 -0.69413775 0.5637625
-0.14556357 -0.26288506 -0.3292761 -0.4133888 -0.6448084 0.00012011331 0.049642943 -0.5390814
0.18432459 0.13965032 -0.8889123 0.08096581 0.43961772 -0.111962155 -0.34966382 0.35854706
0.18617879 -0.38931972 -0.06583465 -0.5807826 -0.8177841 -0.47817817 0.4580474 -0.35826805
-0.6454307 0.07721901 0.15408628 0.1618148 0.17651603 0.38478312 -0.30339205 -0.18825258
-0.14682154 0.038928773 -0.17310831 0.6177147 -0.5731741 0.7032135 0.2770961 -0.5221966
-0.4928167 0.12511045 -0.7468703 -0.40765113 0.27804336 0.50898147 -0.0016326956 -0.31808835
00000000: 4313 0e3f de3e 19be 7313 86be 6852 ae3d
00000010: 282b cbbe 7280 a3be bbd8 063e f375 87be
00000020: 9f1f 293f 0376 ba3c f331 42be d42b 3abf
00000030: 23f3 c93e 912a c9bd a3e5 80bd 9a2a 3fbc
00000040: 78b6 b6be df10 b8bd 7bd3 99bd 526b 01bf
00000050: d467 81bf 6fce 1fbf 51b8 383e 97d4 e13d
00000060: 2331 733f 055e d13e ecb0 873d ef97 dbbe
00000070: 3ddb 4d3e 49cf 303e 6037 05be 45e5 68be
00000080: 2887 6e3e d7b7 f73e 5a36 0c3f 94fa 0fbf
00000090: 5392 edbe 7c31 313d 5d9c fdbe 064e 413f
000000a0: 8518 8b3e 3ce9 323e bd53 01bf 3928 ab3e
000000b0: 205a 593e e5e4 213f 7cb3 ebbb bbcd 5dbf
000000c0: fc56 8d3e 98a6 5bbe e226 0e3f 3917 8f3c
000000d0: 9488 3f3f 2c98 1c3f cf84 e7bd e6e0 9d3d
000000e0: 00df 193e 3a90 c6be 371e c4be fb8f b63e
000000f0: 9b11 7b3f 663d 8e3d 8328 7d3e 2987 1a3f
00000100: f0cf 953e 19ce a6be cb25 423f c78e f83e
00000110: f630 67be 24dd ddbe 14de da3e 0b9d 27bc
00000120: f877 973c 00f5 503f 1a52 c1be dfd3 c8be
00000130: 34fb be3e f5b1 e7be d796 1ebf 4048 033d
00000140: 5f87 b53c 3a28 0cbf d893 2dbe 74aa d0be
00000150: 7ace e1be 1c96 56bf 0f20 443d 9f78 d83e
00000160: df82 71be 78e2 04bf 5faa e5be 0094 213e
00000170: dd76 aa3f 86f7 aa3e 370d 533e a8e9 aabe
00000180: 9b76 123e f33f d43e 74c4 abbd e035 b2bc
00000190: a13a f73e 4685 4cbe f755 2c3e 6047 a13e
000001a0: 2139 a63e 9c57 02bf fa72 77ba f022 793e
000001b0: 5f0f 0fbe 6b10 953e d305 29be bc9c 193d
000001c0: 5a7a 66be d1c5 00be d02d 9dbd d801 9c3d
000001d0: e295 aebe 0f33 29be 2c87 90be 9e24 f2be
000001e0: b43d 48be 4572 1b3f a89e d43e 1756 7bbd
000001f0: 6f2b eb3e 9563 633e 74a2 adbe e01e 37be
00000200: c76d 303f 0c72 f83e 84df 213e 1128 2c3e
00000210: c88f 6d3e 685d 093e 5e74 523f 6f34 c93b
00000220: 0029 fabe 04df 5ebd 1bc3 ce3e e376 04bf
00000230: 2e25 d9bd 1052 753e e020 1bbe 7e4b 2dbf
00000240: 67c3 89bf ad06 d63e a8e5 b73e 818d d63d
00000250: 7e38 93be cf94 30be 30f3 21bf 6240 fc3e
00000260: a077 c93e 637e 89be f81c e73d 1798 c23e
00000270: 0bb0 1dbf 43b7 f4bc 7de9 983e b2ec bebe
00000280: 8079 803f 046d 8c3c c749 24be fb15 29be
00000290: 2ed4 f93d cfa2 61be 66ea fcbd ae89 7cbe
000002a0: 1f7b 243e a836 54be 30af 3c3e c196 dfbc
000002b0: 0411 59be d214 243f 36b2 95bd dce0 74be
000002c0: a225 5abf 02b4 4a3c 51d2 243e 8965 f9be
000002d0: 49da 4d3f 480a a03c 0af0 a9bd f730 063d
000002e0: 94ea e43d 35a6 e9bb 7740 283f bc65 d8be
000002f0: b275 d33e 55bc 48be 1b05 5dbf 8d4c 00bf
00000300: f1b7 7cbe 6ad2 f33e fe99 dd3e 8078 56be
00000310: c3c8 72be 57f4 4c3e 3dca 2fbf 1965 4abe
00000320: 554c 15bf 4dad 53bd d524 17bf 4947 d7be
00000330: 9e72 20be 525d 163e 03b3 31bf bd52 103f
00000340: 9e0e 15be df98 86be e196 a8be b2a7 d3be
00000350: 2a12 25bf 58e5 fb38 6656 4b3d 3d01 0abf
00000360: 96bf 3c3e 7e00 0f3e c28f 63bf 67d1 a53d
00000370: 9315 e13e 6a4c e5bd 2307 b3be 7b93 b73e
00000380: a7a5 3e3e ea54 c7be 51d4 86bd 2bae 14bf
00000390: 4c5a 51bf c5d3 f4be 3085 ea3e e96e b7be
000003a0: f23a 25bf 0025 9e3d cbc8 1d3e c7b2 253e
000003b0: 9ec0 343e 4b02 c53e 3456 9bbe 49c5 40be
000003c0: 6358 16be c773 1f3d 4e43 31be 8d22 1e3f
000003d0: 8abb 12bf cd05 343f 8adf 8d3e adae 05bf
000003e0: 7852 fcbe f41c 003e e432 3fbf a6b7 d0be
000003f0: b35b 8e3e 9c4c 023f 2c00 d6ba 7adc a2be

tbls_list.0.mha.kproject.weight f4 [64, 64]
-0.29230082 -0.649598 -0.9968177 0.04603404 -0.298759 -0.57153225 0.47585037 -0.3649348
-0.5177001 0.11889395 -0.47214213 0.9079153 -0.42731586 0.17977817 0.3756887 0.4288597
0.37047532 0.7072787 0.6107962 -0.63862336 -0.5129209 -0.0808475 0.014471799 -0.3986177
0.8865233 -0.18192264 0.7318869 -0.02307473 0.12445996 -0.17558618 -0.96162266 -0.21542117
-0.12181142 -0.43127716 -0.6559179 0.20483814 -1.4512591 0.4385512 0.59894645 0.1889122
-0.4538511 0.041320574 -0.22555284 0.67596453 0.2445601 -0.87302285 -1.1788384 0.37273434
0.0051595215 -0.6411384 -0.33879966 0.11995081 -0.4469757 -0.46669218 0.51519126 0.17699355
-0.67615366 0.5500002 0.40512905 -0.91780406 -0.71271914 -0.63607836 0.2437326 0.598245
-0.028313627 0.47768322 0.015994467 -0.94416356 0.18424758 0.36684006 -0.015837591 -0.11177535
0.65897954 -0.30460274 -0.20623061 -0.22730759 -0.031037014 0.13179399 -0.79292 1.0929672
0.24294764 0.29499602 -1.3633381 -1.641275 -0.681279 0.2816062 0.5884351 0.22518733
-0.7113882 -0.56326646 -0.55575705 0.10657805 0.5102889 -0.25005525 -0.26505476 -0.085154474
0.1413049 -0.18494482 1.138296 -0.38174403 0.66455495 -0.7574997 0.5131244 0.39324293
0.5995076 0.8397949 0.7951601 -0.6588542 0.1276903 -0.055942472 0.7491878 0.036408354
0.39667156 0.20022477 0.65684175 0.8459832 -0.8642106 -0.57054603 0.807672 -0.6815606
-0.333242 -0.77090853 -0.5520829 0.426452 0.90878725 0.7937166 0.39859942 0.09773027
-0.08171869 0.08449099 -0.24756606 -0.33738297 -0.39100546 0.3392979 0.3330772 0.5759512
0.34119102 -0.5921034 0.6070947 -0.2481268 -0.31223708 0.17045745 0.05251574 0.501651
0.05012913 0.26365563 -0.058212224 -0.48870072 0.05842953 0.13779186 0.46843016 -0.31958637
-0.7310358 -0.24499525 -0.27560285 -0.23527007 0.21762495 -0.53012013 0.7346917 0.6304819
-0.49027187 0.91972053 0.76486105 -0.21873048 1.343934 -0.63935685 -0.48489505 0.25509873
0.627347 0.06575957 0.65320957 -0.39818248 -0.080108605 0.35103965 1.4353522 0.24494967
-0.021850213 0.19026586 0.07736871 -0.44168702 0.21027493 0.66297376 -0.10070299 -0.0064279297
-0.16102467 0.013077896 -0.6802038 0.2556315 1.2283971 0.0001476517 -0.5586304 -0.6128909
0.41129863 -0.23698683 -0.734291 -0.3027003 -0.3405955 -0.60671836 -0.35559252 -0.1323822
0.2602675 -0.7588901 -0.02028666 -0.063632615 0.09095989 -0.24403362 -0.45252797 0.44260117
0.44080475 0.22294185 -0.24385172 -0.65853417 -0.2879739 -0.30907553 0.50062275 -0.28601053
-1.0113167 -0.8040675 -0.53400314 0.9453242 0.9511082 -0.14261486 0.14409208 -0.666445
-0.8067589 -0.3302559 0.5385442 -0.44441015 0.4222717 -0.26042202 0.7508324 0.19710477
-0.44696447 0.024222031 0.15272836 -0.13818982 -0.006342811 -0.44478446 -0.22814241 -0.04163967
0.3618058 -0.78849775 -0.08703248 -0.036050074 -0.2871739 0.75532037 0.6819641 -0.40896314
-0.28060862 -0.64362544 -0.18474878 -0.10816591 -0.09011777 -0.11687528 -0.1114799 -0.7277411
00000000: 74a8 95be 0e4c 26bf 722f 7fbf 318e 3c3d
00000010: f1f6 98be f04f 12bf a9a2 f33e bcd8 babe
00000020: fe87 04bf ac7e f33d 9dbc f1be 236d 683f
00000030: 25c9 dabe c517 383e 455a c03e 8093 db3e
00000040: f1ae bd3e 3810 353f 245d 1c3f d27c 23bf
00000050: c94e 03bf 6093 a5bd 201b 6d3c 9f17 ccbe
00000060: 31f3 623f ee49 3abe f15c 3b3f 3707 bdbc
00000070: dde4 fe3d ddcc 33be e72c 76bf 5e97 5cbe
00000080: 4478 f9bd 5cd0 dcbe 3cea 27bf 17c1 513e
00000090: dcc2 b9bf c889 e03e 8e54 193f 3372 413e
000000a0: 2c5f e8be c33f 293d 53f7 66be 030c 2d3f
000000b0: f66d 7a3e 6d7e 5fbf 2de4 96bf 09d7 be3e
000000c0: 3411 a93b a521 24bf 2677 adbe c5a8 f53d
000000d0: 00da e4be 47f2 eebe 93e3 033f cc3d 353e
000000e0: 6818 2dbf d0cc 0c3f 136d cf3e 35f5 6abf
000000f0: c374 36bf 08d6 22bf 0a95 793e 9626 193f
00000100: fbf1 e7bc e592 f43e d406 833c b4b4 71bf
00000110: 66ab 3c3e 76d2 bb3e d6bd 81bc 7aea e4bd
00000120: e2b2 283f e4f4 9bbe 1e2e 53be 52c3 68be
00000130: 5641 febc 01f5 063e cefc 4abf 59e6 8b3f
00000140: 44c7 783e b809 973e dd81 aebf 4d15 d2bf
00000150: 4d68 2ebf b02e 903e afa3 163f 8297 663e
00000160: 891d 36bf 3b32 10bf 1846 0ebf 9845 da3d
00000170: 4ba2 023f 3e07 80be 42b5 87be 7865 aebd
00000180: 3bb2 103e 2d62 3dbe afb3 913f f473 c3be
00000190: 4620 2a3f 80eb 41bf 1f5c 033f 2357 c93e
000001a0: 5479 193f ccfc 563f 9d8f 4b3f abaa 28bf
000001b0: 3fc1 023e ef23 65bd c6ca 3f3f ed20 153d
000001c0: 8918 cb3e b907 4d3e c826 283f 5b92 583f
000001d0: e83c 5dbf 4e0f 12bf 98c3 4e3f c17a 2ebf
000001e0: b29e aabe 435a 45bf 4e55 0dbf eb57 da3e
000001f0: 48a6 683f 0331 4b3f 3915 cc3e cf26 c83d
00000200: 215c a7bd 9d09 ad3d f581 7dbe 76bd acbe
00000210: de31 c8be 74b8 ad3e 1889 aa3e 8a71 133f
00000220: 97b0 ae3e 1794 17bf 8f6a 1b3f f414 7ebe
00000230: 8add 9fbe 668c 2e3e bf1a 573d 336c 003f
00000240: 3454 4d3d dffd 863e f16f 6ebd fb36 fabe
00000250: ce53 6f3d 4f19 0d3e 14d6 ef3e d3a0 a3be
00000260: 2a25 3bbf 09e0 7abe d11b 8dbe a3ea 70be
00000270: 13d9 5e3e f4b5 07bf c114 3c3f 4367 213f
00000280: ea04 fbbe ce72 6b3f efcd 433f e2fa 5fbe
00000290: 0806 ac3f e4ac 23bf 2a44 f8be 4d9c 823e
000002a0: d099 203f f4ac 863d be38 273f 93de cbbe
000002b0: fb0f a4bd 78bb b33e 9fb9 b73f 16d4 7a3e
000002c0: 38ff b2bc 0ed5 423e 7c73 9e3d cd24 e2be
000002d0: 5052 573e a6b8 293f 5f3d cebd 62a1 d2bb
000002e0: a7e3 24be ac44 563c d621 2ebf 22e2 823e
000002f0: 1e3c 9d3f f4d2 1a39 6702 0fbf 6be6 1cbf
00000300: bc95 d23e adac 72be 7ffa 3bbf 89fb 9abe
00000310: 8962 aebe e551 1bbf 3910 b6be 338f 07be
00000320: c841 853e 9f46 42bf 3630 a6bc d151 82bd
00000330: 2e49 ba3d f3e3 79be bfb1 e7be 9f9c e23e
00000340: 29b1 e13e de4a 643e 44b4 79be b295 28bf
00000350: 5171 93be 263f 9ebe d028 003f f96f 92be
00000360: d372 81bf 5ed7 4dbf 6eb4 08bf c400 723f
00000370: d47b 733f a109 12be e08c 133e 249c 2abf
00000380: c087 4ebf 4d17 a9be 08de 093f ba89 e3be
00000390: ff33 d83e 0956 85be 8d36 403f d5d5 493e
000003a0: 87d8 e4be 486d c63c d364 1c3e a281 0dbe
000003b0: 5bd7 cfbb caba e3be 2a9e 69be 5c8e 2abd
000003c0: 9c3e b93e fdda 49bf 163e b2bd 3ea9 13bd
000003d0: 7508 93be ad5c 413f 3395 2e3f 9e63 d1be
000003e0: efab 8fbe a3c4 24bf c92e 3dbe 1786 ddbd
000003f0: aa8f b8bd 4f5c efbd 934f e4bd 3e4d 3abf

tbls_list.0.mha.layernorm.bias f4 [64]
0.0448559 0.036733754 -0.014100508 -0.20601654 0.21764503 0.6815434 -0.5533755 -0.24728118
0.13658287 0.20655715 -0.12796493 -0.3243416 -0.17445402 0.48203003 0.28669915 -0.6041918
0.029038396 -0.14116001 -0.7976214 0.6367741 0.088848606 -0.7335992 0.041803807 0.34520352
0.25060603 0.1799227 0.26108086 -0.05165457 0.04559582 -0.0058707623 0.104166776 -0.08833077
0.21115808 -0.1659981 -0.21041735 0.24885884 0.009750261 0.18167907 -0.056021832 0.39344823
-0.109760195 0.13207525 0.26163033 0.06285684 -0.11431654 0.04836311 0.25261468 0.12659933
-0.6905936 0.33678478 0.54174715 0.09146204 -0.20642126 -0.044169262 -0.41450185 -0.7940871
0.75283754 -0.5598742 0.0016237947 -0.060318295 -0.52088666 0.88408905 -1.3686012 -0.58303416
00000000: d2ba 373d 2276 163d d105 67bc 00f6 52be
00000010: 57de 5e3e a179 2e3f 04aa 0dbf 4737 7dbe
00000020: 61dc 0b3e b883 533e 3d09 03be 1a10 a6be
00000030: 13a4 32be a4cc f63e 3bca 923e 50ac 1abf
00000040: eee1 ed3c 408c 10be eb30 4cbf a103 233f
00000050: 42f6 b53d 28cd 3bbf 783a 2b3d 84be b03e
00000060: 6f4f 803e a83d 383e 64ac 853e be93 53bd
00000070: afc2 3a3d 865f c0bb 6455 d53d c3e6 b4bd
00000080: d339 583e 68fb 29be a577 57be dad4 7e3e
00000090: 8fbf 1f3c 140a 3a3e 2677 65bd 0c72 c93e
000000a0: f4c9 e0bd bc3e 073e 69f4 853e 16bb 803d
000000b0: ca1e eabd 6518 463d b656 813e 41a3 013e
000000c0: beca 30bf 0e6f ac3e f1af 0a3f 7350 bb3d
000000d0: 1860 53be d4ea 34bd 9639 d4be 4b49 4bbf
000000e0: f6b9 403f ea53 0fbf 82d5 d43a 5110 77bd
000000f0: d458 05bf a953 623f 532e afbf ba41 15bf

tbls_list.0.mha.layernorm.weight f4 [64]
1.1916426 1.2823195 0.9204732 1.1170887 1.0624347 1.5492585 0.8853747 1.5513693
1.2894443 0.61205703 1.9338202 0.33517182 1.2103666 0.7590283 1.0872518 1.0486681
0.6041778 1.4799819 1.2452687 1.4388181 0.9334696 1.1717136 0.977313 1.437251
1.2092367 0.84081066 0.7008285 1.4696152 0.41340292 0.6018302 1.4347057 0.89940536
1.1290569 0.97956544 0.7976843 1.548019 0.8296239 1.4842805 1.1662155 0.92645514
0.6939739 1.0828891 1.4503399 1.19148 1.6514324 0.71388185 0.75189054 0.9911139
1.0302753 0.9531482 1.6234581 0.21428907 1.278465 0.6285745 0.59567565 2.0881524
1.1842438 0.8422911 0.82430786 1.2682985 0.66020036 1.0075576 1.743316 1.1729724
00000000: bf87 983f 0c23 a43f 22a4 6b3f c3fc 8e3f
00000010: dcfd 873f 1a4e c63f eba7 623f 4593 c63f
00000020: 830c a53f c5af 1c3f 6c87 f73f a49b ab3e
00000030: 4bed 9a3f ae4f 423f 112b 8b3f c23a 863f
00000040: 65ab 1a3f 0c70 bd3f f764 9f3f 312b b83f
00000050: ddf7 6e3f b6fa 953f 2f31 7a3f d7f7 b73f
00000060: 45c8 9a3f 5e3f 573f 7f69 333f 5a1c bc3f
00000070: 8ca9 d33e 8b11 1a3f 70a4 b73f 6e3f 663f
00000080: f084 903f cdc4 7a3f 0a35 4c3f 7d25 c63f
00000090: 3b62 543f e7fc bd3f 8d46 953f 2a2c 6d3f
000000a0: 46a8 313f 1c9c 8a3f bda4 b93f 6b82 983f
000000b0: 2362 d33f f6c0 363f e67b 403f a4b9 7d3f
000000c0: 10e0 833f 8501 743f 7acd cf3f 986e 5b3e
000000d0: bea4 a33f 42ea 203f 337e 183f 4aa4 0540
000000e0: 4d95 973f 64a0 573f d705 533f 9b57 a23f
000000f0: e402 293f a6f7 803f fb24 df3f f623 963f

tbls_list.0.mha.out_project.weight f4 [64, 64]
0.06689715 -0.9416284 0.25168487 -0.4193103 0.36728582 0.22226757 -0.36565685 0.08556461
-0.32110444 -0.7034932 0.3133434 -0.3215598 -0.11743977 -0.741467 0.45911357 -0.29717955
0.27773714 -0.1605179 -0.8240822 -0.2553141 -0.012257962 0.10528424 -0.4505416 0.35728607
0.2280526 0.6255757 1.1505152 0.037656363 0.2392873 -0.2908999 0.4030412 -0.70007515
0.33995155 0.088337064 0.15433058 0.34040892 0.1820703 0.3012529 -0.47191003 -0.06004174
-0.02430592 -0.6869981 0.3155794 0.9727475 0.11278702 0.039135285 0.5981023 -0.28794208
-0.9872589 0.7742965 -0.6339043 -0.092720814 -0.36213112 0.7556938 0.02116568 -0.24664025
0.32956302 0.31964418 -0.52999145 0.34744397 -0.004036233 0.89165723 -0.5506119 0.37148356
-0.17997967 0.005085272 -0.07852932 -0.1558816 0.6132747 -0.25438032 0.06855945 -0.12916607
-0.693623 -0.50387925 -0.4186187 0.25358522 0.4475026 -0.7688428 -0.2949507 -0.5142624
0.7127047 -0.07428696 -0.39383325 -0.28161824 -0.736284 1.2792255 -0.03236041 -0.29416943
0.36677665 -0.49159694 0.5387415 0.32886034 0.5010741 -0.0748119 -0.009067812 -0.61165774
-0.19055939 -0.19469532 0.49259117 0.14008765 0.47428805 -0.33904776 -0.63245916 -0.8610277
-0.25606656 -0.029184334 -0.06793407 -0.5318987 -0.13905153 0.23522696 0.25736123 0.1441354
-0.8668734 0.30473852 -0.15452522 -0.0075821793 -0.81025136 0.74916506 -0.045351233 -0.13219862
0.089984864 0.27409565 0.57871413 0.51108795 0.25287044 1.1059172 0.013676981 0.35989326
0.40385377 0.0027768973 0.3418959 0.003751451 0.6253485 0.09128288 0.3703154 0.10931135
0.2655317 -0.0016763464 1.2044253 -0.7121051 -0.2516714 0.419913 0.31501302 0.036480185
-0.008497401 0.3687846 0.6250565 -0.42057058 0.38937238 0.08086448 -0.5390002 0.46367255
-0.17228346 -0.5117068 -0.5985588 -0.30974567 -0.013788291 -0.30197784 -0.5913443 -0.15252894
0.37365767 0.7855894 -0.63182294 0.34138304 -0.030223686 -0.06327989 0.93882793 0.1696441
0.07426266 -0.36516908 -0.8728939 -0.1531392 -0.28741455 0.77279097 0.067451134 0.025717393
-0.7766037 0.71476156 0.49814636 0.34176338 -0.31148946 -0.22914118 -0.54512537 0.54534125
0.3001546 0.03684744 -0.21189715 -0.5279308 0.91213125 -0.70216995 0.018282725 0.28137112
0.04616105 -0.6295825 -0.28313288 -0.14597443 -0.26036534 0.22851953 -0.10616215 0.44767898
-0.0932202 -0.11808218 -0.13107982 0.09718444 -0.25584006 0.15541597 -0.2026808 0.24197964
0.8664228 -0.14072946 -0.101618804 -0.046280075 -0.12136649 -0.007828267 0.16391627 -0.68339986
-0.4245809 -0.33810884 -0.13598937 -0.5514606 0.27304333 -0.15003599 -0.5412829 -0.23645581
0.23928419 -0.50490725 1.3048742 -0.007207692 0.16765569 -0.5630564 0.18134819 -0.47521025
0.19175686 -0.3284863 -0.37106472 -0.51093054 -0.4791472 -0.43358284 -0.27868733 0.28860393
0.03275301 0.7589078 -0.4931006 -0.11769319 0.045148894 0.295672 -0.055753693 0.3535366
0.18173961 0.6049929 -0.871849 -0.17949747 -0.57439095 -0.31409696 0.57512075 0.6817826
00000000: 5f01 893d 8f0e 71bf d7dc 803e d7af d6be
00000010: e30c bc3e 1c9a 633e 6037 bbbe 803c af3d
00000020: cd67 a4be 2118 34bf 8c6e a03e 7ca3 a4be
00000030: 4384 f0bd c8d0 3dbf ef10 eb3e eb27 98be
00000040: 9033 8e3e ce5e 24be 0df7 52bf 88b8 82be
00000050: 9ed5 48bc 439f d73d 63ad e6be 33ee b63e
00000060: 9f86 693e bb25 203f 1544 933f 8f3d 1a3d
00000070: bb07 753e d5f0 94be 6b5b ce3e 2038 33bf
00000080: 210e ae3e 10ea b43d d608 1e3e 144a ae3e
00000090: a370 3a3e d23d 9a3e 319e f1be 54ee 75bd
000000a0: 351d c7bc 1cdf 2fbf a093 a13e fb05 793f
000000b0: e2fc e63d 524c 203d 3b1d 193f 256d 93be
000000c0: 00bd 7cbf 4c38 463f 8d47 22bf 69e4 bdbd
000000d0: 4069 b9be 2675 413f a663 ad3c 438f 7cbe
000000e0: 7cbc a83e 67a8 a33e 85ad 07bf 2de4 b13e
000000f0: 6042 84bb a643 643f e7f4 0cbf 1833 be3e
00000100: 974c 38be 5aa2 a63b fbd3 a0bd 6d9f 1fbe
00000110: 92ff 1c3f 233e 82be e668 8c3d 1c44 04be
00000120: 4791 31bf 3bfe 00bf 3155 d6be ecd5 813e
00000130: 101f e53e e2d2 44bf c703 97be b3a6 03bf
00000140: d173 363f c323 98bd 83a4 c9be 4430 90be
00000150: 1c7d 3cbf a9bd a33f 598c 04bd 609d 96be
00000160: 26ca bb3e 98b2 fbbe f7ea 093f 6260 a83e
00000170: 6446 003f fb36 99bd 2991 14bc 9a95 1cbf
00000180: 0022 43be 365e 47be e934 fc3e 2373 0f3e
00000190: e2d5 f23e ab97 adbe d8e8 21bf 506c 5cbf
000001a0: 281b 83be fc13 efbc 0521 8bbd 832a 08bf
000001b0: 8663 0ebe 56df 703e dac4 833e 3b98 133e
000001c0: 6aeb 5dbf b006 9c3e dc3b 1ebe ee73 f8bb
000001d0: a26c 4fbf 48c9 3f3f 37c2 39bd 135f 07be
000001e0: fc49 b83d 4456 8c3e 9c26 143f a9d6 023f
000001f0: 3c78 813e b28e 8d3f 6b15 603c ee43 b83e
00000200: ecc5 ce3e 9bfc 353b fb0c af3e e7da 753b
00000210: d716 203f 85f2 ba3d fb99 bd3e a1de df3d
00000220: c5f3 873e dab8 dbba 9c2a 9a3f 854c 36bf
00000230: 13db 80be d6fe d63e 6349 a13e 3f6c 153d
00000240: af38 0bbc 56d1 bc3e b403 203f 0755 d7be
00000250: d15b c73e 479c a53d ebfb 09bf 7d66 ed3e
00000260: 136b 30be 38ff 02bf 263b 19bf fc96 9ebe
00000270: 49e8 61bc d79c 9abe 5762 17bf 8c30 1cbe
00000280: 0f50 bf3e 631c 493f 26bf 21bf c2c9 ae3e
00000290: aa97 f7bc e398 81bd 0757 703f 2fb7 2d3e
000002a0: 0617 983d 71f7 babe fa75 5fbf 86d0 1cbe
000002b0: 0028 93be a1d5 453f d223 8a3d 48ad d23c
000002c0: 80cf 46bf 9dfa 363f 0a0d ff3e 9cfb ae3e
000002d0: 8c7b 9fbe fca3 6abe 568d 0bbf 7c9b 0b3f
000002e0: ddad 993e 57ed 163d 91fb 58be 7926 07bf
000002f0: 6f81 693f 69c1 33bf a7c5 953c e00f 903e
00000300: 5f13 3d3d 522c 21bf cbf6 90be 527a 15be
00000310: 9b4e 85be 0601 6a3e 8b6b d9bd 2e36 e53e
00000320: 3bea bebd 12d5 f1bd ca39 06be a308 c73d
00000330: 78fd 82be 5d25 1f3e 8e8b 4fbe 83c9 773e
00000340: e2cd 5d3f 621b 10be 851d d0bd 2d90 3dbd
00000350: ff8e f8bd 2242 00bc abd9 273e 4bf3 2ebf
00000360: ab62 d9be 9a1c adbe cc40 0bbe 862c 0dbf
00000370: 56cc 8b3e 09a3 19be 8491 0abf 7921 72be
00000380: ea06 753e 9a41 01bf 1e06 a73f 812e ecbb
00000390: efad 2b3e 7724 10bf 57b3 393e c24e f3be
000003a0: e95b 443e 5b2f a8be 32fc bdbe 58cc 02bf
000003b0: c852 f5be 92fe ddbe 1bb0 8ebe e5c3 933e
000003c0: 0528 063d c847 423f af77 fcbe 2109 f1bd
000003d0: 0cee 383d 5262 973e fc5d 64bd c002 b53e
000003e0: f319 3a3e d1e0 1a3f 7f31 5fbf 2fce 37be
000003f0: 490b 13bf 51d1 a0be 1d3b 133f 4e89 2e3f
