degradation_transformer_model.safetensors (safetensors, 866672 bytes, 38 tensors)

lm_head.weight f4 [1000, 64]
0	0x3e33732d	0.17524405
1	0xbf5263a2	-0.8218328
2	0xc0122b9c	-2.2839117
3	0x3f4a1f8b	0.7895438
4	0xbe8c80e8	-0.27442098
5	0x3fe6e5d1	1.8038884
6	0xbe62cfc1	-0.22149564
7	0xbedcfa9f	-0.4315996
8	0xbf56753f	-0.83772653
9	0xbf7a9ff6	-0.9790033
10	0xc051c490	-3.2776222
11	0x400fd5ff	2.2474363
12	0xbfcf462a	-1.6193287
13	0x3f641066	0.8908752
14	0x3c14c123	0.0090792505
15	0x3f26e5ab	0.65194196
16	0xbf758276	-0.9590219
17	0xbfc8770d	-1.5661331
18	0x3fd78411	1.6837178
19	0x3f998fef	1.199705
20	0x3e334de2	0.17510179
21	0xbed8edf7	-0.42369053
22	0x3e8a9994	0.27070296
23	0x40011c31	2.0173457
24	0x3f6b96b7	0.9202685
25	0x3dc39084	0.095490485
26	0xbe5c1c11	-0.21495081
27	0x3f59df55	0.851064
28	0xbe809764	-0.25115502
29	0xbfcccccb	-1.5999998
30	0x3f2daa05	0.67837554
31	0xbeacc49f	-0.3374376
32	0xbeaf6ce7	-0.34262773
33	0x3de998db	0.11406108
34	0x3f1dd1af	0.61648077
35	0x3f91415d	1.1348072
36	0xbf1decc2	-0.6168939
37	0x3f9513dd	1.1646687
38	0xc00488d7	-2.070852
39	0x3ffa5373	1.9556717
40	0x3e1cdbd3	0.15318231
41	0xbf648020	-0.89258003
42	0x3fdde202	1.7334597
43	0x3feb9298	1.8404112
44	0x3dac87d7	0.08424347
45	0x402dd4e5	2.716119
46	0xbf5d20b0	-0.86378
47	0xbf81da0b	-1.0144666
48	0xbe27ee80	-0.16399574
49	0xbef5cd5a	-0.48008233
50	0xbfc8cdd5	-1.5687815
51	0x3e86e67d	0.26347724
52	0x3f16dd53	0.58931464
53	0x3e2dfaa4	0.16990143
54	0xbe7a157a	-0.24422255
55	0xbeda5fc9	-0.42651203
56	0xbf7f1536	-0.9964174
57	0xbdce161c	-0.10062811
58	0x3d44c752	0.04804165
59	0xbfa564b9	-1.2921363
60	0xbef45935	-0.4772431
61	0xbf4db394	-0.8035214
62	0x3f7d8bd4	0.99041486
63	0x3ef10625	0.47075
64	0xbe8d1d9f	-0.27561662
65	0x3f7d5968	0.9896455
66	0x3faceb54	1.3509316
67	0x3f31a692	0.6939479
68	0x3f042eba	0.516338
69	0xbd8b41a1	-0.06799627
70	0xbfc33057	-1.5249127
71	0xbf216155	-0.6303914
72	0xbf12c0f7	-0.5732569
73	0xbfdcc408	-1.7247324
74	0x3fb66fe3	1.4252895
75	0xc0232eda	-2.5497346
76	0x3ef68465	0.48147884
77	0x3f91b748	1.1384058
78	0xbde2e7ab	-0.110793434
79	0x3eac39e6	0.33637923
80	0x3ed1d2d4	0.40981162
81	0xbed3a3fa	-0.41336042
82	0x3fb4660e	1.4093645
83	0xbe8f58a2	-0.2799731
84	0xbfb937eb	-1.447019
85	0x3fbb75f8	1.4645376
86	0x3e023f1e	0.1271939
87	0x3d35ecdd	0.044415344
88	0xbf07aa35	-0.5299409
89	0xbe54a3df	-0.20765637
90	0x3f6234fa	0.88362086
91	0xbea0bc5c	-0.31393707
92	0xbfd6c7b2	-1.6779692
93	0x3e8b6432	0.2722488
94	0xbf93845b	-1.1524767
95	0x40067c26	2.1013274
96	0xbb8474e3	-0.0040422543
97	0x3f9b63df	1.2139853
98	0x3f679905	0.90467864
99	0xbe1c432e	-0.15260002
100	0xbf4fa949	-0.81117684
101	0x3db96238	0.09051937
102	0x3f916a8b	1.1360639
103	0x3f2bd13a	0.6711613
104	0xc00977d1	-2.147938
105	0xbf2fb672	-0.68637764
106	0x3f34f5b3	0.7068741
107	0xbe888784	-0.2666589
108	0x3fcce5be	1.6007612
109	0x3f4afe64	0.7929442
110	0xc064170d	-3.563907
111	0xbfec86e5	-1.8478667
112	0x3dfd3fd0	0.12365687
113	0x3dc2f469	0.09519274
114	0xbf86377f	-1.0485686
115	0x3f370ba2	0.71502125
116	0x3f144c81	0.57929236
117	0xbf136558	-0.57576513
118	0x3e4a3db8	0.19750106
119	0xbe806cb9	-0.2508295
120	0xbe45f3a1	-0.19331218
121	0x3f6c76ec	0.9236896
122	0xbf09f16e	-0.5388402
123	0xbf48601f	-0.7827167
124	0x3e13b18d	0.14423199
125	0xc016af2d	-2.354442
126	0x3edef317	0.43544838
127	0xbf96590f	-1.1745929
128	0xbeed3b3e	-0.4633426
129	0x3fd4b888	1.6618814
130	0xc004d0a0	-2.0752335
131	0xbf25a7d8	-0.64709234
132	0x3efaded1	0.4899812
133	0x3f2d32d7	0.676557
134	0x3f6df73a	0.9295536
135	0x3d33adb6	0.043866836
136	0xbc9e75d9	-0.019343304
137	0x3d9eee22	0.07760264
138	0xbe1ff5a4	-0.15621048
139	0x3f860600	1.0470581
140	0xbf587bc0	-0.8456383
141	0x3fa65bbe	1.2996747
142	0x3ecd42d0	0.40090036
143	0x3f531be7	0.8246445
144	0xbf885380	-1.0650482
145	0x3f30cb46	0.6906017
146	0x3faeaf87	1.3647317
147	0x3ece437a	0.40285856
148	0x4007816e	2.1172748
149	0xbeb05047	-0.34436247
150	0xbedac9e3	-0.42732152
151	0xbfda72e7	-1.7066315
152	0x3fc6e292	1.5537894
153	0x3ef9890c	0.4873737
154	0x3fa5f9ea	1.2966893
155	0x3e4d3c2b	0.20042484
156	0xbfdc63ea	-1.7217991
157	0x3ea4dc9d	0.32199565
158	0x3fb83aeb	1.439298
159	0x3f573c06	0.84075963
160	0x3fe5c063	1.7949337
161	0x3d4352d3	0.04768641
162	0xbe4da73d	-0.20083328
163	0x3f7a1963	0.9769499
164	0x3fcafa5c	1.5857654
165	0x3f7b56b6	0.98179185
166	0xbf0b79da	-0.54482806
167	0xbeda3e27	-0.42625543
168	0xbe41b41e	-0.18916366
169	0xbf4d4da5	-0.801966
170	0xbe408bea	-0.18803373
171	0x3f2677e3	0.6502668
172	0x3fa07621	1.253605
173	0x3e6f5434	0.23371965
174	0x3fb8bf98	1.443347
175	0x3e986c63	0.29770193
176	0x3de599af	0.112109534
177	0xbf238107	-0.63868755
178	0xbf9ef6b1	-1.2419034
179	0x3fc87bbc	1.5662761
180	0x3f065b5e	0.52483165
181	0x3ed1c347	0.40969297
182	0xbe47a972	-0.19498232
183	0x3f664a9d	0.899576
184	0xbf21eced	-0.63252145
185	0xbf385e62	-0.72019017
186	0xbea91b38	-0.3302858
187	0x3e32be7e	0.1745548
188	0x3f1f3e40	0.6220436
189	0x3fe53ef5	1.7909838
190	0x3f057786	0.52135503
191	0xbef6ba38	-0.4818895
192	0xbf9c6914	-1.2219567
193	0xbf79a6d6	-0.97520196
194	0x3f647c64	0.89252305
195	0xbfe3269c	-1.7746158
196	0x3fad0e1b	1.351993
197	0x3f9db7fa	1.232177
198	0x3ea7008c	0.32617605
199	0xbeaa2b21	-0.3323603
200	0x3e9ae159	0.30250052
201	0x3e83d975	0.25751844
202	0xbfb8dc4a	-1.4442227
203	0x3e78bf44	0.24291712
204	0xbf6cbbe9	-0.9247423
205	0x3ebbb175	0.36658826
206	0xbe88fc33	-0.26754913
207	0x3f8ac29b	1.0840639
208	0x3f1aaf92	0.6042415
209	0xbe6abfbc	-0.22924703
210	0xbfc1f49b	-1.5152773
211	0xbeaac828	-0.33355832
212	0xbf26b8b2	-0.6512557
213	0x3fbf5fa4	1.4951062
214	0xbf22f13b	-0.6364934
215	0x3f17d7cb	0.5931365
216	0x3ecdef8b	0.4022182
217	0x3f82bcff	1.0213927
218	0xbf1dc005	-0.61621124
219	0xbf0da8a4	-0.5533545
220	0x3f2ba19a	0.6704346
221	0xbd82d9d6	-0.06389205
222	0x3e78e750	0.24306989
223	0x3f345035	0.70434886
224	0x3c20c75a	0.009813154
225	0xbf108faf	-0.56469244
226	0xbf5f8cf7	-0.8732447
227	0x400b3b92	2.175511
228	0x3ea79b3b	0.3273562
229	0x3f747f22	0.9550649
230	0xbe3a371c	-0.18185085
231	0xbe3ef52a	-0.1864821
232	0x3f6fa60e	0.93612754
233	0x3fc2f987	1.52324
234	0x3fc3c73a	1.5295174
235	0x3edd2684	0.43193448
236	0xbf0eaaa7	-0.55729145
237	0xbfda9723	-1.7077373
238	0x3f8f029f	1.1172675
239	0xc0635ad5	-3.552419
240	0x3efc6b4d	0.49300614
241	0xbe694f22	-0.22784093
242	0xbfcf9521	-1.6217386
243	0x40289008	2.633791
244	0x3d287900	0.04113102
245	0xbfaa7fa0	-1.3320198
246	0x3f45c0b8	0.7724719
247	0x3f62a553	0.88533515
248	0xbd95e33f	-0.073187344
249	0x3fb298e3	1.3952907
250	0xbe206a8e	-0.15665647
251	0x3e2dffc8	0.16992104
252	0xbf9cf9aa	-1.2263691
253	0xbf9dfc80	-1.2342682
254	0x3dc09b02	0.094045654
255	0xbeb63e63	-0.35594472

tbls_list.0.ff.first_proj.bias f4 [256]
0	0xbe1e4d03	-0.15459065
1	0xbe4b8280	-0.19874
2	0xbd9a7574	-0.07541934
3	0xbdb8d11b	-0.09024259
4	0xbe82f92f	-0.25580737
5	0xbe4c3a9c	-0.19944233
6	0xbe2a2cb0	-0.1661861
7	0xbda29927	-0.07939368
8	0xbe22a175	-0.15881903
9	0xbe4b56d8	-0.19857347
10	0xbdbe2cff	-0.09285926
11	0xbd57187d	-0.05251359
12	0xbdbb1c47	-0.09136253
13	0xbe5d684e	-0.2162182
14	0xbe07682b	-0.1322333
15	0xbe48e9ed	-0.19620486
16	0xbd05c297	-0.03265628
17	0xbe837db4	-0.2568184
18	0xbdf44a45	-0.11928228
19	0xbdcc9960	-0.099901915
20	0xbdc7e7f0	-0.097610354
21	0xbdd9fabf	-0.10643529
22	0xbe04e327	-0.12977277
23	0xbe131b7f	-0.14365958
24	0xbd2cc4d9	-0.042179916
25	0xbe543c46	-0.20726117
26	0xbe14c57a	-0.14528456
27	0xbdd95e33	-0.1061367
28	0xbe1f391c	-0.15549129
29	0xbdf8801a	-0.121338084
30	0xbdd2e308	-0.10297209
31	0xbdcb84c8	-0.099374354
32	0xbe6e4542	-0.23268607
33	0xbe7a1a9e	-0.24424216
34	0xbdbb8773	-0.09156694
35	0xbc5d6290	-0.013512269
36	0xbe3d5024	-0.18487602
37	0xbc554c45	-0.013018672
38	0xbdc4b586	-0.09604935
39	0xbdda5fdf	-0.10662817
40	0xbe23377a	-0.15939131
41	0xbe97d995	-0.2965819
42	0xbe3385bf	-0.17531489
43	0xbe799e9e	-0.24376914
44	0xbe93c0e6	-0.28858107
45	0xbe49a82b	-0.19693057
46	0xbe07aa95	-0.13248666
47	0xbe72d0a8	-0.23712409
48	0xbd2bf8b3	-0.041985225
49	0xbe1e7b58	-0.1547674
50	0xbdd2a57a	-0.102854684
51	0xbd7f6538	-0.06235239
52	0xbd8749a4	-0.06605843
53	0xbe0cec51	-0.13762023
54	0xbdb7c851	-0.08973754
55	0xbdfc3def	-0.123165004
56	0xbe19e2d6	-0.15027937
57	0xbcba37ac	-0.022731625
58	0xbe2e8036	-0.17041096
59	0xbdc2e598	-0.09516448
60	0xbe5f7c21	-0.21824695
61	0xbd95f9c2	-0.07323028
62	0xbe756a24	-0.2396627
63	0xbe89cc10	-0.269135
64	0xbd5aa721	-0.053382043
65	0xbe5c55a7	-0.21517049
66	0xbe350f5b	-0.17681639
67	0xbde69277	-0.11258405
68	0xbde1f198	-0.110324085
69	0xbe2fc446	-0.17164716
70	0xbe407229	-0.18793549
71	0xbe5f29d2	-0.21793297
72	0xbdb5d328	-0.088781655
73	0xbe450e62	-0.19243768
74	0xbd761d35	-0.060086448
75	0xbe51a1c6	-0.20471868
76	0xbdae80d9	-0.085206695
77	0xbd9b7ae2	-0.075917974
78	0xbe817e91	-0.25291875
79	0xbe88c8fe	-0.26715845
80	0xbe3cc50b	-0.18434541
81	0xbe4aac9e	-0.1979241
82	0xbe5ab470	-0.21357894
83	0xbe5c6ea5	-0.21526583
84	0xbe102bc3	-0.14079194
85	0xbdebcfd2	-0.11514248
86	0xbe7cd55a	-0.24690762
87	0xbe2eaa1f	-0.17057084
88	0xbd548fa8	-0.051894814
89	0xbdca3650	-0.098736405
90	0xbe191af0	-0.14951682
91	0xbe8899cd	-0.2667984
92	0xbc66c49e	-0.014084963
93	0xbe5e2f5d	-0.21697755
94	0xbe119035	-0.14215167
95	0xbdfca322	-0.123358026
96	0xbe660a74	-0.22464925
97	0xbb5602fe	-0.0032655592
98	0xbe386491	-0.18007113
99	0xbe25f30f	-0.16206001
100	0xbe444793	-0.19167928
101	0xbd9b71b1	-0.07590044
102	0xbe44a0a9	-0.19201912
103	0xbe6133b8	-0.21992385
104	0xbcec6759	-0.028857874
105	0xbd9810af	-0.07425057
106	0xbe64db8b	-0.22349374
107	0xbe095875	-0.1341265
108	0xbdb78b1f	-0.08962082
109	0xbe9327e6	-0.28741378
110	0xbd810a35	-0.06300775
111	0xbda847e8	-0.0821684
112	0xbe5a32c9	-0.21308435
113	0xbd840859	-0.06446905
114	0xbd84e30b	-0.064886175
115	0xbe12c91a	-0.14334527
116	0xbe16f01d	-0.14740033
117	0xbe767fc1	-0.24072172
118	0xbdf303ed	-0.11865983
119	0xbe544e83	-0.20733075
120	0xbe17b24b	-0.14814107
121	0xbe226a8a	-0.15860954
122	0xbe21012e	-0.15723106
123	0xbe0c6ed2	-0.1371415
124	0xbe6816e4	-0.22664982
125	0xbe44111d	-0.19147153
126	0xbe060e35	-0.13091357
127	0xbe0c65d2	-0.13710716
128	0xbe8adb21	-0.27120307
129	0xbe004736	-0.12527165
130	0xbddc062a	-0.10743363
131	0x3caf2d66	0.021383952
132	0xbcae8883	-0.021305328
133	0xbd9e2e2c	-0.0772365
134	0xbe23168b	-0.15926568
135	0xbe46318c	-0.19354838
136	0xbe5102ad	-0.20411177
137	0xbd64adca	-0.0558298
138	0xbe33ab97	-0.17545925
139	0xbd0c8291	-0.034304205
140	0xbd98bfe4	-0.07458475
141	0xbe4a6c42	-0.1976786
142	0xbe15c983	-0.14627652
143	0xbe85fba2	-0.26168543
144	0xbdf85081	-0.1212473
145	0xbe1fe5a1	-0.1561494
146	0xbe265f2d	-0.16247244
147	0xbe6bc80f	-0.23025535
148	0xbd73505a	-0.0594028
149	0xbe52838a	-0.2055799
150	0xbe611c2c	-0.21983403
151	0xbe80eb85	-0.25179687
152	0xbc17f305	-0.009274249
153	0x3bb22291	0.0054362495
154	0xbe082b61	-0.13297798
155	0xbe3a576e	-0.18197414
156	0xbc598653	-0.013276654
157	0xbe36de54	-0.17858249
158	0xbe45a182	-0.19299892
159	0xbe1a83b4	-0.15089303
160	0xbda68b11	-0.081319936
161	0xbcdb0712	-0.02673677
162	0xbe1df813	-0.15426664
163	0xbd80ded6	-0.062925026
164	0xbd9ce361	-0.076605566
165	0xbdeff216	-0.11716096
166	0xbe6a1b3d	-0.22861953
167	0xbe302ddf	-0.17204998
168	0xbe15669b	-0.14589922
169	0xbe8b8d26	-0.27256125
170	0xbe0ac0e7	-0.13550149
171	0xbe212882	-0.15738109
172	0xbdc7fe67	-0.0976532
173	0xbe07e7b4	-0.13271981
174	0xbe4d0cce	-0.20024416
175	0xbdac1098	-0.084016025
176	0xbdf2d2bd	-0.118566014
177	0xbe1b9c29	-0.15196289
178	0xbd9420b7	-0.07232802
179	0xbe130abd	-0.14359565
180	0xbe25cfe1	-0.16192581
181	0xbdb3446f	-0.08753287
182	0xbe9e4e60	-0.3091917
183	0xbe613802	-0.21994022
184	0x3c307f2b	0.010772507
185	0xbdc47dcd	-0.09594307
186	0xbe3768cd	-0.17911072
187	0xbe13e56c	-0.14442986
188	0xbdd469d6	-0.10371749
189	0xbd6ef71f	-0.05834114
190	0xbe57b2e5	-0.21064337
191	0xbeab2927	-0.33429834
192	0xbd1a6c22	-0.03770078
193	0xbe38ef39	-0.18060006
194	0xbddd04c2	-0.10791923
195	0xbe229aad	-0.15879317
196	0xbe4c4cc5	-0.1995116
197	0xbe34a191	-0.17639758
198	0xbd1ec19a	-0.03875885
199	0xbd5aeb69	-0.05344716
200	0xbe0bc77e	-0.13650319
201	0xbe081229	-0.13288178
202	0xbdff5459	-0.1246726
203	0xbea2ee25	-0.31822315
204	0xbe53c019	-0.20678748
205	0xbd8a2b8d	-0.06746588
206	0xbe50d08c	-0.20392054
207	0xbe5d4563	-0.216085
208	0xbe3f79e4	-0.18698841
209	0xbd49dbc4	-0.04928185
210	0xbe539868	-0.20663607
211	0xbe4b3d28	-0.19847548
212	0xbe2e32f1	-0.1701162
213	0xbda1f17b	-0.07907387
214	0xbe309da7	-0.1724764
215	0xbdb15d00	-0.086603165
216	0xbe08a72f	-0.13345025
217	0xbe1e5fcc	-0.15466231
218	0xbe1c1c58	-0.15245187
219	0xbd394cc2	-0.045239218
220	0xbb2fac6d	-0.0026805655
221	0xbe4935b8	-0.19649398
222	0xbdb9fbc4	-0.090812236
223	0xbe8064f7	-0.2507703
224	0xbe3e2e4b	-0.18572347
225	0xbdb33f26	-0.08752279
226	0xbe461ae4	-0.19346195
227	0xbe4bfa81	-0.19919778
228	0xbe0c9c66	-0.13731536
229	0xbe5fb79a	-0.21847382
230	0xbe4ae5e3	-0.19814257
231	0xbe23ec92	-0.16008213
232	0x3bd71849	0.0065641743
233	0xbc6be81b	-0.0143986
234	0xbde3e341	-0.111273296
235	0xbdacae3c	-0.0843167
236	0xbd78380d	-0.06060033
237	0xbe91543f	-0.28384587
238	0xbe8b31ee	-0.2718653
239	0xbe702663	-0.23452143
240	0xbe92cc9f	-0.28671739
241	0xbe0365b9	-0.12831773
242	0xbe3b06da	-0.18264332
243	0xbe12939a	-0.14314118
244	0xbd9563b8	-0.072944105
245	0xbe5cc21d	-0.21558423
246	0xbdef2532	-0.11677016
247	0xbe48e6e9	-0.19619335
248	0xbdfe510b	-0.124178015
249	0xbe289a9b	-0.16465227
250	0xbe215d82	-0.15758327
251	0x3c8d0d7a	0.01721834
252	0xbd8c2348	-0.06842667
253	0xbe3ef317	-0.18647419
254	0xbe40f11b	-0.18841974
255	0xbe9cc98b	-0.30622515

tbls_list.0.ff.first_proj.weight f4 [256, 64]
0	0xbd9e725a	-0.077366546
1	0xbe1f7d32	-0.15575102
2	0x3da57903	0.08079722
3	0xbc0b5db1	-0.0085062245
4	0xbda353d2	-0.07974972
5	0x3d0d4f38	0.034499377
6	0x3cc17b75	0.02361844
7	0xbe0ed6d9	-0.13949145
8	0xbd0d4125	-0.034485955
9	0x3cd06f41	0.025443675
10	0x3ba19aac	0.0049317684
11	0x3e4d3175	0.20038398
12	0xbd816d28	-0.06319648
13	0x3e0272ec	0.12739152
14	0x3e4414fc	0.1914863
15	0xbd5da668	-0.054113775
16	0xbd8cc094	-0.06872669
17	0x3b736c0d	0.003714326
18	0xbde2ad71	-0.110682376
19	0xbe0da634	-0.13832933
20	0x3e557828	0.20846617
21	0x3d80ac8a	0.06282909
22	0xbacc768a	-0.0015599292
23	0x3df34a46	0.11879401
24	0x3dc58a49	0.096455164
25	0xbd1ee12c	-0.03878896
26	0xbc874bfe	-0.016515728
27	0xbe4bbca4	-0.1989618
28	0xbda6e976	-0.08149998
29	0x3c3a2eff	0.011363744
30	0x3d7ea796	0.06217154
31	0xbc4f7e2a	-0.012664357
32	0x3cc7d41e	0.024393138
33	0x3dd7adb3	0.10531177
34	0x3dacc2b1	0.08435572
35	0xbcab3ae2	-0.020902101
36	0x3c28d0d6	0.010303697
37	0x3d7418ac	0.05959384
38	0x3b96709d	0.0045910613
39	0xbd8fdab1	-0.07024134
40	0x3d83f076	0.06442349
41	0xbdf690fd	-0.12039373
42	0xbce44f06	-0.027869713
43	0xbc57332d	-0.01313476
44	0xbdb2cce7	-0.08730488
45	0xbd6fafbe	-0.05851721
46	0xbd49dfdd	-0.04928576
47	0xbdd301fc	-0.10303113
48	0xbc3da5b0	-0.0115751475
49	0x3d782146	0.060578607
50	0x3d21f25d	0.039537776
51	0x3e018cf8	0.12651432
52	0x3d817284	0.0632067
53	0xbca340be	-0.019928332
54	0x3df74051	0.12072814
55	0xbe093783	-0.13400082
56	0x3daa77dd	0.08323643
57	0xbc1cc007	-0.009567267
58	0x3dc0fb21	0.09422899
59	0xbdfb4e0d	-0.122707464
60	0xbdf484de	-0.11939405
61	0xbd06f9e2	-0.03295315
62	0x3d7fc1c6	0.062440656
63	0x3d1368a5	0.03598847
64	0x3b6556cc	0.0034994362
65	0x3dbcec38	0.09224743
66	0x3df5d772	0.120039836
67	0xbe4f485c	-0.20242447
68	0x3dc05a25	0.09392194
69	0xbd806267	-0.06268769
70	0xbd691d9f	-0.056913015
71	0xbd8de9f8	-0.069293916
72	0xbd638366	-0.055545233
73	0xbd6f09b9	-0.05835888
74	0xbd03919a	-0.03212128
75	0x3d85509c	0.06509516
76	0x3c467b95	0.012114425
77	0x3d97247f	0.07380008
78	0x3bec1896	0.0072050793
79	0xbcb77a9f	-0.022397337
80	0xbdef35d2	-0.11680187
81	0x3e649bee	0.22325107
82	0x3e181a7d	0.14853854
83	0xbbd934fd	-0.006628631
84	0x3e02eed9	0.12786426
85	0x3ea61f3e	0.3244571
86	0x3de9e624	0.11420849
87	0xbe001ee9	-0.12511791
88	0x3d354521	0.04425538
89	0xbe5a839e	-0.2133927
90	0x3e03a46a	0.12855688
91	0xbd874ea2	-0.06606795
92	0xbdc2b442	-0.09507038
93	0x3d835ce2	0.064142
94	0x3c06020c	0.008179199
95	0x3c1d6cca	0.009608457
96	0xbcbf2f64	-0.023338027
97	0xbc57a2b3	-0.013161349
98	0xbdc11550	-0.09427893
99	0xbd3262e3	-0.043551337
100	0x3d3996e0	0.0453099
101	0xbb5caab1	-0.0033671076
102	0x3db0eed7	0.08639305
103	0x3cf02d9d	0.029318625
104	0x3d016d8e	0.03159862
105	0x3e09849d	0.13429494
106	0xbe570942	-0.20999625
107	0xbe859c46	-0.2609579
108	0xbd48cd5f	-0.049023982
109	0xbe21c123	-0.15796332
110	0x3c22141f	0.009892493
111	0x3dd3b0fb	0.10336491
112	0xbe2aa53d	-0.16664596
113	0x3d98e6b8	0.07465881
114	0x3e255465	0.16145475
115	0x3c7985f3	0.01522969
116	0x3d57597e	0.05257558
117	0x3d98475f	0.07435488
118	0x3e09d72d	0.1346099
119	0xbcfa2a5f	-0.030537782
120	0x3e2febff	0.17179869
121	0xbd0d5364	-0.034503356
122	0x3d0fcbaf	0.035106357
123	0x3d4f9165	0.05067577
124	0x3e225169	0.15851368
125	0x3b410094	0.0029449807
126	0xbe7b5890	-0.24545503
127	0xbd288036	-0.041137896
128	0xbcd1a2f0	-0.02559039
129	0xbdbcff8f	-0.092284314
130	0xbdb82298	-0.08990973
131	0xbdc94a09	-0.09828574
132	0x3e06080f	0.13089012
133	0x3d5b3549	0.053517614
134	0xbe19d303	-0.15021901
135	0xbda36974	-0.07979098
136	0x3d858049	0.06518609
137	0x3d440107	0.047852542
138	0xbdcd8737	-0.10035556
139	0x3e197515	0.1498607
140	0x3d9a1055	0.07522646
141	0x3dabbdbd	0.08385799
142	0x3cc634a3	0.024195021
143	0x3e09fd18	0.13475454
144	0xbd651d5f	-0.055936214
145	0x3d919ef6	0.071103975
146	0xbe25f962	-0.16208413
147	0xbdfac680	-0.12244892
148	0x3d92d3ce	0.07169305
149	0x3d12a58b	0.035802405
150	0x3d869dea	0.065730885
151	0x3e123324	0.14277321
152	0xbdb79e4d	-0.0896574
153	0x3dab5662	0.083660856
154	0x3dbc9d39	0.09209675
155	0xbd79b77f	-0.06096601
156	0xbcc77382	-0.02434707
157	0x3e45ba20	0.19309282
158	0xbd290d1b	-0.041272264
159	0x3e04490e	0.12918493
160	0xbdae6b63	-0.08516576
161	0x3c062612	0.008187788
162	0xbd5eee61	-0.054426555
163	0x3d2ecfb0	0.042678535
164	0xbd5808c2	-0.052742727
165	0x3dbf3c5f	0.09337687
166	0xbc9143d9	-0.017732548
167	0xbe6b8fa6	-0.23004016
168	0x3dbb07db	0.09132358
169	0x3de7bb3f	0.11315011
170	0xbbca7c41	-0.006179363
171	0x3d65e5a4	0.056127205
172	0xbd41b42a	-0.04729096
173	0x3dae9dce	0.085261926
174	0xbd3f5554	-0.046712235
175	0x3dc708a0	0.09718442
176	0xbc89000a	-0.016723651
177	0xbd481ba0	-0.04885447
178	0xbd0e2ff3	-0.034713697
179	0x3d77c38a	0.060489215
180	0xbcfefe07	-0.031126989
181	0x3e181576	0.14851937
182	0xbdb1db77	-0.08684438
183	0xbca6e70f	-0.02037385
184	0x3ddfe341	0.10932017
185	0xbc9c6e1d	-0.019095475
186	0x3e39f5ac	0.18160123
187	0xbd834ec4	-0.06411508
188	0xbcb8d97c	-0.022564642
189	0x3db1f0fc	0.08688542
190	0x3e10d9aa	0.14145532
191	0xbd160a00	-0.03663063
192	0x3e6d639c	0.23182529
193	0xbc349c3b	-0.011023576
194	0xbdf8320b	-0.1211892
195	0xbda64343	-0.08118298
196	0x3e0f47ef	0.13992284
197	0xbd249f5f	-0.04019105
198	0xbd6d6a28	-0.057962567
199	0x3de329bd	0.11091945
200	0xbdd545f7	-0.10413735
201	0x3da724f1	0.08161343
202	0xbdcf7edc	-0.101316184
203	0x3dc323a5	0.09528283
204	0xbe2e867f	-0.17043494
205	0xbe0e88db	-0.13919394
206	0x3d252693	0.04031999
207	0xbdfeb856	-0.12437503
208	0xbd89a0d6	-0.0672013
209	0x3d55b94e	0.052178673
210	0xbdd5903f	-0.104279034
211	0xbdf4fba5	-0.1196206
212	0xbdfb5f6f	-0.12274062
213	0xbb94f6d6	-0.0045460267
214	0xbbf25360	-0.007395193
215	0x3e038401	0.12843324
216	0xbbc4d3d2	-0.0060066963
217	0x3e212749	0.15737642
218	0x3d40c0c0	0.04705882
219	0xbe54b8a2	-0.20773557
220	0x3a4338c0	0.0007447116
221	0xbd898efa	-0.06716724
222	0x3d09677d	0.03354596
223	0x3ca7ac42	0.020467881
224	0x3a5fc992	0.0008536811
225	0xbd2c9ec8	-0.042143613
226	0x3e8d769f	0.27629563
227	0xbd69d44a	-0.05708722
228	0x3ce4634f	0.027879385
229	0x3e124693	0.14284734
230	0x3a9dd90f	0.0012042838
231	0xbd88b5c3	-0.06675293
232	0x3c77e5ae	0.0151304435
233	0x3df89d7d	0.121394135
234	0x3d5b3c08	0.053524047
235	0x3d982463	0.07428815
236	0x3cb49f6f	0.02204868
237	0xbda1e38f	-0.079047315
238	0xbd242308	-0.04007247
239	0xbbef2968	-0.007298637
240	0x3dfdbaca	0.12389143
241	0xbd396a4d	-0.045267392
242	0x3ce4d19d	0.027931983
243	0xbd5814e9	-0.052754316
244	0x3d49706b	0.049179476
245	0x3ab3a8b5	0.0013706895
246	0x3d7c022b	0.061525505
247	0x3d6f9cfa	0.058499314
248	0xbd3181ac	-0.043336555
249	0x3d9d2606	0.07673268
250	0x3e0de051	0.13855101
251	0xbb3e5910	-0.0029044785
252	0x3e38928a	0.1802465
253	0x3dbcfe13	0.09228148
254	0xbdad8e9a	-0.08474465
255	0xbe5f25e3	-0.21791796

tbls_list.0.ff.layernorm.bias f4 [64]
0	0xbc31e33a	-0.010857398
1	0x3cb3d062	0.02194995
2	0x3d523187	0.051316764
3	0xbcb2815f	-0.021790205
4	0xbd8c36fb	-0.06846424
5	0xbcd5ca94	-0.026097573
6	0xbd1d1523	-0.038350236
7	0x3c142e08	0.009044178
8	0x3cceb931	0.02523479
9	0xbc32e581	-0.010918976
10	0xbcf231e6	-0.029564809
11	0x3cfe0be6	0.031011533
12	0xbd535e45	-0.051603574
13	0xbc57195b	-0.013128604
14	0xbb33cce3	-0.0027435354
15	0x3c91c1e5	0.017792651
16	0xbd429673	-0.04750676
17	0x3d687760	0.05675447
18	0x3c29565e	0.010335533
19	0xbd45ea80	-0.04831934
20	0x3d83219f	0.06402897
21	0x3ce2ed82	0.027701143
22	0x3ccd9208	0.025094047
23	0x3c5e8f94	0.013584036
24	0xbc97d51b	-0.018534234
25	0xbbca0048	-0.0061645843
26	0x3c31a4ca	0.010842511
27	0xbcdfbef5	-0.027312735
28	0x3d318aed	0.04334538
29	0x3d05c52c	0.03265874
30	0xbd14cff5	-0.036331136
31	0x3c84db6e	0.016217913
32	0x3b26b90e	0.002543989
33	0x3d213b54	0.03936322
34	0x3d8b53a1	0.0680306
35	0xbd2eb9b5	-0.042657573
36	0x3d2dd816	0.042442404
37	0xbce3cead	-0.027808512
38	0xbd40006c	-0.046875402
39	0x3b0506e9	0.0020298308
40	0xbc64b5b3	-0.013959336
41	0x3c6bfec4	0.014404003
42	0xbcb33cd0	-0.021879584
43	0xbc765957	-0.015035949
44	0x3d018741	0.03162313
45	0x3cfd060c	0.030886672
46	0xbc55519a	-0.013019944
47	0x3c8502a9	0.01623662
48	0xbc45483c	-0.012041148
49	0x3cc8c4aa	0.02450784
50	0xbaf86a84	-0.0018952643
51	0x3cb1d1f9	0.021706568
52	0x3c83557c	0.016031973
53	0xbc524bb7	-0.012835435
54	0x3d20552a	0.03914372
55	0xbc9361cc	-0.01799097
56	0xba0ede56	-0.0005450001
57	0xbd0d2fc1	-0.03446937
58	0x3d0831d6	0.033250652
59	0xbcef1c86	-0.029188406
60	0x3cb90bbd	0.022588605
61	0xbce2667f	-0.027636765
62	0xbd4460ce	-0.047943883
63	0x3c117739	0.008878523

tbls_list.0.ff.layernorm.weight f4 [64]
0	0x3f7541b4	0.9580338
1	0x3f7c4676	0.98545015
2	0x3f7c35db	0.98519677
3	0x3f830ce6	1.0238311
4	0x3f73b095	0.9519132
5	0x3f81ff93	1.015612
6	0x3f848e37	1.03559
7	0x3f7a87cc	0.9786346
8	0x3f7d794c	0.9901321
9	0x3f8b2dd8	1.0873365
10	0x3f7bf192	0.9841548
11	0x3f7d2924	0.988909
12	0x3f80051d	1.000156
13	0x3f80c03c	1.0058665
14	0x3f7d06b2	0.9883834
15	0x3f7ebbdd	0.99505407
16	0x3f71156a	0.941733
17	0x3f780c6a	0.9689394
18	0x3f8cbee4	1.0995755
19	0x3f740f37	0.95335716
20	0x3f7ef50e	0.99592674
21	0x3f8088b0	1.0041714
22	0x3f7b4471	0.9815131
23	0x3f7d1977	0.9886698
24	0x3f80cb11	1.0061971
25	0x3f8a9b6c	1.0828681
26	0x3f804ae1	1.0022851
27	0x3f7b2b2e	0.9811276
28	0x3f7c6966	0.98598325
29	0x3f84f244	1.0386434
30	0x3f7bc80a	0.9835211
31	0x3f78f859	0.9725395
32	0x3f8746e5	1.056851
33	0x3f865c8a	1.0496991
34	0x3f6d0c4b	0.9259688
35	0x3f838f72	1.0278151
36	0x3f820b85	1.0159765
37	0x3f83e027	1.0302781
38	0x3f824c77	1.0179585
39	0x3f73339c	0.95000625
40	0x3f7a7d68	0.97847605
41	0x3f856b40	1.0423355
42	0x3f71a79e	0.9439639
43	0x3f85f2fa	1.0464776
44	0x3f81e626	1.0148361
45	0x3f815afa	1.0105889
46	0x3f8495c3	1.0358204
47	0x3f7a98ab	0.978892
48	0x3f81705f	1.0112418
49	0x3f8146fa	1.0099785
50	0x3f7c31c6	0.9851345
51	0x3f707437	0.9392733
52	0x3f7fbd8e	0.9989861
53	0x3f7fa989	0.99868065
54	0x3f7e27fd	0.9927977
55	0x3f7bd442	0.98370755
56	0x3f7b2631	0.9810515
57	0x3f7b72a4	0.982218
58	0x3f7f195c	0.9964807
59	0x3f84ab0a	1.0364697
60	0x3f888ca5	1.0667921
61	0x3f85dd36	1.0458133
62	0x3f86612d	1.0498406
63	0x3f766a00	0.96255493

tbls_list.0.ff.second_proj.bias f4 [64]
0	0x3c9b1843	0.018932467
1	0x3c550695	0.013002058
2	0x3cf9852e	0.030459013
3	0xbd8f08d8	-0.06984109
4	0xbd4cd002	-0.05000306
5	0xbddb28a2	-0.107011095
6	0xbc5a93dc	-0.0133409165
7	0xbcd3c34e	-0.025849964
8	0x3d315cd7	0.04330143
9	0xbd70e989	-0.058816466
10	0x3db4ab82	0.08821775
11	0x3c34b8ba	0.01103037
12	0xbd6bf8ec	-0.057610437
13	0xbd4e13ba	-0.05031178
14	0x3d186e39	0.03721449
15	0xbc801b0c	-0.015637897
16	0xbd6592b4	-0.05604811
17	0x3d299646	0.041403078
18	0xbd69bb9f	-0.057063695
19	0xbd1bf510	-0.038075507
20	0x3da57d71	0.08080567
21	0x3d954fb6	0.07290594
22	0xbd21f54f	-0.039540585
23	0x3cdab9d9	0.026699947
24	0x3d67754e	0.056508355
25	0x3cd93b12	0.026517425
26	0x3d2dc073	0.042419862
27	0xbd733861	-0.05937994
28	0x3d20f79e	0.039298646
29	0x3d096193	0.03354032
30	0xbd9e9465	-0.07743148
31	0xbb6d5eb8	-0.0036219787
32	0xbd296b62	-0.041362174
33	0x3db41b08	0.08794218
34	0xbc0b4a07	-0.008501536
35	0xbd90533e	-0.07047127
36	0xbcca8055	-0.024719397
37	0x3c2566f0	0.010095343
38	0xbdac500d	-0.08413706
39	0xbdabdbf7	-0.08391564
40	0x3d914f05	0.0709515
41	0x3cddde1a	0.027083445
42	0x3ca0ed52	0.019644413
43	0xbd49ab0f	-0.0492354
44	0x3dae727c	0.0851793
45	0x3b5ce41e	0.0033705304
46	0x3c296edb	0.010341371
47	0xbc616c66	-0.013758754
48	0xbbccf17d	-0.0062543736
49	0x3cbd01f1	0.023072215
50	0x3c1693ef	0.009190544
51	0xbd1a72db	-0.03770719
52	0xbd8ac96e	-0.06776701
53	0x3ca45689	0.020060794
54	0x3c81bc6f	0.015836922
55	0x3b98ef23	0.004667179
56	0x3dc5daeb	0.09660896
57	0x3d0bdd76	0.03414675
58	0x3c99d4bf	0.018778203
59	0x3c965bea	0.018354375
60	0x3bd08a90	0.006364174
61	0xbcf048ce	-0.029331591
62	0x3b8b812b	0.0042573414
63	0x3da01f7e	0.07818507

tbls_list.0.ff.second_proj.weight f4 [64, 256]
0	0xbda45558	-0.080240905
1	0x3dd1b4d7	0.102395706
2	0x3aae92fb	0.001331895
3	0x3c981823	0.018566197
4	0x3c92f8f1	0.01794097
5	0xbdae2b71	-0.085043795
6	0x3d326f66	0.04356327
7	0xbdb7049d	-0.08936427
8	0xbe162a80	-0.1466465
9	0x3d56092c	0.05225484
10	0xbdea5422	-0.11441828
11	0xbd27b775	-0.040946443
12	0xbcca4081	-0.024688961
13	0x3c94bb45	0.018155703
14	0x3d975d1c	0.07390806
15	0xbd075d67	-0.03304806
16	0xbe13bfd8	-0.14428651
17	0xbc596902	-0.013269665
18	0xbd4b0892	-0.04956872
19	0x3c8d8268	0.017274097
20	0xbde5700c	-0.11203012
21	0x3dcfa26e	0.10138403
22	0x3d73ef26	0.05955424
23	0x3bf8113b	0.0075704134
24	0x3d64d689	0.05586866
25	0xbd8bf430	-0.068336844
26	0xbb81cd36	-0.0039612306
27	0xbd8e6eda	-0.06954737
28	0x3acf3e8f	0.0015811491
29	0x3d5abceb	0.053402822
30	0xbd9d1fca	-0.07672079
31	0xbcd2a44a	-0.025713105
32	0x3d04beb6	0.03240844
33	0x3e05e912	0.1307719
34	0xbd89baef	-0.06725108
35	0xbdf8a015	-0.12139908
36	0x3dd62dc3	0.10457947
37	0x3d73d3d5	0.05952819
38	0xbd94a645	-0.07258276
39	0xbcd8d35c	-0.026467972
40	0x3d7a60cd	0.061127473
41	0x3d188a0a	0.03724102
42	0xbd0adc1b	-0.033901315
43	0x3dfad4a3	0.122475885
44	0xbe035004	-0.12823492
45	0x3d21afcb	0.03947429
46	0x3d5028aa	0.05082003
47	0x3d659615	0.056051333
48	0x3d932c5d	0.07186196
49	0xbd56b580	-0.052419186
50	0x3d7dcaaf	0.061960872
51	0xbd7d2d06	-0.061810516
52	0x3dcb8de7	0.09939175
53	0x3cd6b42d	0.026208961
54	0xbafb3606	-0.001916588
55	0x3de19a41	0.1101575
56	0x3ca2271c	0.01979404
57	0xbd69362d	-0.05693643
58	0x3d91d69c	0.071210116
59	0x3db308c0	0.08741903
60	0x3d92f584	0.07175735
61	0x3d623e28	0.055235058
62	0xbcf466b1	-0.029834123
63	0x3e09d285	0.13459213
64	0x3ca97cca	0.020689387
65	0x3d89f6b6	0.067365095
66	0x3b88fdcd	0.004180646
67	0x3dd7aca0	0.105309725
68	0xbbd0420e	-0.0063555306
69	0x3d1bec20	0.038066983
70	0xbdf749ac	-0.12074599
71	0xbdbafaa5	-0.09129838
72	0xbd4c3c6a	-0.049862303
73	0xbd347a04	-0.044061676
74	0x3da97427	0.082741074
75	0x3d07c758	0.033149093
76	0xbd767ad1	-0.06017572
77	0x3e1a8c51	0.15092589
78	0x3bad3f3e	0.00528708
79	0x3d780898	0.06055507
80	0x3d83e027	0.06439238
81	0xbc4d4647	-0.012528962
82	0x3d4ce991	0.050027434
83	0xbdad7d2d	-0.08471141
84	0x3c16684a	0.009180138
85	0xbdab135e	-0.083533034
86	0xbcaa296a	-0.0207717
87	0xbdf04cd8	-0.11733407
88	0xbcd6c5ac	-0.026217304
89	0xbdcd9942	-0.10038997
90	0x3dfad996	0.122485325
91	0x3dabc422	0.08387019
92	0x3b2cae40	0.0026348978
93	0xbda05fdf	-0.07830786
94	0x3ca63462	0.02028865
95	0x3d1e306b	0.038620394
96	0xbd18836a	-0.0372347
97	0x3c5f34d6	0.013623437
98	0xbe5dea47	-0.21671401
99	0xbc9bcfbf	-0.01901996
100	0x3d4b787e	0.049675457
101	0xbd79bf94	-0.06097372
102	0xbd9a8eb7	-0.07546752
103	0x3d0882e9	0.03332797
104	0xbd1316ae	-0.0359103
105	0xbc0c088c	-0.00854696
106	0xbde8cdfb	-0.11367413
107	0xbdda8208	-0.10669333
108	0xbd26ad73	-0.040692758
109	0x3d4fab07	0.050700214
110	0x3bfa5101	0.007639051
111	0xbe113050	-0.14178586
112	0x3d965cf4	0.07341948
113	0xbd41b856	-0.047294937
114	0x3dff2f63	0.1246021
115	0xbd116f9c	-0.03550683
116	0xbd667c32	-0.056270786
117	0x3d0195cf	0.03163701
118	0x3cb8fb47	0.022580756
119	0xbc7f7a20	-0.015593082
120	0xbdede73d	-0.11616371
121	0xbde684cb	-0.11255797
122	0xbdc626d6	-0.09675376
123	0xbc9ec6dc	-0.019381933
124	0xbdf84535	-0.12122575
125	0xbd979a18	-0.07402438
126	0xbc5280e2	-0.012848111
127	0x3da72394	0.08161083
128	0x3d037011	0.032089297
129	0x3d945a8e	0.072438344
130	0xbde61a36	-0.11235468
131	0xbd44d1e6	-0.048051737
132	0xbc9be72b	-0.019031128
133	0x3c31dd0b	0.010855923
134	0xbd731bc4	-0.05935265
135	0x3d449607	0.04799464
136	0x3d312c86	0.04325535
137	0x3e2ea025	0.17053278
138	0xbced0ede	-0.028937753
139	0x3dbf0974	0.09327975
140	0xbcabe751	-0.020984324
141	0xbd640ecb	-0.05567817
142	0xbdce8e37	-0.10085719
143	0xbda8ed4b	-0.08248385
144	0xbce0c1bb	-0.027436128
145	0x3d5cb502	0.05388356
146	0x3dd05ab8	0.10173553
147	0x3d6ebf59	0.058287952
148	0x3d6133d8	0.054981083
149	0x3d577fb5	0.052612025
150	0x3bb3ad31	0.0054832925
151	0x3d2152f0	0.039385736
152	0xbd4f66c1	-0.050635103
153	0xbd528162	-0.05139292
154	0xbdc8a50d	-0.09797106
155	0xbd5cf3f8	-0.053943604
156	0xbd4f9ba9	-0.05068556
157	0xbd3d285c	-0.046181068
158	0xbca7a30c	-0.020463489
159	0xbc77531e	-0.0150955
160	0xbdb53711	-0.08848394
161	0x3cb4a5a7	0.022051645
162	0xbd1855d3	-0.037191223
163	0x3b8856db	0.0041607446
164	0x3dabbe20	0.08385873
165	0x3bbd39ae	0.005774698
166	0x3c8e2e89	0.017356174
167	0xbe10dc3d	-0.14146514
168	0xbdfdf95a	-0.12401076
169	0x3db94c98	0.09047812
170	0xbc132a58	-0.0089822635
171	0xbd295720	-0.041342854
172	0xbcb20d6d	-0.021734918
173	0xbd95c2fa	-0.073125795
174	0xbde5758a	-0.112040594
175	0xbd67c10e	-0.056580596
176	0x3dae216b	0.08502468
177	0x3ce65d52	0.02812067
178	0x3d298245	0.041384
179	0x3aa91271	0.0012899173
180	0xbdb6dfd7	-0.08929413
181	0xbe410134	-0.18848115
182	0xbca03ba1	-0.019559683
183	0x3cea0fdf	0.028572021
184	0xbd2d9574	-0.042378858
185	0xbb150245	-0.0022736948
186	0x3df10459	0.117684074
187	0xbda86604	-0.08222583
188	0x3ba773c0	0.005110234
189	0x3dd9a5cd	0.10627327
190	0xbe41859a	-0.18898621
191	0x3d7555a1	0.059896115
192	0xbd31a21f	-0.0433675
193	0x3cfa9333	0.030587768
194	0xbd2a9647	-0.041647222
195	0x3cf7f9de	0.030270513
196	0x3c163a33	0.009169149
197	0xbcdf8cb9	-0.027288781
198	0x3da7643a	0.081734136
199	0x3d806fc3	0.06271317
200	0xbd937252	-0.07199539
201	0x3e14d2b3	0.145335
202	0xbc218d3a	-0.009860331
203	0xbe33b320	-0.175488
204	0xbdddb4a8	-0.10825473
205	0xbd47695e	-0.04868447
206	0xbdc64fd8	-0.09683198
207	0x3d8e5890	0.06950486
208	0xbcc678e9	-0.024227576
209	0xbd85590f	-0.06511127
210	0xbdc70548	-0.09717804
211	0xbdd69844	-0.10478261
212	0x3c0cc977	0.008592955
213	0xbdb691e8	-0.08914548
214	0x3db866b7	0.09003966
215	0xbdecac7a	-0.11556335
216	0x3d51b531	0.05119819
217	0xbe0aaf60	-0.13543463
218	0x3b937369	0.004499842
219	0x3d86527a	0.065587
220	0x3b8e7f52	0.004348674
221	0x3bdcef3d	0.0067423866
222	0xbdb18d70	-0.08669555
223	0x3cb029bb	0.021504274
224	0x3de63614	0.11240783
225	0x3da8bcad	0.08239112
226	0xbbb794c5	-0.0056024515
227	0xbcf7c2d1	-0.030244263
228	0x3d61fa68	0.055170447
229	0xbddc179d	-0.107466914
230	0x3dd45dbc	0.10369441
231	0x3c907550	0.017634064
232	0xbd7ed80a	-0.06221775
233	0x3da38a36	0.07985346
234	0x3d3c173d	0.0459206
235	0xbd8e1b64	-0.06938818
236	0xbcb22433	-0.021745777
237	0x3d5a8a23	0.053354394
238	0x3c40085f	0.011720746
239	0x3d891527	0.066934876
240	0xbbc62370	-0.006046705
241	0xbc1e45f2	-0.009660231
242	0xbd37f36d	-0.044909883
243	0xbd874c4e	-0.06606351
244	0x3d295c70	0.04134792
245	0x3ceada79	0.028668629
246	0x3d3d52a4	0.04622139
247	0xbb945223	-0.004526393
248	0xbc2b896a	-0.010469774
249	0xbd84e409	-0.06488807
250	0x3c0ad784	0.0084742345
251	0xbdf3a338	-0.11896366
252	0x3c9f866f	0.019473283
253	0x3e1f78e3	0.15573458
254	0xbd09e529	-0.03366581
255	0xbd0011f2	-0.031267114

tbls_list.0.mha.kproject.weight f4 [64, 64]
0	0x3be422a2	0.0069621364
1	0xbe1e9e4a	-0.1549007
2	0xbb0b1c2d	-0.002122651
3	0x3dc0f454	0.09421602
4	0x3dcea74b	0.10090502
5	0xbe00f78e	-0.12594435
6	0xbe5bac71	-0.214525
7	0xbe10e499	-0.14149703
8	0x3e37f86d	0.1796586
9	0xbcec0f43	-0.028815871
10	0xbe129bb9	-0.14317216
11	0xbce410b5	-0.027839998
12	0x3d065f9f	0.032806035
13	0xbe873033	-0.2640396
14	0x3e979181	0.29603198
15	0x3b3f75cf	0.0029214507
16	0x3e23fbb0	0.1601398
17	0x3d142d37	0.036175933
18	0xbe37b999	-0.17941894
19	0xbcc644a3	-0.02420265
20	0xbe9410ca	-0.2891906
21	0x3c14d45f	0.009083836
22	0xbe428ff8	-0.19000232
23	0x3dd88224	0.10571697
24	0xbbaed123	-0.0053349896
25	0xbe030f7e	-0.12798879
26	0x3dde53ce	0.10855828
27	0xbe45cc73	-0.19316272
28	0x3e3b065e	0.18264148
29	0xbd16bf54	-0.03680356
30	0xbe076af3	-0.13224392
31	0x3bc3a126	0.005970138
32	0xbcfaddca	-0.030623335
33	0xbce4d944	-0.027935632
34	0xbe76aa13	-0.24088316
35	0x3d9b409a	0.07580681
36	0x3dc18f14	0.09451118
37	0x3e543674	0.20723897
38	0xbe58a9ea	-0.21158567
39	0xbcbf842d	-0.023378456
40	0xbe2a32f1	-0.16620995
41	0x3dc11b39	0.094290204
42	0x3c734480	0.014847875
43	0xbe9ea3cb	-0.3098434
44	0x3d0eb729	0.034842644
45	0x3d789c8a	0.060696162
46	0xbdcaae1b	-0.09896489
47	0xbda31f34	-0.07964936
48	0xbcdcb615	-0.026942292
49	0x3d93fa3c	0.07225463
50	0xbe375d02	-0.17906573
51	0x3d641d79	0.05569217
52	0x3db240d2	0.0870377
53	0x3e3ee7c9	0.18643107
54	0xbbc1c77c	-0.005913673
55	0xbe217966	-0.15768966
56	0x3e66031c	0.22462124
57	0xbe3a8220	-0.18213701
58	0x3d28076a	0.041022696
59	0xbe4ac465	-0.19801481
60	0xbd83500e	-0.064117536
61	0x3e92ff5d	0.28710452
62	0x3e191b8a	0.14951912
63	0x3d403a7c	0.046930775
64	0x3e271f4c	0.16320533
65	0x3e0d7f96	0.13818201
66	0x3d154a1f	0.03644764
67	0xbdb605a4	-0.088877946
68	0xbddaeef3	-0.10690107
69	0x3e14205f	0.14465474
70	0xbd5147c6	-0.05109384
71	0x3db41e7f	0.08794879
72	0xbe017833	-0.12643509
73	0x3e2d8bf5	0.1694792
74	0xbce37baf	-0.027768938
75	0x3d84a94f	0.064776056
76	0xbc9baa27	-0.019002033
77	0x3d3fd2dc	0.04683195
78	0x3cc9dd3a	0.024641622
79	0xbd295adc	-0.041346416
80	0xbdfa9f72	-0.12237443
81	0xbdecdf11	-0.11565984
82	0x3d777949	0.0604184
83	0x3d470263	0.04858626
84	0x3c99ad67	0.018759442
85	0x3e0a4a09	0.13504805
86	0x3e24efb4	0.16107064
87	0x3d5284dc	0.051396236
88	0x3d6c4ef9	0.0576925
89	0x3d9d6947	0.07686096
90	0x3e0e9dc0	0.13927364
91	0xbe8d62bd	-0.27614394
92	0xbd8e02d2	-0.06934132
93	0x3e666662	0.22499993
94	0x3e5d1df0	0.21593451
95	0xbdb82207	-0.08990865
96	0x3da7a20a	0.081852034
97	0xbe48a646	-0.19594678
98	0xbdd5ce09	-0.10439689
99	0xbcb1851b	-0.021669915
100	0x3cb3caa2	0.021947209
101	0xbe04061b	-0.12892954
102	0x3d569e02	0.05239678
103	0xbd252da9	-0.040326748
104	0x3cc39ccd	0.02387848
105	0x3daba105	0.083803214
106	0x3dd6082e	0.10450779
107	0x3e4ce62c	0.20009679
108	0x3c9dc776	0.01926015
109	0x3e78bd40	0.24290943
110	0xbe09a516	-0.13441882
111	0xbdc73413	-0.09726729
112	0x3ddadc52	0.10686554
113	0x3cd6e722	0.02623326
114	0x3e8a96e2	0.2706824
115	0xbe70b054	-0.23504764
116	0xbe0fc86e	-0.14041302
117	0x3caded44	0.021231301
118	0x3d915293	0.07095828
119	0xbd89752a	-0.067118004
120	0x3e209533	0.15681915
121	0xbd047b42	-0.03234411
122	0xbe313e19	-0.17308845
123	0x3ea0bff1	0.3139644
124	0xbe08fa75	-0.13376792
125	0xbd9483aa	-0.072516754
126	0xbbee4a3a	-0.007272032
127	0x3db0eb9b	0.08638688
128	0x3d94c2e9	0.07263739
129	0x3bd53271	0.006506257
130	0xbd5a7e78	-0.053343266
131	0xbe062760	-0.13100958
132	0x3e4905bb	0.19631092
133	0x3c4b94f3	0.012425649
134	0x3dc71c0f	0.097221486
135	0x3e6040e5	0.21899755
136	0x3e401161	0.1875663
137	0x3d508d9a	0.05091629
138	0x3d0a8830	0.033821285
139	0x3d1a77dc	0.037711963
140	0x3cb6b1b7	0.022301538
141	0x3e0be0a0	0.13659906
142	0xbd2d9f4c	-0.042388245
143	0x3d973428	0.07382995
144	0xbe3e597a	-0.1858882
145	0xbe11b9a2	-0.1423097
146	0xbda86342	-0.08222057
147	0xbdb5d4d9	-0.08878488
148	0x3d53f6c8	0.05174902
149	0xbd43b569	-0.047780428
150	0xbd206375	-0.03915735
151	0x3e0404f0	0.12892509
152	0x3a1e634e	0.0006042019
153	0xbdf57e24	-0.1198695
154	0x3d43fc88	0.047848254
155	0xbe205f88	-0.15661442
156	0x3dd6b614	0.104839474
157	0xbdb3a2b1	-0.08771265
158	0x3e725b35	0.23667605
159	0xbc5681c6	-0.013092464
160	0xbe17fd69	-0.14842762
161	0x3d1df1fd	0.038560856
162	0xbe8ceb60	-0.27523327
163	0xbcbf8199	-0.023377227
164	0x3c016c82	0.007899405
165	0x3e18fcf8	0.1494025
166	0xbe2e9c01	-0.17051698
167	0x3da5b527	0.08091193
168	0xbe16d1c8	-0.14728463
169	0x3d89f19a	0.06735535
170	0x3ca45877	0.020061715
171	0xbd845cde	-0.064630255
172	0xbdd4d2b3	-0.1039175
173	0x3e090c70	0.13383651
174	0xbd8a5bed	-0.06755815
175	0xbd12ff39	-0.03588793
176	0x3d04ad32	0.032391734
177	0x3c4a23d0	0.01233764
178	0xbc7977a5	-0.015226279
179	0xbdc46479	-0.09589476
180	0xbe0333bc	-0.12812704
181	0x3dc37bca	0.09545095
182	0xbdff50d1	-0.124665864
183	0x3d3ccbb9	0.046092723
184	0x3e372a56	0.17887244
185	0xbe735a70	-0.23764968
186	0xbd9ad15c	-0.075594634
187	0x3d5918f2	0.053002305
188	0xbd5e5290	-0.054277956
189	0x3d3bdd8c	0.04586558
190	0x3cc11416	0.023569148
191	0x3dddad55	0.10824076
192	0xbe7c18e5	-0.24618872
193	0x3e1f78c8	0.15573418
194	0xbe07aad2	-0.13248757
195	0x3c2ec843	0.010667863
196	0xbd93dc33	-0.07219734
197	0xbdb48875	-0.088150896
198	0x3d9d2d85	0.07674698
199	0xbdc7b8e7	-0.09752064
200	0xbdbb75e8	-0.09153348
201	0xbe27a950	-0.16373181
202	0xbddd2289	-0.10797603
203	0x3d4b71a9	0.04966894
204	0x3d8523e2	0.06500985
205	0x3c61ba72	0.013777362
206	0x3d34110a	0.043961562
207	0x3cc38bc3	0.023870355
208	0x3dc7aa4a	0.09749277
209	0xbd63df71	-0.055633012
210	0xbd0cb341	-0.034350637
211	0x3caa5539	0.02079259
212	0x3e6af5bc	0.22945303
213	0xbe4fa5b2	-0.20278051
214	0xbe35e43d	-0.17762847
215	0x3e73b5df	0.23799847
216	0x3dab9ecb	0.08379897
217	0x3d83e492	0.06440081
218	0x3d7308e1	0.05933464
219	0x3de3cdbc	0.11123225
220	0xbce0255b	-0.027361562
221	0x3e4a3eef	0.1975057
222	0xbe2036c5	-0.15645893
223	0x3e244766	0.16042861
224	0x3c0fe68a	0.008782992
225	0xbe2ac2fb	-0.16675942
226	0x3b2dac44	0.0026500383
227	0xbe551854	-0.20810062
228	0xbd92a389	-0.07160098
229	0xbe12c229	-0.14331879
230	0x3d21c16a	0.039491095
231	0xbdc53013	-0.0962831
232	0xbd28e790	-0.04123646
233	0x3c97a36f	0.018510548
234	0x3e71e8b0	0.2362392
235	0x3cdc52b3	0.026894903
236	0xbdb5e957	-0.08882397
237	0x3de34e62	0.11098935
238	0x3e0f6964	0.14005047
239	0x3da43c25	0.08019284
240	0xbdc573f7	-0.09641259
241	0x3dfc4616	0.12318055
242	0xbdf0c914	-0.117571026
243	0xbb95390c	-0.0045539197
244	0x3c849418	0.016183898
245	0xbd950f08	-0.072782576
246	0xbd8bc880	-0.06825352
247	0x3d8f40ec	0.06994805
248	0x3da62108	0.08111769
249	0x3daae7e3	0.0834501
250	0x3e0cc2f3	0.13746242
251	0xbdcddfe8	-0.10052472
252	0x3d32cff0	0.043655336
253	0xbe78b6e4	-0.24288517
254	0x3e5f929b	0.2183327
255	0x3db977c1	0.09056044

tbls_list.0.mha.layernorm.bias f4 [64]
0	0xbd655e98	-0.055998415
1	0xbe04b6dc	-0.1296038
2	0xbb5a99eb	-0.0033355902
3	0xbd9a644a	-0.0753866
4	0x3d23244b	0.039829534
5	0x3dbdccaa	0.09267552
6	0x3de6c2b7	0.11267608
7	0x3c7e0f74	0.015506614
8	0xbd73ca09	-0.059518848
9	0x3ada37ff	0.0016648768
10	0x3e18b2ee	0.14912006
11	0xbdf10b4a	-0.11769731
12	0x3e3291c4	0.17438418
13	0xbdfe86fa	-0.124280885
14	0x3cc474e6	0.023981523
15	0x3d4e86d4	0.05042155
16	0x3dbb3190	0.09140313
17	0xbdce53f4	-0.100746065
18	0x3ddb3efb	0.10705372
19	0x3d93288f	0.0718547
20	0xbdb2ae40	-0.08724642
21	0xbdfb8cb6	-0.12282698
22	0xbc8d9401	-0.017282488
23	0xbdd5d548	-0.10441071
24	0x3d3d7d84	0.04626228
25	0x3a908774	0.0011026696
26	0xbdab5f1c	-0.0836775
27	0x3c9558e1	0.018230857
28	0xbda6ca6b	-0.08144077
29	0x3c1dff0b	0.0096433265
30	0x3c088385	0.008332138
31	0xbe26c058	-0.16284311
32	0x3b32ea51	0.0027300308
33	0x3c8add4c	0.016951226
34	0xbd874eba	-0.06606813
35	0x3cbd6db0	0.023123592
36	0xbc3e40d1	-0.011612133
37	0xbd35065c	-0.044195518
38	0x3ce2fb97	0.027707858
39	0x3c915a70	0.01774332
40	0x3b5b4681	0.0033458772
41	0x3c4e4166	0.012588834
42	0x3dcfb907	0.10142713
43	0x3dad769a	0.08469887
44	0xbd27dcc0	-0.040982008
45	0x3d656d65	0.05601253
46	0x3cd7099e	0.026249703
47	0xbd56045a	-0.052250244
48	0x3da11686	0.07865624
49	0xbd0a51ea	-0.033769526
50	0xbe2bbcfa	-0.16771308
51	0xbe0b6232	-0.13611677
52	0x3caaf684	0.020869501
53	0xbdaf35a0	-0.0855515
54	0xbcd38a02	-0.025822643
55	0xbc81b869	-0.015835004
56	0xbd84916d	-0.0647305
57	0xbc70d854	-0.014700014
58	0xbe0846d3	-0.13308267
59	0x3d37f98b	0.044915717
60	0x3d2063d2	0.039157696
61	0x3d13a976	0.036050282
62	0x3d3d3baf	0.046199497
63	0x3d7cdf23	0.061736237

tbls_list.0.mha.layernorm.weight f4 [64]
0	0x3f74657c	0.9546735
1	0x3f7d20e5	0.9887832
2	0x3f8262cf	1.0186404
3	0x3f7ae57d	0.9800642
4	0x3f77d0fb	0.96803254
5	0x3f7e4801	0.9932862
6	0x3f81a4f7	1.0128468
7	0x3f811a12	1.0086081
8	0x3f829841	1.0202714
9	0x3f8082b9	1.0039893
10	0x3f7414c3	0.9534418
11	0x3f8a76cb	1.0817503
12	0x3f86dcaf	1.0536097
13	0x3f82b664	1.0211911
14	0x3f7ae25d	0.9800165
15	0x3f810013	1.0078148
16	0x3f831279	1.0240012
17	0x3f6af4b6	0.9177965
18	0x3f89136b	1.0709051
19	0x3f7150a3	0.94263667
20	0x3f7c8739	0.98643833
21	0x3f758dad	0.95919305
22	0x3f778600	0.9668884
23	0x3f633a4f	0.88760847
24	0x3f77f249	0.9685407
25	0x3f7bb405	0.98321563
26	0x3f7aeda3	0.98018855
27	0x3f83f031	1.0307676
28	0x3f7f1036	0.9963411
29	0x3f8068a6	1.0031936
30	0x3f7d1160	0.9885464
31	0x3f81646b	1.010877
32	0x3f81d1e3	1.0142177
33	0x3f89e963	1.0774349
34	0x3f818f51	1.0121862
35	0x3f7b32e2	0.98124516
36	0x3f813e97	1.0097226
37	0x3f7db3dc	0.9910257
38	0x3f71078b	0.94152135
39	0x3f812a76	1.0091083
40	0x3f7dda09	0.9916082
41	0x3f71a0cb	0.94385976
42	0x3f84ec36	1.0384586
43	0x3f88764d	1.0661103
44	0x3f75406b	0.9580142
45	0x3f837771	1.0270826
46	0x3f6e5bda	0.93108904
47	0x3f83c2ba	1.0293801
48	0x3f7b8e1f	0.98263735
49	0x3f7138bb	0.9422719
50	0x3f84f9a4	1.0388684
51	0x3f77cdab	0.967982
52	0x3f82745d	1.0191761
53	0x3f82d766	1.0221984
54	0x3f82e582	1.022629
55	0x3f806bf8	1.003295
56	0x3f85fbe9	1.0467502
57	0x3f7f88d4	0.9981816
58	0x3f8d4554	1.1036782
59	0x3f82f91c	1.0232272
60	0x3f8921b3	1.0713409
61	0x3f838e84	1.0277867
62	0x3f84e82d	1.0383354
63	0x3f6563d5	0.89605457

tbls_list.0.mha.out_project.weight f4 [64, 64]
0	0xbe299de2	-0.16564134
1	0x3de589d7	0.112079315
2	0xbe86ed1f	-0.26352784
3	0xbdb71368	-0.08939248
4	0xbd84675a	-0.06465025
5	0x3e419095	0.1890281
6	0x3e9a0425	0.30081287
7	0xbbb2c730	-0.005455874
8	0xbd98e8eb	-0.074663006
9	0xbd527073	-0.05137677
10	0xbd035f29	-0.032073174
11	0xbdac6b4b	-0.08418902
12	0x3c18a031	0.009315536
13	0xbdaf86bc	-0.085706204
14	0xbd0ca265	-0.03433456
15	0xbd7c38d0	-0.061577618
16	0xbdf844ca	-0.121224955
17	0xbe7e5a69	-0.24839176
18	0x3de47220	0.1115458
19	0xbd8ec369	-0.06970865
20	0x3bad97ea	0.0052976506
21	0xbd8881f7	-0.06665414
22	0x3d2099c2	0.039209135
23	0x3ca8f43c	0.020624273
24	0x3d64a488	0.05582097
25	0x3a39d672	0.0007089145
26	0x3d016f71	0.03160042
27	0xbc238489	-0.009980329
28	0x3eb42a89	0.35188702
29	0xbdf53c57	-0.119743995
30	0xbdd90193	-0.105960034
31	0x3dec2276	0.115300104
32	0xbde24a25	-0.11049298
33	0xbe1db927	-0.15402661
34	0x3d89e54f	0.0673319
35	0xbd1aec45	-0.03782298
36	0xbdfb728a	-0.12277706
37	0x3e2467a4	0.16055161
38	0x3d62c344	0.055362
39	0xbc0ef273	-0.008724797
40	0x3d6d63aa	0.057956375
41	0xbe3ffc98	-0.187487
42	0xbe88f766	-0.2675125
43	0xbe3b6caa	-0.18303171
44	0x3e046144	0.12927729
45	0xbce1cca6	-0.027563404
46	0x3dff9116	0.12478845
47	0xbd10dea5	-0.03536858
48	0x3c299300	0.010349989
49	0xbdbeb3dc	-0.09311649
50	0x3e1327ce	0.14370653
51	0xbdec62b5	-0.11542264
52	0x3dedef45	0.11617903
53	0x3b00cca7	0.0019653232
54	0xbb16eec5	-0.0023030501
55	0x3e116529	0.14198746
56	0x3da8f9e8	0.08250791
57	0x3ca8c248	0.020600453
58	0xbe3c5ed9	-0.18395557
59	0xbde43827	-0.11143523
60	0x3e2df61f	0.16988419
61	0xbdc78a60	-0.0974319
62	0xbe10881f	-0.14114426
63	0xbd88e8df	-0.06685042
64	0x3cdde06f	0.027084557
65	0xbd400aa3	-0.046885144
66	0xbcab8910	-0.02093938
67	0xba50e735	-0.0007969023
68	0xbe06498a	-0.1311399
69	0x3db0b57b	0.08628365
70	0x3d413708	0.047171623
71	0x3d8f4ce7	0.0699709
72	0xbe0fff7c	-0.14062303
73	0x3ba731ca	0.005102371
74	0xbdd5f2ec	-0.10446724
75	0x3e8059b0	0.25068426
76	0xbd0424b5	-0.03226157
77	0xbdf92e6e	-0.12167059
78	0x3d97d080	0.07412815
79	0xbe850494	-0.25980055
80	0x3e1284b7	0.14308439
81	0x3c72dd3c	0.014823254
82	0xbdf61277	-0.12015241
83	0x3db7b530	0.08970106
84	0x3e35e05a	0.17761365
85	0x3e6d28ed	0.23160143
86	0x3de24158	0.110476196
87	0xbd93f6ec	-0.07224831
88	0xbde75257	-0.11295002
89	0x3dc00b7a	0.09377189
90	0x3c14f2c1	0.00909108
91	0xbd45c1bf	-0.048280474
92	0xbd90d69e	-0.07072185
93	0xbd1f239f	-0.03885233
94	0xbdb8b467	-0.09018784
95	0x3dd9fcdb	0.106439315
96	0x3e0c435d	0.13697572
97	0xbcbdee92	-0.023185048
98	0xbe6d4827	-0.23172055
99	0xbd179772	-0.037009664
100	0x3e33cddf	0.17559002
101	0x3e2fa774	0.17153722
102	0xbd87e70e	-0.06635867
103	0xbc84cbe3	-0.016210502
104	0xbd7248a8	-0.05915132
105	0x3dbd9740	0.09257364
106	0x3e092b40	0.13395405
107	0x3e9397f2	0.28826863
108	0x3de3b9d2	0.11119427
109	0x3e575c8d	0.21031399
110	0x3e8a93e2	0.2706595
111	0x3da49ea8	0.08038074
112	0xbe040fa5	-0.12896593
113	0xbe0a47a6	-0.13503894
114	0x3cd86ce7	0.026419116
115	0x3e7490d8	0.23883379
116	0x3cff6c93	0.031179702
117	0xbcb95bde	-0.022626814
118	0xbc7a229b	-0.01526704
119	0xbd54c9f2	-0.051950403
120	0x3cd8a3a9	0.026445227
121	0x3d049ff1	0.032379095
122	0xbd1376a4	-0.036001816
123	0xbbda3a36	-0.0066597713
124	0x3e14d2db	0.1453356
125	0x3dcc4d72	0.09975709
126	0x3dc0b450	0.09409392
127	0xbd8b006a	-0.06787188
128	0x3a0f9ead	0.00054786616
129	0xbdfaba42	-0.12242557
130	0xbe01ba90	-0.12668824
131	0xbd9e61cb	-0.07733496
132	0x3dede191	0.11615289
133	0x3e0c28ba	0.13687411
134	0xbce76578	-0.028246626
135	0x3ddfd1f2	0.10928716
136	0xbe2fe28e	-0.17176268
137	0x3e15c08b	0.1462423
138	0x3d8d4477	0.06897824
139	0xbe47d7c8	-0.19515908
140	0x3cabec02	0.02098656
141	0x3c764fca	0.015033672
142	0xbd4f94bd	-0.050678957
143	0xbd640142	-0.055665262
144	0xbe1e1904	-0.1543923
145	0x3e10f20a	0.1415483
146	0x3d4459d5	0.047937233
147	0xbb6fb05e	-0.003657363
148	0x3da6dca3	0.08147552
149	0xbd70b4c0	-0.058766127
150	0xbe53b699	-0.20675124
151	0xbe5cd78b	-0.21566598
152	0xbd08434b	-0.0332673
153	0xbe07be15	-0.13256104
154	0xbe0267fd	-0.12734981
155	0xbe0aa2a7	-0.1353861
156	0xbda32325	-0.07965688
157	0x3e76d567	0.24104844
158	0xbd78dfd1	-0.060760323
159	0x3a252040	0.0006299056
160	0xbd7d40c7	-0.061829355
161	0xbe302699	-0.17202224
162	0x3cc6c0f9	0.024261938
163	0xbd6bf5d8	-0.0576075
164	0xbc9dfdf9	-0.019286143
165	0xbd66a732	-0.056311794
166	0x3e2f48cf	0.17117618
167	0x3e6c5738	0.23080146
168	0x3d6e59ff	0.058191296
169	0x3b6fd799	0.0036597012
170	0x3cd848e3	0.026401943
171	0xbe4bebb9	-0.1991414
172	0xbd403c65	-0.046932597
173	0x3df6964d	0.12040386
174	0xbd7a8d26	-0.061169766
175	0xbdff185c	-0.12455818
176	0x3d03483e	0.032051317
177	0xbdbd91dd	-0.09256337
178	0xbcc69acb	-0.024243733
179	0xbe0f1d2a	-0.13975969
180	0x3d87a6c7	0.06623607
181	0x3e8da6a4	0.276662
182	0x3cd28730	0.025699228
183	0x3d2f2a37	0.04276487
184	0xbe231eac	-0.15929669
185	0x3d186679	0.0372071
186	0x3e81af39	0.25328997
187	0xbdde5fae	-0.10858093
188	0x3cfc63bc	0.030809276
189	0x3c31366b	0.010816197
190	0xbcbd2e31	-0.023093315
191	0xbca7f302	-0.020501617
192	0x3e0b7044	0.13617045
193	0x3e09d11e	0.13458678
194	0x3c7c816f	0.015411719
195	0x3da15193	0.07876887
196	0x3dcd3ace	0.10020982
197	0xbd5f6592	-0.054540224
198	0xbcb67a06	-0.022274982
199	0x3cbdb804	0.023159035
200	0xbe97c475	-0.29642072
201	0x3d497581	0.049184326
202	0xbda6874f	-0.08131277
203	0xbdcbee7a	-0.09957595
204	0xbd840957	-0.06447094
205	0x3b6d9c3f	0.003625646
206	0x3e4810ac	0.1953761
207	0x3e33e1f4	0.17566663
208	0x3d858682	0.06519796
209	0xbc86a106	-0.016434204
210	0xbe30717b	-0.1723079
211	0x3daef78c	0.085433096
212	0x3d92e93b	0.071733914
213	0xbc954414	-0.018220939
214	0xbc2abd57	-0.010421119
215	0x3e614ebd	0.22002693
216	0xbd6f23a7	-0.05838361
217	0x3cfe6c04	0.031057365
218	0x3c6c8a97	0.014437339
219	0x3de74d2e	0.11294018
220	0xbd1332a2	-0.03593696
221	0x3dd8bfcc	0.10583457
222	0x3c728095	0.014801164
223	0xbdfb9d89	-0.12285907
224	0xbd2655d4	-0.040609196
225	0x3ce4f9e2	0.027951185
226	0xbe61b625	-0.22042139
227	0xbd92bbc6	-0.07164721
228	0xbcc1dfbb	-0.023666253
229	0x3e6420cd	0.22278138
230	0x3dc23fdb	0.09484836
231	0x3eb82a2e	0.3596968
232	0xbc8c22b2	-0.017106388
233	0x3db48162	0.0881374
234	0xbdfbe5e7	-0.1229971
235	0xbe154bca	-0.14579692
236	0x3e8019dd	0.25019732
237	0x3e8016ed	0.2501749
238	0xbdb426cf	-0.08796465
239	0x3de6135e	0.11234163
240	0xbd9221a6	-0.07135324
241	0x3cef3266	0.029198837
242	0x3de88f3c	0.11355445
243	0x3e04596c	0.12924737
244	0x3d0b1278	0.03395316
245	0xbc9388f4	-0.01800964
246	0xbe21d6b4	-0.15804559
247	0x3d84ce28	0.06484634
248	0x3e31807b	0.17334168
249	0xbe446b1d	-0.19181485
250	0xbe1fed57	-0.15617882
251	0xbdbb0085	-0.091309585
252	0xbe372fcc	-0.17889327
253	0xbdff8127	-0.12475806
254	0x3e274ebf	0.16338633
255	0x3dbb3316	0.09140603
