degradation_transformer_model.safetensors (safetensors, 866672 bytes, 38 tensors)

lm_head.weight f4 [1000, 64]
00000000: a520 86bf d3ba 273f 0c64 dc3e 3dfc 5e3f
00000010: cdb5 213d 5462 653f d48a f2be 097c b4bf
00000020: df3b 3cbf 4f68 2fbf 983b b3bf b216 9a3c
00000030: 043e 183d 6c76 73bf 6878 b83d d46f d8be
00000040: bb67 cc3c 3540 893f ef72 403f 907a 30c0
00000050: 10c3 0a3f 2209 b03f c8da 793e 2684 893e
00000060: a310 20be e2cc e7bd 154f c3be eed9 f9be
00000070: f564 4abf c1ce 44bf 469c b03d 34e4 963f
00000080: 6508 153f 9576 1abf 2b8f c83e b9a3 76bf
00000090: ec58 3240 89c3 b7bf b4f3 3fbf 723c c03e
000000a0: a9cd 5c3d db18 afbf 9422 fe3f 67ae d9be
000000b0: 2ec6 32bf b2d6 8dbf 88a8 323e b2fd f4be
000000c0: eb8b 893e 007f 3ebe 42df 6b3e de57 e0be
000000d0: 0a8d dabf 2859 cebe 3e91 943d b676 8c3f
000000e0: 62b9 37bf af6f 843f 29f9 87be 41ab 733f
000000f0: 9179 abbf 6d92 583e 3c1c 2d3e 776e b23f
00000100: 61f4 b43f ab3d 173e 3cea db3f d7c4 593d
00000110: 13c3 81bf 2528 833e 3941 1c3f 4c25 89bf
00000120: abc1 f3bf 9875 0cbf eb23 9b3e 7220 b93c
00000130: 91d3 473f 08c3 bcbf 6fde abbe 5282 893f
00000140: aec3 75bf e6ad b23f 4bc3 86bf e62b bdbf
00000150: 47b9 0440 f506 8abf 94fc 18bf 3e71 0d3f
00000160: e3f6 1bc0 4dd9 39be 36a3 153e bbef 85bf
00000170: edbf e73f 19a9 1abf 5d0a adbe 0e16 d43e
00000180: bdd9 ce3e a1ba 8bbf cfba b8be 6795 abbf
00000190: 9670 b3bf b85a d1be cba6 2840 e3c9 d5be
000001a0: 9744 cabf 3398 5a3e 50a2 34bf 0bac 27bf
000001b0: 7592 42bf bcbc 13bf 7e29 0740 215c 0b40
000001c0: d0d2 6d3f ab9c 0cc0 9a5e 99bf 1b81 5e3f
000001d0: ee9d 7a3f 38da eabf bad6 81bf 790f 2dbd
000001e0: 0b41 5ebf 0133 54bc 13e7 263f c298 913f
000001f0: 4667 e7be ae93 8e3d f6c1 383e 0327 92bf
00000200: 9749 43bf f586 b83e bdd0 efbf d4ff e3be
00000210: 76c1 2cbf e52c c4be 0423 e63e 3441 ec3f
00000220: 9970 94bf 399f e53f 679e abbe ba5d bebe
00000230: c50b 34bf d159 ddbf 1215 943d 660b 8ebe
00000240: c898 69bf 2d1b 2c3f 05ed 29bf c427 8cbe
00000250: 576c 2b3f 6cad 9cbe d4b1 bebf a691 66bf
00000260: cfba 723e 53c8 3abf 5544 a33f 91a6 a4be
00000270: 937f 9fbf 133d 9fbf c29f 76bf 4ff0 04bf
00000280: 40ef f83e e5c4 94bf 8e6e 843d 399b 70be
00000290: e021 813e 416a b6bf c77b 19bf 64c0 5b3f
000002a0: 4837 0e3f 063c efbe 264e b73e 3e56 313e
000002b0: 82c2 febf 6ce2 2a40 c9a2 dbbe e372 96bf
000002c0: 1e14 73bf d27f 443e 6b1d 923f dc3b 10be
000002d0: f5f0 a63e 8b98 d0bd f471 edbd 8f80 e63f
000002e0: 6291 8c3f 6e61 fcbe 6eb3 993f b85c aabf
000002f0: 6351 bebf 462e 833f ad57 cb3e 88c3 2cbf
00000300: 69df edbf 38e2 433f 86ce 283f 8369 0cbf
00000310: 6f4c 663f e1ff 1f3e 54a6 c73d f44f 9fbd
00000320: 5204 07c0 57bb 35bf 4cf0 e43f e428 b23f
00000330: 93af 07c0 f97a 983e fe0c d13d c15a 00bd
00000340: b610 34bf 0250 2abf 18a5 823e 57e1 3dbf
00000350: 161b d63f ce4d 0dbe 3dfb 273f bf91 c33d
00000360: 189a 713e 2006 a83d 2cb1 873e e053 8dbf
00000370: 9fd1 3ebf cfc3 d1bf 8960 043e 1fb0 31be
00000380: dbfe c9be a043 043e 302a aabf 9e4c 74bf
00000390: 0ee4 f6bf dd75 fabe 5caa e2bf 81e2 433f
000003a0: 1d14 febe f9eb d5bd 5238 cfbe c704 98bf
000003b0: 447b 45bf 9ce6 88bf d995 453e 1919 f23e
000003c0: cee9 893f 2fed 8abc 101f 4abf cef5 363e
000003d0: 976d e2be 1e2b 293f a7c1 a43f df7b a73e
000003e0: 27d8 15bd 51ea b33f 8319 7a3f 6f13 83bf
000003f0: ef3a 423f c3cb 963f 6f3c b53e 9557 39bf
-1.0478712 0.65519446 0.4304508 0.87103635 0.03948002 0.8960316 -0.47371542 -1.4100353
-0.73528856 -0.6851854 -1.4002562 0.01880965 0.037168518 -0.9510257 0.09007341 -0.42272818
0.024951806 1.072272 0.75175375 -2.7574806 0.5420389 1.3752787 0.24399865 0.26858634
-0.15631346 -0.11318375 -0.38146272 -0.4879908 -0.790603 -0.7687798 0.08623557 1.1788392
0.58215934 -0.6033719 0.39171728 -0.9634357 2.7866774 -1.4356548 -0.74981236 0.37546116
0.05390707 -1.367946 1.9854302 -0.4251587 -0.6983365 -1.1081145 0.17447102 -0.47849804
0.2686456 -0.18603134 0.23034385 -0.43817037 -1.7074292 -0.40302396 0.07254265 1.0973728
-0.71767247 1.0346583 -0.26557282 0.9518319 -1.3396474 0.21149607 0.16905302 1.3939961
1.4137079 0.14769618 1.7180858 0.053166237 -1.0137657 0.25616565 0.6103702 -1.0714507
-1.9043478 -0.54866934 0.3030084 0.022598479 0.780572 -1.4747019 -0.3356814 1.0742896
-0.9600171 1.395932 -1.0528349 -1.4779022 2.0738084 -1.0783373 -0.59760404 0.5525092
-2.4369438 -0.181493 0.14613041 -1.0463785 1.8105446 -0.6041427 -0.3379697 0.41423076
0.40400496 -1.091633 -0.36080024 -1.3404969 -1.4018734 -0.40889525 2.6351802 -0.4175559
-1.5802182 0.21347122 -0.7056017 -0.6549689 -0.76004726 -0.5770986 2.1119075 2.177498
0.928998 -2.1970623 -1.1981995 0.8691575 0.9789723 -1.8347845 -1.0143654 -0.042251084
-0.86818 -0.012951613 0.6519634 1.1374743 -0.4519598 0.069617614 0.1804274 -1.1418155
-0.76284164 0.36040464 -1.8735577 -0.4453112 -0.674827 -0.38315502 0.4494859 1.8457398
-1.1596862 1.7939216 -0.3351929 -0.37180883 -0.7033046 -1.7293035 0.07230581 -0.2774307
-0.9124875 0.67228967 -0.6637729 -0.2737409 0.6696219 -0.3060106 -1.4898019 -0.9006599
0.23704074 -0.7296192 1.2755228 -0.3215833 -1.2460808 -1.2440513 -0.9633752 -0.5192918
0.48620033 -1.1622587 0.06466399 -0.23496713 0.25221157 -1.4251176 -0.59954494 0.8584044
0.555531 -0.46725482 0.3580181 0.17318055 -1.9903109 2.6700697 -0.42897633 -1.1753811
-0.9495257 0.19189385 1.1415228 -0.14085335 0.3260571 -0.10185345 -0.115940005 1.8007983
1.0981867 -0.49293083 1.2007883 -1.3309546 -1.4868587 1.0248497 0.3971533 -0.67485857
-1.8583804 0.7651706 0.6594013 -0.548485 0.8996038 0.15624954 0.097485214 -0.07778922
-2.1096387 -0.7098898 1.7885833 1.3918729 -2.1200912 0.2978132 0.10207556 -0.03133655
-0.70338 -0.6652833 0.25516582 -0.74171966 1.6727016 -0.13799211 0.65617734 0.09549283
0.23593938 0.08204293 0.2650236 -1.1041222 -0.74538606 -1.6387881 0.1292745 -0.17352341
-0.39452252 0.12916422 -1.3294125 -0.9542941 -1.9288347 -0.48918048 -1.770824 0.7651749
-0.4962472 -0.10445399 -0.40472656 -1.1876458 -0.77141213 -1.0695376 0.19295444 0.47284773
1.0774477 -0.016958801 -0.7895365 0.17867205 -0.44224235 0.66081417 1.2871598 0.32711694
-0.036583092 1.4055883 0.9769518 -1.0240306 0.75871176 1.1780933 0.3539767 -0.72399265

tbls_list.0.ff.first_proj.bias f4 [256]
00000000: 0ded 8ebe e318 40be 3f36 60bd 697b 60bd
00000010: 7939 33be 1b7d 67bd dcd5 8abc 816c 88bd
00000020: eb5f 3ebe 06d9 81be acf5 14be 1166 efbd
00000030: 160e c1bd e2f8 90bc 3fc4 7bbe 367e 90bd
00000040: 943a 30bd f009 0cbe 0129 f0bd 0d08 52bd
00000050: 66dc cabd d345 febd 616f d3bd e239 07be
00000060: 7f36 4abe 6aeb 2cbe 6972 efbb 51e6 0abe
00000070: 75d9 6abd 51e0 8fbd f1d5 b8bd 5f5d 7cbd
00000080: 3cd2 04be 2811 e4bd f15d 00be 38fe 57be
00000090: 950f 1dbe 48d8 bfbd 44a9 e0bd da1c 6ebe
000000a0: 152f 64bd bd26 09bd f154 82bd c090 3fbd
000000b0: b254 56be ba14 43be 9b92 19be bc0b 88be
000000c0: 2782 bcbd 0d35 4bbe 01ab 41be bdbb a9be
000000d0: f7fa d6bd 2320 88be 672b 74bd 64ee 08be
000000e0: 2b95 7f3c 7258 81be 0e74 93bc 3851 5fbd
000000f0: 8c33 75be d86d c43c 8320 22be f318 47be
00000100: 2c0e a3bd 12e8 43be 1bb1 0fbd 37d2 98be
00000110: b206 72be 4a4e c9bc 95e9 45bd 3b2f f0b9
00000120: 0b07 73be 08f9 48be c4d5 25be a24d 3dbe
00000130: efb1 dbbd d873 cdbd 9817 79be 23f7 74be
00000140: 0fae 1cbe cf87 86be e6d6 edbd 3c15 b1bd
00000150: 199a 88bd db5b 09be 44c2 61bd 3597 e9bc
00000160: a5a3 ebbb afa5 66be 1cf8 84be ff9f 79be
00000170: 25cc 7ebe b828 26be 28b0 35be 8494 84be
00000180: bc8d 3bbe ae05 60be faa7 aabd 258e e7bd
00000190: bffb 8a3c 8d2c 62be dcf4 4cbe 9185 65be
000001a0: e794 81bd 347f 17be d91a 3fbc d876 6bbe
000001b0: 0a0b 13bd e807 c6bd f8c2 dcbd 81a4 c1bd
000001c0: 0d30 f3bd bc3b d6bd bcbb f0bd d170 8bbd
000001d0: 1c7e 7fbe a31e d1bd 1047 3dbe 24fd 23bd
000001e0: 5050 dabd 57f4 01be b369 56be 72c4 39be
000001f0: 5396 01be d8ac fabd c376 47be 1b41 25be
00000200: 8724 98bd 64e1 f33b 4e3e afbd 3f92 6bbe
00000210: 1a65 27bd 57a2 febd 3779 75be f9b5 7dbd
00000220: 8d9b 5bbd 7591 56bd 322c 1fbe 2d3d 5cbd
00000230: 05dd 5abe a70a 59be be86 65be d8e1 d3bd
00000240: f3dc 0dbe c021 79be ed46 77bd d3e9 d0bd
00000250: 9fea 2abe 8bf6 eabd 4316 57be 11bb fabd
00000260: 7ca2 24be 4740 ddbd 5437 79be 34bd 38be
00000270: 7cc9 80be 8612 45be 6130 36be 0b53 7abe
00000280: 843f c5bd ef91 a0bc d54e 5fbe f247 24bd
00000290: 50b4 95bd e3f1 d5bd 73bd 6abd 8afa b3bd
000002a0: 4fe8 b8bd 2893 08be 876a 31be 5eb6 52be
000002b0: 680a 69be b2f1 87bd 56d5 efbd c5ac 5bbe
000002c0: 505a 12bd b63e 53be 8ccd 61be c78f 4dbd
000002d0: 6826 d7bd 34d8 9ebe 91b3 b7bd 130b 4bbe
000002e0: 4775 68be 72e0 11be 2852 97be a989 d9bd
000002f0: b04e b4bd 179f ecbd 4d10 16be 10cd 13bd
00000300: 40e9 3cbe bbf1 4cbe 5c8a 9fbd 7fe2 ebbd
00000310: 4501 3cbe ca60 35be d9e5 74bd 7a1f 94be
00000320: c498 99bd f89a 72bd 1e46 223d 11f0 3dbd
00000330: f2c5 1abe 8d0b 5dbe d8a7 0cbe 2315 10bc
00000340: 0dc0 adbe 59a0 0dbe 0e0d 23be f35f e9bd
00000350: fa3c babd 0426 7ebd b2dc 3ebe d3f0 09bd
00000360: 0749 d0bd e73a 0bbe 4a4b cabc c0cb 4abe
00000370: 2547 4bbe f9cb 81be 9421 69be 06a1 2bbd
00000380: 9322 29be 22e5 29be 98e1 c5bd 8511 4abe
00000390: b115 b1bd 0305 1cbe 56b1 08be 04aa 2abe
000003a0: fa34 edbd 063a edbd c7af 7abd 12de 04be
000003b0: a723 61be a2b4 d5bd e45f 7dbe 0c06 76be
000003c0: a273 8ebe 26ac 8bbd afdb d4bd 05ba eebd
000003d0: dc8f 50be c709 b6bd f221 f0bd f5d0 a5bc
000003e0: dbad 4cbe f0ce fcbd 5191 a3bc 5129 c6bd
000003f0: d6e3 2abd 5160 99bd cc39 6fbd abd7 dabd
-0.2791523 -0.18759494 -0.054739233 -0.054805193 -0.17502393 -0.056515794 -0.01694768 -0.066613205
-0.18591277 -0.25360888 -0.14546841 -0.116893895 -0.09426515 -0.017696802 -0.2458658 -0.07055323
-0.043024614 -0.13675666 -0.11726571 -0.05127721 -0.09905319 -0.12415662 -0.10323978 -0.13205674
-0.19747351 -0.16886678 -0.00730734 -0.13564421 -0.05733629 -0.07025207 -0.09025181 -0.061612483
-0.12970823 -0.11136085 -0.12535836 -0.2109307 -0.15337975 -0.09367424 -0.10969785 -0.23253193
-0.055708963 -0.03348421 -0.063638575 -0.046768904 -0.20930746 -0.19050875 -0.14997332 -0.26571453
-0.09204512 -0.19844456 -0.18912889 -0.33151045 -0.104970865 -0.26587018 -0.059611704 -0.13372189
0.015599529 -0.2526279 -0.017999675 -0.054520816 -0.23945445 0.023978159 -0.15832715 -0.19443111
-0.079616874 -0.19131497 -0.03508101 -0.2984788 -0.23635367 -0.024573464 -0.048318464 -0.00045811557
-0.23733155 -0.19626248 -0.16194826 -0.18486646 -0.107272975 -0.10031861 -0.24325407 -0.239224
-0.15300773 -0.2627549 -0.11613254 -0.08646628 -0.06670017 -0.13413946 -0.055116907 -0.028514484
-0.007191139 -0.22524141 -0.25970542 -0.2437744 -0.24882562 -0.1622647 -0.1774298 -0.25894558
-0.18315786 -0.21877167 -0.0833282 -0.11306409 0.016965745 -0.22087307 -0.20015281 -0.22414233
-0.06327229 -0.14794618 -0.011664116 -0.22994554 -0.0358992 -0.09669477 -0.10779375 -0.09455205
-0.11874399 -0.10460612 -0.117545575 -0.068086274 -0.2495045 -0.102109216 -0.1848414 -0.040036336
-0.1065985 -0.12690865 -0.20938759 -0.18141344 -0.12655 -0.122399986 -0.19478898 -0.16138117
-0.07428842 0.00744264 -0.085568056 -0.23005007 -0.040867902 -0.124333076 -0.23972021 -0.06194112
-0.05361514 -0.052384812 -0.15544203 -0.05376928 -0.21373375 -0.2119547 -0.22414681 -0.10345811
-0.13853817 -0.24329281 -0.060370374 -0.102008484 -0.16691063 -0.114728056 -0.21004586 -0.12242711
-0.16077608 -0.108032756 -0.24337512 -0.18040925 -0.2515372 -0.19245347 -0.17791893 -0.24445741
-0.09631255 -0.019600837 -0.21807416 -0.040107675 -0.073097825 -0.10446527 -0.05730958 -0.08788021
-0.09028684 -0.13337386 -0.17325793 -0.2057738 -0.22757876 -0.066378966 -0.117106125 -0.21452625
-0.03573066 -0.20629391 -0.22051066 -0.050185945 -0.10505372 -0.31024325 -0.089697964 -0.19828443
-0.22700988 -0.14245775 -0.29554868 -0.1062196 -0.08804071 -0.115537815 -0.14654656 -0.036084235
-0.18448353 -0.20014088 -0.07790062 -0.1151781 -0.1835986 -0.17712703 -0.059789512 -0.28930265
-0.07499841 -0.05922982 0.03961765 -0.046371523 -0.15114573 -0.21586438 -0.13735902 -0.008794102
-0.33935586 -0.13830699 -0.15922949 -0.11395254 -0.090936616 -0.062047973 -0.18638876 -0.033676933
-0.10170179 -0.13596688 -0.024694104 -0.19804287 -0.19851358 -0.2535093 -0.22766715 -0.04190161
-0.16517095 -0.16591313 -0.09662169 -0.19733246 -0.086467154 -0.15236287 -0.13348898 -0.16666418
-0.1158237 -0.11583333 -0.06120279 -0.12975338 -0.21986257 -0.104348436 -0.2474361 -0.24025744
-0.27822596 -0.06819944 -0.10393464 -0.11656574 -0.20367378 -0.08888584 -0.117252246 -0.02024124
-0.19988196 -0.12344158 -0.019966753 -0.09675849 -0.041721188 -0.07489074 -0.05840473 -0.10685667

tbls_list.0.ff.first_proj.weight f4 [256, 64]
00000000: 0a3f 0c3e eae1 033e 4add 5a3e da1a bdbc
00000010: 7eec 39bd a5cd c8bd f4a8 603c 3254 ac3c
00000020: 4084 873d 2f30 10be f856 72bd 7aaa 07be
00000030: 9858 793d 1d36 0abe a159 34be c577 cdbd
00000040: 5e74 57bc c804 de3c 8229 1cbd 011b 7cbc
00000050: 7313 653d d9c1 d03d c380 3e3e eddb aebb
00000060: 90db b4bd 6c44 b13c 86b3 623d 53dd e63d
00000070: 4c01 253d a6b6 783d 9fb1 6a3d b474 5c3e
00000080: ad7f 903d cb62 033e fd6c 8abd 3242 09bd
00000090: 2bb3 0a3d 9efc 93bd 400c f2bd f871 0bbe
000000a0: faea be3b 25a2 b8bc 9841 2a3e cfea 72bd
000000b0: a8df 10be 1702 753d d904 033d e2f4 ad3b
000000c0: fbc5 57be 3f5c 3abe e2a0 b13b 19c3 153d
000000d0: 06af e13c fd84 233e f01d 27bd 19fe 863d
000000e0: 19e6 453c 3c50 debd 361e 9c3c f560 c3bd
000000f0: 96a8 293e 76ad cf3d fc24 223b de95 7dbd
00000100: 2f23 a3bd f95c 283e 58b3 1a3d 99a4 40bd
00000110: b31c 1abe 6d5f d8bc a323 013d 0759 02be
00000120: e276 f43d bdf7 013e fd64 bcbd 258c 063e
00000130: ac0d 4d3e 3c5e a13c e19b 5a3b 3adb 283e
00000140: c385 013e cd45 ef3c a9aa cc3c 02f0 293e
00000150: ce0a 143d cd18 213d 2e13 23bd 918e 31bc
00000160: 7535 01be 5675 48be 6b00 563e 3ca1 f2bd
00000170: 2bed febd 5676 143d 33eb 1d3b 7921 303e
00000180: 505d 9d3d 4203 0d3e da72 ba3b 2134 17bc
00000190: 4497 a43c 7259 673d 1655 933d dc6c f8bd
000001a0: 7e02 723d 29b1 153e ea13 963d 897e f4bd
000001b0: 8b74 9bbe 5ad2 b63c 5c66 a0bd 8c26 8fbd
000001c0: eb1f 22bc 1611 7b3d e72c cd3c ea61 a1bb
000001d0: d4da 833d 8f0a 3f3d c813 0f3d 43f1 473e
000001e0: 2faf 68bb a5c6 a93d 6e32 0b3e 5d0e 05bd
000001f0: 9539 213e 123f 40be a338 033e af9c a4bd
00000200: d012 14be db88 b2bc 488a aaba 876a b43d
00000210: 87cd 9abd fcb5 003d 460d d3bb d3d0 34be
00000220: 15b7 8cbd 2fca f1bc 2e1b d83d 118c c93d
00000230: 607d 04be a5dc 923d 45d2 2ebd 464d f1bd
00000240: 1365 873d 2017 213e 9ae6 603d 9970 cf3d
00000250: ce35 d0bd 62d0 5bbd b516 953e 9999 22bd
00000260: cf63 96bd 3169 5f3e 36de ae3d ba50 a7bd
00000270: 430f 973d f2d0 043e 1a5b aa3e cc19 1ebd
00000280: 2829 ecbd 3824 eebd 99d0 fbbc 5ee1 fdbc
00000290: 7fe8 bd3c f031 9cbd 0d36 f63d 25fa abbd
000002a0: 995c 15bc 2e93 36bd 633a af3d deb3 91bd
000002b0: ba0c 29bd 71e2 c5bd 1d80 65bd 69ef cfbc
000002c0: 85dc 5b3d 4e1b 70be 74cf 053d dc98 51bd
000002d0: 1f66 65bc 2ab3 353c 5d68 7c3d 2c26 513d
000002e0: c960 953d e06c 13be 3e1b eb3d 4a17 c93d
000002f0: 2540 373e a45d 1ebe ecdc ccbd ca0c 853b
00000300: fb57 06be 3f3e c03b 41b1 de3d 4831 d53c
00000310: 6dcc eb3c 016f 7d3c 7b22 073e a60e f1bd
00000320: 9805 963d 55a6 4f3d a55e d6bd f700 933d
00000330: a0c7 b4bd aba4 503d 5fb7 84bd 2f6d e3bc
00000340: bafb 9b3d ef8e 47bd ea6b a33d d164 03be
00000350: 44fc e8ba 7985 513b 38a4 9b3c 862c 173b
00000360: bb43 893d 7a27 7d3d 6d88 f43c 4c83 6cbd
00000370: 8196 4ebd 73c4 08bd 1dce a33d 6b37 aa3d
00000380: dc43 e73d fa1e 8d3a 0738 dcbc b180 913d
00000390: 9a8c e5bd ae50 f7bd 6160 1bbe 134d 63be
000003a0: c03f a63d 903d 0d3b 54b3 0c3c bbf3 96be
000003b0: 352a 87be 0302 8dbb 1172 5cbd 48a4 00be
000003c0: 361c 57be d95e 0f3b 14f8 8dbd 89e3 91bd
000003d0: b35c a9bc 1be3 9f3d 0b66 ba3d a971 bf3d
000003e0: 28ef 87bc 5003 2d3d a317 d3bc c3ad 22be
000003f0: b484 5abc fca3 cc3c e9dd 55ba a5ee 00bd
0.13695922 0.12879148 0.21373478 -0.023084093 -0.045391552 -0.098048486 0.013712157 0.021036241
0.066170216 -0.1408088 -0.05916497 -0.13248625 0.060875505 -0.13497205 -0.17612316 -0.1003261
-0.013150303 0.02710189 -0.038125522 -0.015387298 0.05592675 0.101932235 0.18603806 -0.005336276
-0.08830941 0.021639071 0.05534699 0.11272683 0.04028444 0.060721062 0.0572983 0.21528894
0.07055602 0.12830655 -0.06759069 -0.033510394 0.033862274 -0.07225917 -0.11818743 -0.13617694
0.005826351 -0.022538254 0.16626585 -0.059305962 -0.14147818 0.059816446 0.031987045 0.0053087333
-0.21071617 -0.18199252 0.00542079 0.036563013 0.027549278 0.159687 -0.040800035 0.06591434
0.012078785 -0.10855147 0.019057374 -0.095399775 0.16568217 0.10140507 0.0024741283 -0.061910503
-0.07965695 0.16441716 0.03776869 -0.047031973 -0.1505001 -0.02641269 0.031528126 -0.12729274
0.119367376 0.12692161 -0.091989495 0.13139398 0.20024747 0.019698255 0.0033357071 0.16489878
0.12648682 0.029208088 0.02498372 0.16595462 0.036143117 0.039330292 -0.039813213 -0.010837213
-0.12618048 -0.1957601 0.20898597 -0.11847159 -0.1244758 0.036245666 0.0024096488 0.17200269
0.076838136 0.13770774 0.005689961 -0.009228737 0.02009166 0.056481786 0.07193963 -0.12130138
0.059084408 0.14618362 0.07328017 -0.11938197 -0.30362353 0.0223171 -0.078320235 -0.06989774
-0.009895305 0.06129559 0.025045825 -0.0049250023 0.064382225 0.04664093 0.034930974 0.19525628
-0.0035504808 0.082898416 0.13593456 -0.0324844 0.15744622 -0.1877406 0.12814574 -0.080376975
-0.14460301 -0.021793773 -0.0013011182 0.08809381 -0.075587325 0.031423554 -0.0064407913 -0.17657785
-0.068708576 -0.029515354 0.10552059 0.09841169 -0.12938452 0.07170991 -0.042680997 -0.11782317
0.06611075 0.15731478 0.05490742 0.10128898 -0.101665124 -0.053665526 0.29118887 -0.039697263
-0.07343256 0.21817471 0.08538477 -0.08169694 0.07375958 0.12970331 0.3327263 -0.03859882
-0.115312874 -0.11628002 -0.030739116 -0.030991253 0.023182152 -0.07626712 0.12022028 -0.08397321
-0.009116315 -0.044573955 0.08556058 -0.07114385 -0.041271903 -0.09662331 -0.05603038 -0.025382714
0.0536771 -0.23447916 0.032668546 -0.05117117 -0.014001398 0.011090079 0.061622966 0.051061794
0.07293851 -0.14397001 0.114798054 0.09818895 0.17895563 -0.15465409 -0.10003075 0.0040603625
-0.131195 0.0058667953 0.10873652 0.026024476 0.028784001 0.01546836 0.13196747 -0.11770372
0.07325286 0.050695736 -0.10467271 0.071779184 -0.08827138 0.05093829 -0.06480288 -0.027762024
0.076163724 -0.048720296 0.07979567 -0.12831427 -0.0017775376 0.0031970425 0.018999204 0.002306731
0.06702372 0.061805226 0.02985021 -0.057742402 -0.0504365 -0.033390474 0.07998297 0.083113514
0.1129224 0.0010766678 -0.026882185 0.07104624 -0.11208458 -0.12075935 -0.15173484 -0.2219737
0.08117628 0.0021551587 0.008587677 -0.29482827 -0.2639939 -0.0043032183 -0.05381972 -0.12562668
-0.21006855 0.0021876602 -0.06932083 -0.07123477 -0.020674085 0.07806989 0.091014944 0.09347851
-0.01659353 0.042239487 -0.025768107 -0.15886597 -0.013337303 0.024980538 -0.00081583724 -0.03147759

tbls_list.0.ff.layernorm.bias f4 [64]
00000000: bae4 013d 9852 23bc c9d8 903c a083 b93c
00000010: 2d1c 98bd d7bd 9a3c c78a 983c 05a7 fb3b
00000020: e5a5 993c 3bb8 17bd 4905 553d 768c 9c3c
00000030: a258 0e3d 7f61 8ebc 7cbb 95bd 53d1 133b
00000040: e76a 89bc 0031 813d 746b be3c f397 69bd
00000050: 3150 e73c c4d2 043c 2318 94bc 5aca da3c
00000060: 18ee 993b 1236 2cbc cbd8 003c 20a5 95b6
00000070: 4608 14bc 92f8 683d 7d54 e83c b101 253c
00000080: 51b4 0f3d 6856 07bd 1449 9fbc 655e 0d3d
00000090: f82b cb39 d057 09bd 3ae3 84bb 4e22 08bd
000000a0: 8081 abbc 03a7 723b 91c4 3e3d c20b 40bc
000000b0: cd07 74bd bc84 ecbc aba5 413d 2812 72bc
000000c0: 6495 0e3d 8401 013d 72da dbbb a1bb 08bd
000000d0: 4f3f 77bc 09b1 aa3c c685 ce3b 20e0 a13c
000000e0: 0327 ac3a ce18 19bd fe53 b03c 3622 12bc
000000f0: c988 30bd e1f8 5a3c e822 cbb9 6570 0abd
0.03171227 -0.009968422 0.017681496 0.022645772 -0.07427249 0.01888935 0.018620862 0.0076798224
0.018755862 -0.03704093 0.052006993 0.019109946 0.034752496 -0.017380474 -0.073111504 0.0022555187
-0.016774608 0.06308174 0.023244597 -0.057029676 0.02823648 0.008106891 -0.018077916 0.026707817
0.0046975724 -0.010510938 0.0078641875 -4.459769e-06 -0.009035176 0.05687768 0.0283606 0.010071204
0.035084073 -0.033041388 -0.019444026 0.03451385 0.00038751937 -0.03353101 -0.004055408 -0.03323584
-0.020935774 0.0037025816 0.04657418 -0.011721553 -0.059577752 -0.028871886 0.047277134 -0.014774837
0.03481044 0.031495586 -0.0067093903 -0.033382062 -0.015090778 0.02083637 0.006302568 0.019760191
0.0013134185 -0.03737717 0.021524426 -0.008919289 -0.0430992 0.013365001 -0.00038745184 -0.033798594

tbls_list.0.ff.layernorm.weight f4 [64]
00000000: 2ee5 813f 897b 863f accc 7a3f 67ed 853f
00000010: 7ba1 773f 7ef6 833f 6516 853f 1539 8d3f
00000020: b3a1 803f 6b26 873f c8d9 853f 8960 803f
00000030: 5246 883f 09e8 743f 0cde 743f 11c8 813f
00000040: 375e 7d3f 6a91 833f 946d 883f 9c2f 813f
00000050: 4b4d 853f 8452 893f 6a99 803f 60b8 833f
00000060: aeff 803f d9d9 803f 83fc 803f 71c7 843f
00000070: 2025 843f 9635 833f 5b3d 843f e6ce 7e3f
00000080: 9910 7b3f 817d 833f 62cd 813f a0cb 773f
00000090: 778d 813f c2b0 703f f289 863f 717b 703f
000000a0: f0e4 7f3f 1698 7b3f 11ca 7b3f ce08 833f
000000b0: b676 803f e314 7b3f 5d79 853f 6860 753f
000000c0: 580b 7d3f 62c6 853f ebe4 7d3f 9bb9 823f
000000d0: 95fb 753f f098 7b3f 2e7d 7f3f 4158 803f
000000e0: c29e 833f 8e06 873f 02f3 7c3f f407 823f
000000f0: d328 813f 162f 823f d85b 843f 54b5 703f
1.0148065 1.050645 0.97968554 1.0463074 0.96730775 1.0309598 1.0397459 1.1033045
1.0049347 1.0558599 1.0457087 1.002946 1.064646 0.9566656 0.95651317 1.013918
0.98971885 1.0278752 1.065844 1.0092654 1.0414213 1.0728307 1.0046818 1.0290642
1.0078027 1.0066482 1.007706 1.0373365 1.032383 1.0250728 1.0331224 0.9953445
0.980722 1.0272676 1.0140803 0.9679508 1.0121297 0.9401971 1.0510848 0.93938357
0.99958706 0.9827894 0.98355204 1.0237062 1.0036228 0.98078746 1.0427662 0.9585023
0.98845434 1.0451167 0.99177426 1.0212892 0.9608701 0.9828024 0.99800384 1.0026933
1.0282824 1.0548875 0.988083 1.0158677 1.0090584 1.017062 1.0340528 0.94026685

tbls_list.0.ff.second_proj.bias f4 [64]
00000000: edde 2a3c 4db3 afbd 922a 78bc 1186 d33c
00000010: 1f64 07bd 64e0 fdbc 6259 5d3d fcd7 4a3b
00000020: db6f b33d f0ac e73b ad0c 613c 2c2d 7cbc
00000030: 9040 cabc f590 8b3d 3546 c8bd 215f 0abe
00000040: 69e9 6cbc 7e33 88ba 5157 1f3b 31dd 823c
00000050: 251e a83d 55e1 f63c 9758 3d3d 55b3 cfbd
00000060: e119 013d 45d7 6dbd 0dcb c93c 7c92 70bd
00000070: 7238 57bd 2cfc 303d 8497 d23c bef4 813d
00000080: 46a0 8b3d 8cc6 2d3d fb12 dcbc f492 5f3d
00000090: 0f7e 15bd 5d0f 3dbc 0029 04bc ae2c f0bd
000000a0: fe34 a83c 092a bebc a901 453d 8628 8bbc
000000b0: b4a5 5a3c 5df9 bbbd 9e60 853d f544 a8bc
000000c0: 39c7 0a3c f7e6 853d 4e1d 8dbd 4d96 0a3c
000000d0: efc5 66bc 7974 ae3d 7221 0f3d 152b e43c
000000e0: cc77 543c eda2 2fbd 80a7 363d 1b1e a8bc
000000f0: d305 fdbb a5b2 603c 9270 9eba f08e 8cbd
0.010429126 -0.08579121 -0.015146868 0.025820764 -0.033054467 -0.030990787 0.05404032 0.003095149
0.08761569 0.0070701763 0.013735932 -0.015391629 -0.024688989 0.06814758 -0.09779016 -0.13512851
-0.014459946 -0.0010391322 0.002431352 0.015974613 0.082088746 0.030136744 0.046227064 -0.10141627
0.03151882 -0.058066625 0.024632955 -0.05873345 -0.052544065 0.04320924 0.025707014 0.06345509
0.06817679 0.042425677 -0.02686452 0.054583505 -0.036497172 -0.011539307 -0.008066416 -0.11727272
0.020533081 -0.023213403 0.048097286 -0.016987097 0.013345171 -0.09178422 0.06512569 -0.020540694
0.00847035 0.06538194 -0.06890355 0.008458686 -0.014085277 0.08518309 0.034944005 0.027852574
0.012968015 -0.042879988 0.044593334 -0.020522168 -0.0077216416 0.013714467 -0.0012087992 -0.06863201

tbls_list.0.ff.second_proj.weight f4 [64, 256]
00000000: c102 a73c b0de 41b9 dac3 3e3c b9b0 bb3d
00000010: 7572 fdbc 2658 603d a06e ab3d 9480 2c3d
00000020: f2b2 94bd 3418 af3d 7d63 b83c 0e06 b13d
00000030: 7afc 783c 0343 80bc 5f64 ec3c 9589 0f3c
00000040: a41f df3d 7282 f03d bd5e 253e b4bb ae3c
00000050: fcc3 b33d 73b4 97bd 168a 2e3d 707f 063c
00000060: e91f eebd d578 5cbc 1f0d c3bc 31f2 e63d
00000070: 68a3 f4bc 1fcf 4ebd 4d17 80bd cbf6 18bd
00000080: 50d2 803d 80c7 45bc e265 1fbd ff5a 893d
00000090: 7bae 14be 150e bd3c e801 2cbd 044c a63d
000000a0: 5bce 82bd c32d b7bb 0002 533d 87cf 663d
000000b0: 8412 31bd dca4 963d 9e35 4f3d 22c3 8e3d
000000c0: 19a9 4ebd 26c5 99bd bdf1 47be 5400 e7bb
000000d0: 5c97 933d 8ee3 4cbd 212a 1b3d 4fdb 453d
000000e0: 8a93 953d b1d6 90bc 70cd d5bd a58a 08bd
000000f0: 91d0 e8bc f4c2 04be a3f2 c03c 6838 183e
00000100: 38d7 06bd be88 60bd 1b75 c4bd 2881 24bb
00000110: 8350 4bbc 5834 6cbd 2aee 623d 1e7a 05bc
00000120: 4270 10bd ce6c 7d3c c8ed febc 47df ea3d
00000130: e693 2f3d fcf0 4ebd 9137 b93c ac56 82bc
00000140: bd5f 80bc 5157 8c3d 1a4f 9abd 85d6 c5bd
00000150: 4bf4 803d 9dc3 c33d 0559 893b 0667 58bc
00000160: 087e 853d 28f4 023d f62a dbbc 332d 0ebd
00000170: b22d 57bc 3828 a13d 02d2 b4bd 9700 08bb
00000180: c622 57bb 0bde c83c ce08 973d 7363 13be
00000190: f9dc 933d a889 8dbd bd50 0a3b a850 9c3d
000001a0: 75e4 cabd 53b5 d23d 90f6 c9bc 1115 17bd
000001b0: 44a6 30bd 61bc 183d 63d6 06bc b50a 023c
000001c0: 0bbc b63d 5109 803d c761 753d 68a9 b1bd
000001d0: 5072 05be 2fa8 39bd 0fde cbbc 2f8a 3f3c
000001e0: 0d50 e53c 5176 053d 89f1 42bd a83e 19be
000001f0: 8502 303d f3e4 2f3d 8ddb a7bc fb12 f5bc
00000200: 9761 d53d f35f 8c3c 57ce 60bc 6bf4 043d
00000210: 8e59 c5bd 7a3d 51be ef72 7dbd c58b 34be
00000220: 103d 543d ec46 e53d 1719 db3c a5bd 873c
00000230: d28a e93c 32bc 8d39 bea2 64bd 50a2 c6bd
00000240: aaa4 e9bd 2ba6 ff3b fc01 acbc c090 953d
00000250: 2026 df3b 2bf0 8fbd a296 bc3d fbba 1a3e
00000260: 2c0b 303d c526 55bc e648 90bb 0110 8cbd
00000270: 1007 bd3c 1068 f13b 20a6 3dbd 634d 06be
00000280: e6f1 c4bd 2bee 2bbc 9826 9b3d ca19 f93c
00000290: b98f 043d 824d d3bc 2eb0 2ebd baa1 6e3c
000002a0: 9e10 d4bb 6836 793d c7c0 07bd 814d 9b3c
000002b0: 6797 783d 6493 a4bd 0e39 2e3d b32d 81bb
000002c0: 6107 b73d 7788 793d f2b5 8fbd 37d1 2d3d
000002d0: 37b3 23bc 5632 f83c 951c 8dbd 9f74 ae3d
000002e0: 17fa d6bb a048 a7bd e04a acba f5ee aa3d
000002f0: 37dc df3c ba69 92bd 4790 b2bd c9b3 b2bc
00000300: eab1 a73d 1d3b 833c 77f7 fe3c 53a9 f23c
00000310: 2726 f83d dd47 68bc 2e53 00bd f544 60bd
00000320: 5a89 e9bb 2f0f 003d 875b d8bc 3709 78bb
00000330: 2066 e33c c735 253d efb9 38bc 0070 54bb
00000340: 8f39 13be d4b5 f63d 9cd5 003e 5805 c5bd
00000350: 89a9 cb3d 224a b5bd b8c7 15bc 606f 203c
00000360: 07ba adbd 31ce be3d 91dd e1bc b6ba d6bd
00000370: 510c db3c 8a77 193e 6fff 913d 0543 b9bd
00000380: cf99 55be b438 0b3d 6ae5 6bbd 85c2 fd3d
00000390: b0fd 85bd 1990 9f3c d17a 663d 4df9 73bd
000003a0: a7bb a6bd be7d 5cbe 700d 613c 890e ba3d
000003b0: 974e d8bb ac16 603e 7952 09bd a1d2 ce3c
000003c0: 4445 f7bd b6c6 c4bd cbc3 3c3d 8482 193e
000003d0: 50c4 ec3d a629 3d3e 028d 31bc 667a e5bb
000003e0: dd38 30bc 789c 253e 9b5e 183d 8b28 62bd
000003f0: f463 6dbd 4245 edbd 0091 be3d 57e3 8d3d
0.020387055 -0.00018488872 0.011643374 0.091645665 -0.030938366 0.054771565 0.083707094 0.04211481
-0.072606936 0.08549538 0.022508377 0.08643733 0.015196914 -0.015656954 0.028856454 0.008760829
0.10894707 0.117436305 0.16149421 0.021329738 0.087776154 -0.07407465 0.042612158 0.008209094
-0.1162718 -0.013456543 -0.023809968 0.11276663 -0.029863074 -0.050490495 -0.06254444 -0.037344735
0.06290114 -0.01207149 -0.038915522 0.06706809 -0.14519684 0.023078004 -0.041994005 0.081199676
-0.063870154 -0.005590172 0.05151558 0.056350257 -0.04323055 0.07355663 0.050588243 0.069708124
-0.050454233 -0.07508306 -0.1952581 -0.0070495997 0.07206604 -0.0500217 0.037881974 0.048304852
0.073035315 -0.017680498 -0.10439575 -0.033335347 -0.028419765 -0.12964994 0.023553198 0.14865267
-0.032920092 -0.054817908 -0.095926486 -0.0025101397 -0.012409332 -0.057667106 0.055402912 -0.008146791
-0.035263307 0.015467836 -0.031119242 0.11468368 0.042865656 -0.05052279 0.022609504 -0.015910469
-0.015670652 0.06852592 -0.07534619 -0.09660057 0.06296595 0.09558795 0.00419152 -0.013208156
0.06518179 0.031971127 -0.026753884 -0.034711074 -0.013133453 0.07868999 -0.08829118 -0.0020752305
-0.0032827123 0.02451994 0.07374726 -0.14393406 0.072198816 -0.069110215 0.0021105253 0.076325715
-0.09906856 0.10288491 -0.024653703 -0.036885325 -0.043127313 0.037289027 -0.008229825 0.007937123
0.08922585 0.06251777 0.0599077 -0.0867489 -0.13031888 -0.045326408 -0.02488616 0.01169066
0.027992273 0.03258354 -0.047593627 -0.14965308 0.042971153 0.042942952 -0.020490432 -0.029916277
0.104190044 0.017135596 -0.01372107 0.032459658 -0.09636222 -0.20433608 -0.061877187 -0.17631443
0.051816046 0.11195168 0.026745362 0.016569922 0.028508577 0.00027033832 -0.055819266 -0.096989274
-0.1140836 0.007801791 -0.02099704 0.073029995 0.006809965 -0.0702823 0.092084184 0.1511039
0.042979404 -0.013009732 -0.0044032214 -0.0683899 0.023074657 0.0073671415 -0.046301007 -0.13115458
-0.09616451 -0.010493795 0.075757205 0.030407805 0.032363627 -0.025793795 -0.042648487 0.014564926
-0.0064717075 0.0608429 -0.03314283 0.018957855 0.060691264 -0.08035925 0.04253488 -0.0039422153
0.08936954 0.06092116 -0.07017125 0.04243585 -0.009991459 0.03029744 -0.06890217 0.085183375
-0.0065605748 -0.08168149 -0.0013144873 0.08346359 0.027326686 -0.07149072 -0.08718925 -0.021814244
0.08188231 0.016019398 0.03112386 0.029621756 0.12116652 -0.01417729 -0.031329326 -0.054753263
-0.0071269693 0.03126448 -0.026410831 -0.003784729 0.027758658 0.04033449 -0.011274799 -0.003241539
-0.14377426 0.120464 0.12581486 -0.0962016 0.09944446 -0.0885203 -0.009141855 0.009792179
-0.084827475 0.09316672 -0.027571471 -0.10484831 0.026739271 0.14987007 0.07128798 -0.09045986
-0.20859455 0.033989623 -0.057591833 0.12390617 -0.06542528 0.01947789 0.05626947 -0.059563924
-0.081412606 -0.21532342 0.013736114 0.090848036 -0.0066011655 0.21883649 -0.033525918 0.02524692
-0.12073758 -0.096082136 0.04608516 0.14991194 0.11560881 0.18472919 -0.010836842 -0.0070031164
-0.010755745 0.1617297 0.037199598 -0.055214446 -0.05795665 -0.115854755 0.09305 0.06928127

tbls_list.0.mha.kproject.weight f4 [64, 64]
00000000: cada 1f3e c677 32be 59d5 8abc 1fbb 353d
00000010: 1849 ae3d d164 ba3d 6feb 123e 69ea 153e
00000020: 591a 5ebb cedb e7bd 792f 933d 8833 2c3e
00000030: 540a 5ebd 3649 393d e8ac 7f3d ea77 823d
00000040: 873e b8bd 273a 9abd c50f 8a3d 7e71 d0bd
00000050: d640 373e adf9 f6bc 176f 903e 62b9 4ebe
00000060: eed6 9cbd 455e cd3d 134b 14bd 4fb9 b8bd
00000070: fe76 38bd 8424 4ebe 8c15 a53d 1833 0c3d
00000080: 67e4 243e 9402 04b8 3022 bb3d f794 a83d
00000090: 9cc2 7cbd 1072 ae3d 01fc 13be 18ef 003e
000000a0: fc81 8cbc 6e08 cabd eeb4 953c da08 063d
000000b0: 45f8 ee3c 8b54 ccbd 48b7 21bd ee0e 463e
000000c0: e265 9f3c b726 6c3c 200b 9b3d aa43 013e
000000d0: 7785 8a3d ce27 ee3b aa73 fd3d da1f 733c
000000e0: 5c9f a43c c926 f8bd c0c6 bfbc 4b11 233e
000000f0: 74f4 d8bd e7e0 e639 cbed 4a3d 74d6 a8bc
00000100: 9420 473d a02c 223d ca3a fa3d 2908 1ebe
00000110: 5962 b63d 9b91 3c3e 7b19 883d 4814 51be
00000120: a8f4 e63c 979d e13d 733e 2a3e d4e6 6a3d
00000130: 9b38 d13b 1e08 293d 0b5b 3a3c c918 83bb
00000140: 27c8 6f3e 1ba5 623e 6b94 b03c 86eb a3bd
00000150: 084a 523d 0ab3 1f3e 2422 0cbe ab20 213e
00000160: 9689 103e 9338 b9bd 0cb8 da3d 3e38 8dbc
00000170: 1186 053e 99b3 3c3e ff73 33bd 5879 b5bd
00000180: 86dc 84bd 33fd 6fbd ac55 1fbb be96 12be
00000190: f51b 79bd cd47 243d fcc2 113e a431 3d3d
000001a0: e69c b9bd ea75 8f3e a0e7 0f3d 1cae abbc
000001b0: 6d69 a3bd ca60 4a3d b28d 7dbd 7c20 d13c
000001c0: 271f f9bd 27d9 bd3c 17b4 47be 8633 d9bd
000001d0: 70ea c9bd e8e0 89bd e4d1 c0bd 4f3c 35be
000001e0: 6e8e 283b 2f58 95bd c371 1d3e 81be ef3c
000001f0: f8d8 b43d 6cc2 d9bc 7dd0 3e3d 1a17 273e
00000200: 4c6e 3ebe 2cd7 c5bd eeaf 27be bb40 a63d
00000210: 7d2a 103e 685c dcbd 3b99 d93d 8279 b83c
00000220: b2e2 bfbc c5df f6bd 75cc a6bd c84c 1bbe
00000230: 8543 8ebd 5cb5 523d 3671 5e3d 207d 13be
00000240: da56 36be 038f 7ebe 5088 0cbd fe53 4e3e
00000250: 25a4 8dbd 9721 393d 9eb5 243e 5eef fdbd
00000260: b7eb 16be bcfd 183d 6be6 fdbc 3f14 95be
00000270: 45d8 31bd 3fbf a8bd 0ca3 2e3d 91e9 433d
00000280: 4b1f e2bc 8608 36be c8bb e43c efaa cabc
00000290: 2059 0b3e 9855 983d 9e1f f83c 1967 343e
000002a0: 70b5 2a3e 0cea 1e3d 15ac 4c3e 0d89 fcbd
000002b0: 3bc1 653e c610 0bbe 0460 5b3c e470 133e
000002c0: ad0f 133e 453c 1fbe 3cb1 863e 079d 9e3d
000002d0: a73f a13d aaa2 0a3d 61b2 173e aced 433e
000002e0: 7a05 063e ea74 73bb b027 13be 5b91 8fbd
000002f0: 570f 1dbe 6fff 4e39 1cad 72bc fecd 3c3b
00000300: a706 a2bd d710 0e3e fffc 5d3e bda8 39bd
00000310: 2f68 81bd 3bd1 c33a 9f5c 863d f670 8ebe
00000320: ffac 383e c8de 4a3d 13aa 41bd 3f70 493d
00000330: 1cc4 fa3d 782c 08be f5f4 0ebe 2ca4 ac3d
00000340: f8b4 0f3c 9dbc 193e fd63 483e eb31 45bd
00000350: 64bb bebd 64b7 1a3e 0620 67be 1a09 b73e
00000360: cc04 f9bd 4c6a 02be 2119 c3bd 64c8 f03c
00000370: 6b24 503d d533 453e 3edc 3e3e d68a 203e
00000380: 5571 a3bc 5507 e3ba df89 fc3c 8600 9e3d
00000390: c8dd 123e 0093 e1bd 7a14 eb3c b577 453d
000003a0: 2aa6 d3bd 1959 373c bfd2 4bbe fc35 18bd
000003b0: ba8a 22bd 5593 7a3d 3ad9 66bd 7784 43be
000003c0: 2d6c 3ebe ff48 8c3d aa23 9fbb 0c0c 2cbd
000003d0: 63a2 21be cbf4 1abb be7f 01be 145d f93c
000003e0: 521a afbd 98ca 163c d279 c23d 2e5f 143c
000003f0: eb2b 093d 3a30 a83d c687 b53c 85eb 553e
0.15610805 -0.17428502 -0.016947435 0.044367906 0.08510035 0.091012605 0.14347623 0.14640202
-0.0033890216 -0.11321221 0.07186789 0.16816533 -0.05420907 0.045235835 0.062420756 0.06370528
-0.08996301 -0.07530623 0.06741289 -0.10177897 0.17895827 -0.030148352 0.28209755 -0.20187905
-0.07658182 0.10027746 -0.03620441 -0.0901972 -0.045035355 -0.20131117 0.0806075 0.034228414
0.16102754 -3.1473654e-05 0.0913738 0.08231538 -0.06170903 0.085178494 -0.144516 0.12591207
-0.017151825 -0.09864889 0.01827475 0.032723285 0.029171119 -0.09977063 -0.03948143 0.19341633
0.019457761 0.014413527 0.07570481 0.12623468 0.06763738 0.0072679287 0.12375577 0.014839137
0.02009552 -0.12116773 -0.023410201 0.15924565 -0.10593501 0.00044036584 0.049543183 -0.020610072
0.048615053 0.03959334 0.122182444 -0.154328 0.08905477 0.18414919 0.06645485 -0.20417893
0.028192833 0.11016386 0.16625385 0.05734904 0.0063849217 0.041267507 0.011374245 -0.0040007574
0.23416196 0.22133295 0.021555146 -0.08003907 0.051340133 0.15595642 -0.13684899 0.15735118
0.14114985 -0.09043994 0.106796354 -0.017238732 0.13039424 0.18427886 -0.043811794 -0.08861035
-0.06487374 -0.05859108 -0.002431254 -0.14315316 -0.060817678 0.040107537 0.14234537 0.04618992
-0.09063129 0.2801965 0.035133004 -0.020957045 -0.07979093 0.04940871 -0.06190271 0.025528185
-0.12164145 0.023174835 -0.19502293 -0.106055304 -0.098591685 -0.067323506 -0.094150335 -0.17698787
0.002571966 -0.0729221 0.15375428 0.029265644 0.08830446 -0.026581965 0.04658555 0.16317406
-0.18596762 -0.096601814 -0.16375706 0.08117815 0.14078708 -0.107598126 0.106249295 0.022518877
-0.023423526 -0.120543994 -0.08144466 -0.15166008 -0.06946472 0.05144249 0.054307185 -0.144032
-0.17806569 -0.24859242 -0.034309685 0.20149228 -0.06916074 0.04519805 0.16084906 -0.12399171
-0.14738356 0.037351355 -0.03099366 -0.2911701 -0.04341914 -0.08239602 0.042635962 0.04783017
-0.027602812 -0.17776689 0.027921572 -0.02473971 0.13608217 0.07438201 0.030288514 0.17617454
0.16670775 0.038797423 0.19987519 -0.12330828 0.22436993 -0.13580617 0.013389591 0.14398533
0.14361449 -0.15550335 0.26307094 0.07744794 0.07873469 0.033846535 0.1481414 0.19133633
0.13088027 -0.0037148544 -0.14370608 -0.07010146 -0.15337883 0.00019740847 -0.01481178 0.0028809304
-0.07911425 0.13873611 0.21678542 -0.045326937 -0.063186996 0.0014939675 0.06560635 -0.27820557
0.18034743 0.049528867 -0.047281336 0.04917931 0.12244436 -0.13298213 -0.13960631 0.08429751
0.008771174 0.15013357 0.19569393 -0.04814331 -0.09313086 0.1510902 -0.2257081 0.3574913
-0.12159118 -0.12735862 -0.09526277 0.029392429 0.05081598 0.19258054 0.18638703 0.15677962
-0.019951502 -0.0017320911 0.03082746 0.077149436 0.14342415 -0.11014366 0.028696287 0.048209865
-0.10334428 0.011190676 -0.19904612 -0.03716086 -0.03968308 0.061175663 -0.056359507 -0.190935
-0.18595953 0.068498604 -0.0048565464 -0.042003676 -0.15784602 -0.0023644443 -0.12646386 0.03043989
-0.08549942 0.009203576 0.09495892 0.009055896 0.03348915 0.082123235 0.022159468 0.20890625

tbls_list.0.mha.layernorm.bias f4 [64]
00000000: d43e 773d c010 97bd 1347 0b3d 992e 8cbd
00000010: af52 4d3d 64e9 81bd dac1 eabd aaf4 71bc
00000020: e552 263c 68cc 053e 9dcb a4bd eece c4bd
00000030: 4790 a7bd 97f2 173d 52f2 ed3d f597 82bd
00000040: 63a4 01bd 6d3e 21bc 8145 84bc f28d c9bb
00000050: f3d0 3ebd e9fb 2fbd be61 08be 88eb 8dbc
00000060: 0e10 663d c098 383d d6bf 0dbe bed6 903d
00000070: 517e 6b3d 1f27 81bd 47a8 87bd f6fb cbbc
00000080: a8ae 4cbc 8d5a ef3d 89fb d5bc 731a 13bc
00000090: 06d7 83bc 1856 043e f0be a1ba 9f7d 173e
000000a0: 70e5 9fbd 10e2 cc3c 2384 f6bc d722 293c
000000b0: 3d49 203e 998f 523d 9d98 1f3c 7d52 46bd
000000c0: 6a2b c23d 6d48 813d 8acf 55bd 175b 9b3d
000000d0: 29b8 863d 467e dbbd 1ba4 05bd c0a0 aabc
000000e0: 3bb0 babd 1458 0bbd 5f5e b8bd 774a 5f3d
000000f0: b4ae ffbc cdb2 af3c e9c4 98bd ae44 fe3d
0.060362652 -0.07376242 0.03400333 -0.06844825 0.05012768 -0.06343344 -0.114627555 -0.014767805
0.0101515995 0.13066256 -0.08046649 -0.09609781 -0.081818156 0.037096586 0.116184846 -0.0637664
-0.031650912 -0.009841544 -0.016146423 -0.0061509544 -0.04658599 -0.04296485 -0.13318536 -0.017324224
0.056167655 0.04506755 -0.13842711 0.07072209 0.05749351 -0.0630629 -0.06623893 -0.024900418
-0.012492813 0.11687193 -0.026120918 -0.008978474 -0.016093742 0.12923467 -0.0012340229 0.14794014
-0.078074336 0.025010139 -0.030092305 0.010323248 0.15652938 0.051406477 0.009740976 -0.04841851
0.09480937 0.06312642 -0.052199878 0.075857334 0.065780945 -0.10717444 -0.032627206 -0.020828605
-0.091156445 -0.034019545 -0.09002375 0.054514375 -0.031211235 0.021447564 -0.07459433 0.12415443

tbls_list.0.mha.layernorm.weight f4 [64]
00000000: d2a8 7d3f 7edf 803f 17f8 703f 99c9 813f
00000010: 499e 7b3f 4390 823f fef2 813f 138e 853f
00000020: d589 783f e6c0 853f 68fd 813f 3e31 803f
00000030: 7b62 873f 0beb 843f 22ba 843f e641 813f
00000040: 3948 7c3f 0a1f 813f 1878 873f e320 843f
00000050: a510 883f b3eb 883f 088c 833f 7f61 803f
00000060: 078e 7d3f 7ba8 813f 37a1 873f 2603 7f3f
00000070: 8cd7 833f 6284 823f 3fd6 833f c6da 823f
00000080: f460 823f 766d 7e3f cffe 753f 7188 773f
00000090: abbe 803f 817d 893f 0822 823f 04da 7e3f
000000a0: 49a8 6e3f fa85 803f cf3b 6a3f c2be 843f
000000b0: 360c 813f fd76 6a3f 7c15 813f 150e 673f
000000c0: 1c8c 7c3f aabf 7e3f fe22 843f e56b 833f
000000d0: 5508 783f 5dfb 853f cf20 803f 9b3a 7b3f
000000e0: 2a4f 873f c402 773f 2492 733f 5347 813f
000000f0: 3aa8 793f 6d11 783f 5860 763f ec76 843f
0.99085724 1.0068204 0.94128555 1.0139648 0.982884 1.0200275 1.015228 1.0433983
0.97085315 1.0449493 1.0155458 1.0015028 1.0576929 1.038423 1.0369303 1.0098236
0.98547703 1.0087597 1.0583525 1.0322536 1.063008 1.069693 1.0277109 1.0029753
0.9904484 1.0129541 1.0596074 0.9961418 1.0300155 1.019665 1.0299758 1.0223014
1.0185838 0.99385774 0.9609193 0.9669257 1.0058187 1.0741426 1.0166636 0.99551415
0.9322553 1.0040886 0.9149751 1.0370715 1.0081851 0.9158781 1.0084682 0.9025586
0.9865129 0.99511206 1.0323179 1.0267302 0.96887714 1.0467335 1.0010012 0.981363
1.0571034 0.96488595 0.9514487 1.0099891 0.9752232 0.9690159 0.9624076 1.0348792

tbls_list.0.mha.out_project.weight f4 [64, 64]
00000000: 79ca 73bb fd06 6d3d b69a 013e 1528 ebbd
00000010: 6e86 0bbe 151f 73bd b02c 8e3e 309b adbd
00000020: fb7f 33be 5a1b ebbd c403 b3bd 3ee1 723d
00000030: df66 41be e369 f63d 6b19 71bd 58e7 16be
00000040: 36cd 55bd 1596 98bd c3b4 5fba 42b7 4a3c
00000050: ff69 be3c b4b9 bcbd 3067 5abd 2ac5 643d
00000060: c120 b9bc d9d3 06be bb98 02be b079 14be
00000070: 5e95 823e 0349 523d 7256 e1bd 617e 8abe
00000080: e078 61bd fd98 0bbd d4c3 6b3e 62d9 193c
00000090: 1f46 dc3d b9f5 dabc 4fdd 85bd c0f6 43be
000000a0: c785 053e 082b e43d 6f13 543c 7805 433d
000000b0: 5656 e1bd 6848 c13d 997b a8bd 98d2 dc38
000000c0: 387f 06bd 829c a0bd a0d6 0a3e 93ed c9bc
000000d0: 2ccd 083e dcbb fbbd 6381 1e3d 5980 0cbe
000000e0: 8b81 bc3d 8ca9 6bbd 12d8 34be 3ac9 313c
000000f0: b367 8ebd 4039 a1bb 39d5 f7bc 11e3 42be
00000100: a062 15be 61f7 bc3c 2a10 933d cd50 0ebe
00000110: 1df2 433e d9a8 80bc 6248 1c3d a41d 55bd
00000120: 429d cc3c 015f 253c 49fe 16be 08fe d43c
00000130: c966 113e 192e 12be f474 a9bd 53b8 a23d
00000140: d695 bfbd 2588 25bd cd89 203e 2737 4e3e
00000150: 16df fbbd e337 353e c247 843d 321c 14bc
00000160: dae6 8fbc b6d7 36be 4879 a7bd ab65 bd3c
00000170: 2547 b33c b385 19be 2ffa cdbd 2ac4 913d
00000180: 4476 693c 4c8c d83d c8d8 4f3e 1872 e4bd
00000190: 0c4a bf3b 07b1 cd3d e72c 0d3e 0cd8 24bd
000001a0: f08c bfbc 8d68 3c3e f832 92bc 8635 d3bc
000001b0: fc33 043e 1901 2fbb d355 c83d 6774 0b3e
000001c0: 85b4 a13d 2d69 8f3d afd3 09bd 10db 873d
000001d0: 95f0 d83d 1460 d73d cb24 07be d462 9f3e
000001e0: e8f0 173e ea33 0ebe 1d01 46bd 966c 3fbd
000001f0: 3089 5abe c291 203e fa1a 0ebe 1d35 c0bd
00000200: 960d 5c3e 412d 653e 5237 ebbd 0506 dd3c
00000210: 4dc5 a93d f2a9 e93c 3d29 a3bc 266e b43c
00000220: b3e1 67be 7c0f 273d 1d61 5dbd 1ceb 33be
00000230: 977a c6bb 210e 10be a8ec 093e 64e1 ac3d
00000240: 799a 49be bdfb babc 9608 bd3d 7285 d83c
00000250: 7d81 573c 3a0e 403b 1599 2cbe d3f7 84bd
00000260: 48ef 863d 6fe3 ffbc 8b60 a73d eb97 8ebd
00000270: bbfb 40be 1ee8 683d 230f 2f3d 089d a8bd
00000280: b8ad 9b3d 64ff 233d fd42 8fbd a383 29bd
00000290: e920 013d 3ad2 403b a08d 09be b3c1 b03c
000002a0: b036 0abd 0f94 aa3d dec0 473d 6e66 56be
000002b0: 6a9a f83c 776e eebd cdc9 a9bd d1f3 b43d
000002c0: 0277 c73d ed49 c73b 7716 0cbe ea2d 10bb
000002d0: 915b 803c f701 f53d 65b5 f2bd 57a6 cabd
000002e0: 1805 1fbe ea3a 3b3e 870b e1bd 7e79 a6bd
000002f0: caff ccbd f48a 13be 6500 fcbd 1b76 0fbe
00000300: 5121 e33d 4d69 9e3d d7c0 8a3d 47e3 d23b
00000310: 761f 8bbd 34b7 a7bd 0cdf 523e ac31 59bb
00000320: 740f c2bc 9abe d03d 0fb8 d5bb c4ed 7cbd
00000330: 1790 423e bca5 7c3d 5439 75bd ef7d e2bc
00000340: bfd9 8f3d ecd6 c8bd a3a5 523d dd05 b2bd
00000350: 85cd ce3d 8b99 14be 0b49 aebc 508a 953d
00000360: 5846 5cbd f004 773e 96db 9abd 058e d6bd
00000370: a315 2cbd e83a 75bd 3d70 88bc 92ee b43d
00000380: b001 803d 299a 30be 5d4f 21bd a771 363d
00000390: a299 243d cb01 0abe 5a16 d3bd 3a0f 523e
000003a0: 0e01 98bc 8069 77bc 3812 903c 0a97 60bd
000003b0: 716f c8bd ed9a abbb d790 c83d 795a 1bbd
000003c0: 4262 a5bd a07f 46be 676a 0ebe 3ca9 903d
000003d0: 1138 033e 99ab 223e bc7f 78bd d07a f1bd
000003e0: 7bf4 1f3e 92bb b63d 1d6a 973d 9358 9a3d
000003f0: b403 d03d d8a7 82bd 838d 543d c849 e4bd
-0.003719954 0.057867993 0.12656674 -0.114822544 -0.136255 -0.059355814 0.2776847 -0.08476865
-0.1752929 -0.11479826 -0.087409526 0.05929684 -0.18886898 0.12031915 -0.05886213 -0.14736688
-0.052197658 -0.07450501 -0.00085337105 0.012372794 0.023243902 -0.092151076 -0.053321064 0.055852093
-0.022598626 -0.13166751 -0.12753575 -0.14499545 0.25504583 0.05133916 -0.11002816 -0.27049544
-0.055046916 -0.034081448 0.23023921 0.009390207 0.10755562 -0.026728498 -0.06536352 -0.19137096
0.13039313 0.1114102 0.012944086 0.047612637 -0.110027954 0.094376385 -0.082266994 0.000105296436
-0.03283617 -0.078423515 0.13558435 -0.024649417 0.13359517 -0.12291691 0.03869761 -0.13720836
0.09204396 -0.05753474 -0.1766055 0.010851199 -0.06953373 -0.004920155 -0.03025304 -0.19031931
-0.14588404 0.023067178 0.071808174 -0.1389801 0.19135328 -0.015705513 0.038154967 -0.05203022
0.02497733 0.0100934515 -0.1474544 0.026000038 0.14199366 -0.14275397 -0.0827426 0.07945313
-0.09354751 -0.04041304 0.15677567 0.20138226 -0.1229841 0.176971 0.06458999 -0.009039925
-0.017566133 -0.17855725 -0.081774294 0.023119768 0.02188451 -0.14992408 -0.10057484 0.071174935
0.014249388 0.105736345 0.20297539 -0.11154574 0.0058376845 0.10043531 0.1378666 -0.0402451
-0.023382634 0.18399258 -0.01784657 -0.025782358 0.12910455 -0.0026703535 0.09781995 0.13618623
0.078957595 0.070024826 -0.033649143 0.0663358 0.105927624 0.10516372 -0.13197629 0.31130087
0.14837992 -0.13886991 -0.048340905 -0.046734415 -0.21341395 0.15680602 -0.13877478 -0.093851306
0.21489558 0.22380544 -0.11485161 0.02698041 0.08289585 0.028523419 -0.019917125 0.02202518
-0.22644691 0.04078625 -0.054047693 -0.17570156 -0.0060570943 -0.1406789 0.13469183 0.08441427
-0.19687833 -0.022825116 0.09230153 0.02643082 0.013153431 0.0029305355 -0.16855271 -0.06492581
0.06588608 -0.031236378 0.08172711 -0.0696257 -0.18846028 0.05686199 0.042739045 -0.08233076
0.076014936 0.04003848 -0.06995199 -0.041385304 0.031525526 0.002942218 -0.13432932 0.021576738
-0.03374356 0.08329021 0.048767917 -0.20937511 0.030347068 -0.11642163 -0.082904436 0.08835567
0.09739496 0.0060818107 -0.13680445 -0.0022000023 0.015668662 0.119632654 -0.118510045 -0.09895008
-0.15529287 0.18284193 -0.10988527 -0.081286415 -0.100097254 -0.14408475 -0.12304763 -0.14009897
0.11090339 0.07734928 0.067750625 0.006435785 -0.0679311 -0.0818924 0.20592898 -0.003314118
-0.02368901 0.10192604 -0.0065221856 -0.06175019 0.19000278 0.061681494 -0.059869125 -0.02764794
0.07023954 -0.09806618 0.051427495 -0.086925246 0.100977935 -0.14511697 -0.021275064 0.07301772
-0.053778023 0.24122977 -0.07561414 -0.10476307 -0.042012822 -0.05987063 -0.016655082 0.08834566
0.06250322 -0.17246307 -0.039382327 0.04454198 0.04018558 -0.13477246 -0.103069976 0.20513621
-0.01855519 -0.015100837 0.017586812 -0.054831542 -0.09786881 -0.0052369745 0.09793251 -0.03792808
-0.08075382 -0.19384623 -0.13907777 0.07063529 0.12814356 0.15885772 -0.060668692 -0.11791003
0.15620606 0.08922495 0.073932864 0.075364254 0.10156956 -0.0637967 0.05189277 -0.11146885
