degradation_transformer_model_rlhf.safetensors (safetensors, 866672 bytes, 38 tensors)

lm_head.weight f4 [1000, 64]
0	0x3f379342	0.7170907
1	0x3ed7282c	0.42022836
2	0xbfafce21	-1.373478
3	0x3e8c1919	0.27362898
4	0xbf00f8d4	-0.5037968
5	0xbf139c12	-0.5766002
6	0x3fd850e3	1.6899685
7	0xbf46752d	-0.77522546
8	0x3e15b180	0.14618492
9	0x3ecb609a	0.3972214
10	0x400c5652	2.1927686
11	0x3ff31c4d	1.8993012
12	0x3ec2c739	0.3804262
13	0x3e87f758	0.26555896
14	0xbf994ef9	-1.1977226
15	0xbfc33d92	-1.5253165
16	0xbe4a6953	-0.1976674
17	0xbfe68b6c	-1.8011298
18	0xbea8300d	-0.3284916
19	0xbf0fa3e8	-0.56109476
20	0x3f3a51fd	0.72781354
21	0x3f301c95	0.6879361
22	0xbf3f5966	-0.74745786
23	0xbf48fb89	-0.7850881
24	0xbf7e6430	-0.99371624
25	0xbe6c24a9	-0.2306086
26	0x3fe0d6d4	1.756556
27	0x3eaa0838	0.33209395
28	0xbe9d3161	-0.30701736
29	0xbf26d543	-0.6516916
30	0x3f4babed	0.7955921
31	0xbefdfa00	-0.49604797
32	0xbf57fc51	-0.8436938
33	0xbfd3c898	-1.6545591
34	0x3e6afaf5	0.22947295
35	0x3eecbaaf	0.46236178
36	0xbf855480	-1.0416412
37	0xbf00a219	-0.5024734
38	0xbf556b68	-0.83367014
39	0x3fa0071f	1.2502173
40	0xbe22a310	-0.15882516
41	0xbffd9ab2	-1.9812834
42	0xbecb08bb	-0.39655098
43	0x3f5dc23a	0.8662449
44	0x400c734c	2.1945372
45	0xbf8c85fd	-1.097839
46	0x3eae0e95	0.339955
47	0xbff7eb21	-1.9368631
48	0x3fe70187	1.8047341
49	0x3ef4ea7f	0.47835156
50	0xbea1adda	-0.3157795
51	0x3f00c88b	0.50306004
52	0xbfe061bc	-1.7529826
53	0xbf3c0c57	-0.7345633
54	0x3f92eda2	1.147877
55	0xbe290538	-0.16505897
56	0x3fb94e1d	1.4476963
57	0x3b402908	0.0029321332
58	0x3f45a853	0.7720997
59	0xbfdf7097	-1.7456235
60	0xbf5b6f1e	-0.85716426
61	0xc0150a6f	-2.3287618
62	0xbe908073	-0.28223
63	0x3e97d372	0.29653507
64	0x3fbcb7b0	1.4743557
65	0xbda14e09	-0.07876212
66	0x3f727823	0.94714564
67	0x3f170b66	0.5900177
68	0xbf694f5f	-0.91136736
69	0x3e6e6383	0.23280148
70	0x3f424f13	0.7590191
71	0xbf0734ca	-0.52814925
72	0xbecd40c0	-0.40088463
73	0x3f902134	1.1260133
74	0x3fae1e20	1.3602943
75	0x3eb9cc4f	0.36288688
76	0xbe0c1c2f	-0.13682626
77	0xbfbe16e5	-1.4850737
78	0x3f5962b1	0.84916216
79	0xbf1edbe5	-0.6205428
80	0x3dda74b1	0.10666788
81	0x3f097d9a	0.5370728
82	0xbf736d4e	-0.9508866
83	0xbe5f5a16	-0.21811709
84	0xbd8375f3	-0.064189814
85	0x400a97e7	2.1655214
86	0x3e689f84	0.227171
87	0xbf122359	-0.57085186
88	0xbf95f277	-1.1714619
89	0xbf4f53c3	-0.80987185
90	0x3fbf548c	1.4947677
91	0x3f6273ff	0.88458246
92	0x3f575125	0.8410819
93	0xbfcc5605	-1.5963751
94	0x3ef81eba	0.48460943
95	0x3ea17782	0.3153649
96	0xbf04d7da	-0.51891863
97	0xbf332b26	-0.69987714
98	0xbfc8ed5a	-1.5697434
99	0xbee576b2	-0.4481712
100	0x3e8abb42	0.2709599
101	0x3f59cdd1	0.85079676
102	0xbfd3c651	-1.6544896
103	0xbf9ef867	-1.2419556
104	0x3f119f79	0.5688396
105	0x3ddeb72d	0.10874782
106	0x3ef026c1	0.46904567
107	0xbebabcfb	-0.36472306
108	0xbf8ec791	-1.1154653
109	0xbf602b42	-0.87566006
110	0xbf8fa526	-1.1222274
111	0x3f8b3013	1.0874046
112	0xbee3411f	-0.4438562
113	0xbe9a6385	-0.30154052
114	0x3ccf5cf8	0.025312886
115	0xbf35b5f1	-0.70980746
116	0xbf6d2740	-0.92638016
117	0x3f7b75e9	0.9822679
118	0x3f86e9e5	1.0540129
119	0xbfab6c2b	-1.3392385
120	0x4002bd7e	2.0428157
121	0x3f5dde99	0.8666778
122	0x3fcb0fa5	1.5864149
123	0x3f81c1b3	1.0137237
124	0xbfa44ddf	-1.2836264
125	0xbfcd41f4	-1.6035752
126	0xbf23198f	-0.63710874
127	0x3f70c3a4	0.94048524
128	0x3f30cc5c	0.6906183
129	0xbefe6566	-0.49686736
130	0x3f4f12ef	0.80888265
131	0xbfc095c0	-1.50457
132	0xbe9c4c78	-0.3052709
133	0xbf6762d5	-0.9038518
134	0x3ef66cf9	0.48130015
135	0x3f0fdd67	0.5619721
136	0x3f30fcb5	0.691356
137	0x3e0f4fc3	0.1399527
138	0x3fc7bbf9	1.560424
139	0x3f99ae65	1.2006346
140	0x3ef4de72	0.47825962
141	0xbf1477b6	-0.57995164
142	0x3d5272bb	0.051378947
143	0xbf461546	-0.7737621
144	0x3dc3f856	0.09568851
145	0xbfb19472	-1.3873427
146	0x3d68eb40	0.056864977
147	0x3e08dd27	0.13365613
148	0xbeb94423	-0.36184797
149	0x3ed531db	0.416396
150	0xbf8956a7	-1.0729569
151	0xbf476b0b	-0.7789771
152	0xbf21a82f	-0.6314725
153	0xbd7752c7	-0.060381677
154	0xbea27fdc	-0.31738174
155	0xbec142fd	-0.3774642
156	0x3d9ef593	0.07761683
157	0xbb5ffb50	-0.0034176894
158	0x403c052b	2.9378154
159	0x3f2b3a2c	0.6688564
160	0xbe5a6e63	-0.21331172
161	0x3f754f8c	0.95824504
162	0x3e89753d	0.26847258
163	0x3f0c7e6e	0.54880416
164	0x3f0365d8	0.51327276
165	0x3f13bcc1	0.5770989
166	0x402e66de	2.7250285
167	0x3d29e503	0.04147817
168	0x3e4de935	0.20108493
169	0xbf9b5b14	-1.213717
170	0xbf253454	-0.6453297
171	0x3ec0d753	0.3766428
172	0xbf200553	-0.62508124
173	0xbfaae290	-1.3350391
174	0x3fe13548	1.7594385
175	0xbf420f71	-0.7580481
176	0xbecb2b9d	-0.39681712
177	0x3e736927	0.23770581
178	0xbef98e57	-0.4874141
179	0xbfac06f9	-1.3439628
180	0x3f05334e	0.5203141
181	0x403b1af4	2.92352
182	0x3f9675d3	1.1754707
183	0xbc556790	-0.0130251795
184	0xbd44d13f	-0.048051115
185	0xbf71918f	-0.9436273
186	0x3f882e5b	1.0639147
187	0x3fb5faf0	1.4217205
188	0xbfa3d72d	-1.2800041
189	0x3f8deaac	1.1087241
190	0x3fabecc6	1.3431633
191	0xbea22682	-0.31670004
192	0x3ffdbc43	1.9823078
193	0x3f0e6feb	0.55639523
194	0x3f831649	1.0241176
195	0xbf6f9553	-0.93587226
196	0x3f863e3b	1.0487741
197	0xbfa55956	-1.2917888
198	0xbe6c15a2	-0.23055127
199	0x3de58298	0.112065494
200	0x3f84674a	1.0344021
201	0xbee373bc	-0.44424236
202	0xbef4f3fe	-0.478424
203	0xbec8a2f6	-0.3918683
204	0xbf2d56e7	-0.6771073
205	0xbf192a47	-0.59830135
206	0x4008f1a0	2.1397476
207	0x3f12ba74	0.57315755
208	0xbfa0efab	-1.2573141
209	0xbe557ea9	-0.20849098
210	0x3e97bd48	0.29636598
211	0x3fad1dee	1.3524759
212	0x3e8e1e55	0.27757517
213	0xbfc92348	-1.5713892
214	0xbebf30f7	-0.37342045
215	0xc019659f	-2.3968275
216	0xbeb3face	-0.35152286
217	0x3f9a675f	1.2062796
218	0x3e55f0ff	0.20892714
219	0xbe4b3103	-0.19842915
220	0xbf0d072f	-0.55089086
221	0xbfb13370	-1.3843822
222	0x3e7042ba	0.23462954
223	0xbee7e26b	-0.4528993
224	0xbeafe8b6	-0.34357232
225	0x3df30185	0.11865524
226	0xbf35c09a	-0.7099701
227	0xbed1d094	-0.40979445
228	0x3f044fc6	0.51684225
229	0xbf8f569e	-1.1198308
230	0x3fa5f3c2	1.2965014
231	0x3fc4b1ee	1.53668
232	0x3d75f898	0.06005153
233	0xc0399330	-2.8996086
234	0xbf2cc22b	-0.67483777
235	0xbf112a47	-0.56705135
236	0x400380ed	2.054744
237	0xbf515d38	-0.81782866
238	0x3f52bf20	0.82322884
239	0x3f299d38	0.6625552
240	0xbddf7080	-0.109101295
241	0xbe9a31a2	-0.30115992
242	0xbfd32453	-1.649546
243	0xbfb50f4d	-1.4145294
244	0xbfadea51	-1.3587133
245	0x3e8e8b54	0.27840674
246	0xbf5bcb6a	-0.8585726
247	0x3f6f2c29	0.9342676
248	0xbf5bbe30	-0.8583708
249	0xc00cdcb7	-2.2009714
250	0x3fc78110	1.5586262
251	0x3fa025bb	1.2511514
252	0xbf910d8f	-1.1332263
253	0x3e1020c2	0.14074996
254	0xbfefc49b	-1.8731874
255	0x3f4fa8cb	0.8111693

tbls_list.0.ff.first_proj.bias f4 [256]
0	0xbde69da3	-0.112605356
1	0xbe0a8c2c	-0.13530034
2	0xbe942f1e	-0.28942198
3	0xbdbc63c7	-0.091987185
4	0xbdd9dd1a	-0.10637875
5	0xbe234074	-0.15942556
6	0xbe31cc1a	-0.17363015
7	0xbe102fc7	-0.14080726
8	0xbe4cc845	-0.19998272
9	0xbd91fd74	-0.071284205
10	0xbdb2d813	-0.08732619
11	0xbe4366ac	-0.19082135
12	0xbe18a9e7	-0.14908563
13	0xbd7d1ea7	-0.06179681
14	0xbdd386e9	-0.103284664
15	0xbe3ee81d	-0.18643232
16	0xbde37962	-0.11107136
17	0xbd8a29cb	-0.067462526
18	0xbd463a62	-0.048395522
19	0xbd6d48f0	-0.057930887
20	0xbd0fb95f	-0.035088893
21	0x3c4a9f28	0.012367047
22	0x3d034291	0.032045905
23	0xbe362df0	-0.17790961
24	0xbe2aaed9	-0.16668262
25	0xbe4d657e	-0.20058247
26	0xbd17a8cd	-0.037026215
27	0xbe80ff20	-0.25194645
28	0xbd859439	-0.06522412
29	0xbe026631	-0.12734295
30	0xbe768cd7	-0.24077164
31	0xbe4401fb	-0.1914138
32	0xbe8ff014	-0.28112853
33	0xbdd2fe2c	-0.10302386
34	0xbd199c16	-0.03750237
35	0xbe7e8e4f	-0.24858974
36	0xbe05691d	-0.13028379
37	0xbe7e191f	-0.2481427
38	0xbd2787c6	-0.040900968
39	0xbd8156df	-0.063153975
40	0xbd4352e1	-0.04768646
41	0xbe5cfe8c	-0.21581477
42	0xbe06e4ae	-0.13173172
43	0xbe16687f	-0.146883
44	0xbe6ba7c0	-0.2301321
45	0xbe1c3bc7	-0.15257178
46	0xbd82bfce	-0.0638424
47	0xbe28c015	-0.16479523
48	0xbe0b6510	-0.13612771
49	0xbe412232	-0.188607
50	0xbd9ef2aa	-0.07761128
51	0xbe1b22ba	-0.15149966
52	0xbe97951b	-0.29605946
53	0xbe0ad0ff	-0.13556288
54	0xbe964625	-0.2935039
55	0xbd0c332a	-0.03422848
56	0xbd48e557	-0.04904684
57	0xbe362db2	-0.17790869
58	0xbe4941c7	-0.19653998
59	0xbd3a881a	-0.045539953
60	0xbe141c08	-0.14463818
61	0xbd423d8a	-0.04742197
62	0xbe6f908c	-0.23394984
63	0xbd470494	-0.04858835
64	0xbcab7c36	-0.020933252
65	0xbddcf158	-0.1078822
66	0xbd41315d	-0.047166217
67	0xbdaa550c	-0.08317003
68	0xbe482602	-0.19545749
69	0xbe15b594	-0.14620048
70	0xbde0848d	-0.10962782
71	0x3b9b86e2	0.004746304
72	0xbdfa2732	-0.12214507
73	0xbdd8bd67	-0.10583001
74	0xbe8468be	-0.25861162
75	0xbe3fb83c	-0.18722624
76	0xbe8a9067	-0.27063295
77	0xbc88e084	-0.01670862
78	0xbddd28ac	-0.10798773
79	0xbe31a640	-0.17348576
80	0xbda7e263	-0.08197477
81	0xbe63188b	-0.22177331
82	0xbda04a81	-0.078267105
83	0xbc9cbdea	-0.019133527
84	0xbe1a6c9f	-0.15080498
85	0xbe6aed62	-0.22942117
86	0xbe530612	-0.20607784
87	0xbe8f2a33	-0.27961883
88	0xbe79b8ec	-0.24386948
89	0xbd892966	-0.06697349
90	0x3b154bf2	0.0022780863
91	0xbe260385	-0.1621228
92	0xbe77366c	-0.24141854
93	0xbe0c8727	-0.13723432
94	0xbe6cd74c	-0.23129004
95	0xbe1633b2	-0.14668158
96	0xbde05160	-0.10953021
97	0xbdf9b8a6	-0.12193422
98	0xbe422a97	-0.18961559
99	0xbdce7669	-0.10081179
100	0xbdaaa7fc	-0.08332822
101	0xbea64f30	-0.3248229
102	0xbd8cfba8	-0.06883937
103	0xbda3c418	-0.07996386
104	0xbdc675d9	-0.096904464
105	0xbe336f96	-0.17523035
106	0xbdad4c2d	-0.08461795
107	0xbe1763a9	-0.14784111
108	0x3c3834b5	0.011243035
109	0xbd0f7e56	-0.035032593
110	0xbda2d7ac	-0.079512924
111	0xbe333ab5	-0.17502864
112	0xbe48b532	-0.1960037
113	0xbcf7c08c	-0.03024318
114	0xbe0fd942	-0.14047721
115	0xbd248bdc	-0.040172443
116	0xbe714ff8	-0.23565662
117	0xbd546090	-0.0518499
118	0xbe8a1448	-0.26968598
119	0xbe2b768b	-0.1674444
120	0xbbd5df5e	-0.0065268716
121	0xbdeefda5	-0.116694726
122	0xbdf7ff80	-0.1210928
123	0xbe204844	-0.15652567
124	0xbe336e5d	-0.17522569
125	0xbdcfac1e	-0.101402506
126	0xbe877937	-0.26459667
127	0xbe1a769c	-0.15084308
128	0xbd0f5844	-0.034996286
129	0xbd901eb1	-0.07037104
130	0xbd6dd6aa	-0.058066048
131	0xbd725508	-0.059163123
132	0x3c416043	0.011802736
133	0x3c0d4ff2	0.0086250175
134	0xbda0d240	-0.07852602
135	0xbd134618	-0.03595552
136	0xbdbbd203	-0.09170916
137	0xbe0706f1	-0.13186242
138	0xbe4544d4	-0.19264537
139	0xbca1e39f	-0.019761859
140	0xbe2887b8	-0.16458023
141	0xbd681ad6	-0.056666218
142	0xbe206bcd	-0.15666123
143	0xbe140283	-0.14454083
144	0xbdc9ef5a	-0.09860106
145	0xbe547072	-0.2074602
146	0xbd930626	-0.07178907
147	0xbdc92eea	-0.09823401
148	0xbe367ab8	-0.17820251
149	0xbdf5369c	-0.119733065
150	0x3c806714	0.015674151
151	0xbe7eb87d	-0.24875064
152	0xbccf6c11	-0.025320085
153	0xbd8a954a	-0.06766756
154	0xbdcd3a74	-0.10020915
155	0xbe21a4ae	-0.15785477
156	0xbdab8473	-0.08374872
157	0xbe47a4bc	-0.19496435
158	0xbd7a4e67	-0.061109927
159	0xbd883c84	-0.066521674
160	0xbe11ebf8	-0.14250171
161	0xbe539ed0	-0.20666051
162	0xbe3a9f72	-0.18224886
163	0xbdfe760f	-0.12424862
164	0xbe2a6190	-0.1663878
165	0xbdd83d1d	-0.105585314
166	0xbe5e99f2	-0.21738413
167	0xbdab46be	-0.083631024
168	0xbe04a9a8	-0.12955344
169	0xbe4d56bf	-0.20052622
170	0xbe6625f6	-0.22475418
171	0xbe24c2f2	-0.1608999
172	0xbe57176f	-0.21005033
173	0xbe78a47a	-0.24281493
174	0xbe2caf24	-0.16863686
175	0x3bed7f7a	0.0072478624
176	0xbe4afb75	-0.19822486
177	0xbe8cdb08	-0.27510858
178	0xbca9e0d1	-0.020737084
179	0xbe5f1a2d	-0.21787329
180	0xbda3fb79	-0.08006949
181	0xbde4d5f2	-0.11173619
182	0xbe6ee037	-0.23327719
183	0xbd5ac32b	-0.053408783
184	0xbe590b77	-0.2119578
185	0xbdb635f3	-0.08897009
186	0xbe6f046e	-0.23341534
187	0xbe0e6d89	-0.13908972
188	0xbdf5d463	-0.120034
189	0xbdf11652	-0.117718354
190	0xbdae91d5	-0.08523909
191	0xbd90a025	-0.07061795
192	0xbdce5c34	-0.1007618
193	0xbe38b4a8	-0.18037665
194	0xbe0834ae	-0.13301346
195	0xbd9786db	-0.073987685
196	0xbe240c4a	-0.16020313
197	0xbe59a880	-0.21255684
198	0xbe30833b	-0.1723756
199	0xbe023a6e	-0.12717602
200	0xbd8f7c87	-0.070061736
201	0xbe32e026	-0.17468318
202	0xbe04aede	-0.12957332
203	0xbe70f941	-0.23532583
204	0xbe4f65d5	-0.2025369
205	0xbe44ac2a	-0.192063
206	0xbc75dacd	-0.015005779
207	0xbe2d689c	-0.16934437
208	0xbe02ddd6	-0.12779936
209	0xbdef6290	-0.11688721
210	0xbda13a1c	-0.078724116
211	0xbdeaab03	-0.11458399
212	0x3cbf2a4a	0.023335595
213	0xbe87017b	-0.26368317
214	0xbd8508b9	-0.06495804
215	0xbe25d9b8	-0.16196334
216	0xbe00c73c	-0.12576002
217	0xbe21ec66	-0.15812835
218	0xbd8d7431	-0.069069274
219	0xbe08b645	-0.1335078
220	0xbe1c9958	-0.15292871
221	0xbda46a4b	-0.08028086
222	0xbe371a55	-0.17881139
223	0xbcfc4c2e	-0.030798044
224	0xbde40a45	-0.11134771
225	0xbdcfbe89	-0.101437636
226	0xbe6df9a8	-0.23239768
227	0xbcd56f27	-0.026053978
228	0xbe14ee32	-0.1454399
229	0xbdef72d9	-0.11691827
230	0xbe753b6a	-0.23948446
231	0x3d4c22b3	0.04983778
232	0xbdf2150f	-0.11820423
233	0xbc58cae8	-0.01323197
234	0xbe80cf7f	-0.25158307
235	0xbda87f0e	-0.08227359
236	0xbe3cf39b	-0.18452303
237	0xbe0adb5a	-0.13560238
238	0xbda913d2	-0.082557335
239	0xbe14ebac	-0.14543027
240	0xbe38c865	-0.18045194
241	0xbe2b4568	-0.16725695
242	0xbde4c5ec	-0.11170563
243	0xbe324ab8	-0.17411315
244	0xbdd6329f	-0.10458874
245	0xbe53d001	-0.20684816
246	0xbe24a938	-0.16080177
247	0xbe211ebb	-0.15734379
248	0xbe4d5514	-0.20051986
249	0xbdaa82ab	-0.08325704
250	0xbe2ceb66	-0.16886672
251	0xbe68cab4	-0.22733575
252	0xbe5a1d4b	-0.21300237
253	0xbd1bb39e	-0.038013093
254	0xbe8749e6	-0.26423568
255	0xbd567faf	-0.052367862

tbls_list.0.ff.first_proj.weight f4 [256, 64]
0	0xbdb1d440	-0.086830616
1	0xbd033891	-0.032036368
2	0x3dd071dc	0.10177967
3	0x3d6cf3b5	0.057849605
4	0xbda1e1b9	-0.07904381
5	0x3da9fbf5	0.0830001
6	0x3e3589f4	0.17728406
7	0x3d9c53c4	0.076331645
8	0x3d8aae3b	0.06771513
9	0xbe461ea8	-0.19347632
10	0x3df0e3c7	0.11762195
11	0xbd2dbf6d	-0.042418886
12	0x3d4a2b69	0.049357805
13	0xbe20ebf8	-0.15715015
14	0xbe3e69e6	-0.18595085
15	0xbda2d650	-0.07951033
16	0x3c2d67ed	0.01058386
17	0x3dda201d	0.10650656
18	0xbe02288b	-0.12710778
19	0x3e07217c	0.13196367
20	0xbd97b76c	-0.07408032
21	0x3e56a9da	0.2096323
22	0xbe582953	-0.21109514
23	0x3e02036e	0.12696621
24	0x3e13e499	0.14442672
25	0xbdd1f4bc	-0.102517575
26	0x3b4584ee	0.0030139047
27	0xbe37ab11	-0.1793635
28	0x3de75a29	0.112964936
29	0xbd3a8686	-0.045538448
30	0xbe114561	-0.14186622
31	0xbc47bb3f	-0.012190639
32	0xbc9cebf0	-0.019155473
33	0x3d9c08fb	0.076189004
34	0x3e04f730	0.1298492
35	0x3bd345ed	0.006447545
36	0x3c6fd690	0.014638558
37	0x3d1eca70	0.03876728
38	0x3e8875c8	0.2665236
39	0x3dc10b90	0.094260335
40	0xbcad20b9	-0.021133767
41	0x3e64ce6c	0.22344369
42	0x3d30ded4	0.043181255
43	0xbddee9f2	-0.10884465
44	0x3d42a012	0.047515936
45	0x3d516e49	0.051130567
46	0x3c4e7dc1	0.012603224
47	0x3c5754a9	0.013142743
48	0x3a6244a1	0.00086314423
49	0xbe12d367	-0.14338456
50	0xbe34b1ab	-0.176459
51	0xbdbd8ee8	-0.09255773
52	0x3d4495ac	0.0479943
53	0xbcb38638	-0.021914586
54	0x3b17fa2a	0.002318988
55	0xbe076fa9	-0.13226189
56	0xbd0949f4	-0.033517793
57	0xbbd42697	-0.006474327
58	0xbdab92b4	-0.08377591
59	0xbe0f3699	-0.13985671
60	0xbde5b93c	-0.11216971
61	0x3de96185	0.113955535
62	0x3e170988	0.1474973
63	0x3ca0d0c0	0.01963079
64	0xbb8d4e80	-0.0043123364
65	0x3e1c947c	0.15291017
66	0x3dc9e43b	0.09857985
67	0xbe31131f	-0.1729245
68	0x3d371509	0.044697795
69	0x3ab20693	0.0013582282
70	0xbe12b92f	-0.14328454
71	0x3e471653	0.1944211
72	0x3cb363ea	0.021898229
73	0x3d8409a2	0.0644715
74	0xbdd99c10	-0.1062547
75	0x3da34013	0.079712056
76	0xbd4d64e8	-0.05014506
77	0x3d68260a	0.056676902
78	0xbc2a9d1b	-0.010413433
79	0x3d03a881	0.03214312
80	0xbe09a9a1	-0.13443615
81	0x3e696c9c	0.22795337
82	0x3d8bd498	0.068276584
83	0xbe5398bc	-0.20663732
84	0xbe15e2df	-0.14637326
85	0x3e580b0d	0.21097966
86	0xbd4601a2	-0.0483414
87	0xbddd0d58	-0.10793561
88	0xbdfef082	-0.12448217
89	0xbe054bcd	-0.13017197
90	0x3d361487	0.04445317
91	0xbce64125	-0.028107235
92	0x3d904c70	0.07045829
93	0x3e59db22	0.21274999
94	0xbe0e253a	-0.13881388
95	0x3e0c79fa	0.13718405
96	0xbdb97065	-0.09054641
97	0x3de28a59	0.11061544
98	0x3dc1a11f	0.094545595
99	0x3d27a9ab	0.040933292
100	0x3d007685	0.03136303
101	0xbe2560c3	-0.16150193
102	0xbdc8c6a2	-0.09803511
103	0xbe4beefa	-0.19915381
104	0x3e1a8ad4	0.15092021
105	0xbe5e82e2	-0.21729615
106	0x3de4d2ae	0.111729965
107	0xbd8e97ea	-0.06962569
108	0x3e27d0aa	0.16388193
109	0xbb2db56a	-0.0026505836
110	0x3d8eccab	0.06972631
111	0xbdb7e61a	-0.08979435
112	0x3e0ababa	0.13547793
113	0x3e2ef801	0.17086793
114	0xbd0d9a59	-0.034571026
115	0xbe4f719d	-0.20258184
116	0xbd0ee813	-0.034889292
117	0xbe331e6e	-0.17492077
118	0x3db0b4c3	0.086282276
119	0xbe0ad4ad	-0.13557692
120	0x3c3318dc	0.01093122
121	0xbd509946	-0.050927423
122	0xbc0eb883	-0.008710983
123	0xbbeeb518	-0.0072847717
124	0x3daf3322	0.08554675
125	0xbde57651	-0.11204208
126	0x3e2a0ba5	0.16606005
127	0x3c1d1089	0.009586462
128	0xbdd3fc79	-0.1035089
129	0xbe98726d	-0.297748
130	0x3d1325ba	0.03592465
131	0xbd3d2366	-0.046176337
132	0xbd5dad3b	-0.054120284
133	0x3d1736ce	0.0369175
134	0x3d560832	0.05225391
135	0x3ddda9ec	0.10823426
136	0xbbe76b3c	-0.007062344
137	0xbd4bbf57	-0.049743023
138	0x3bc371a9	0.005964477
139	0x3c8779be	0.016537543
140	0xbde8475e	-0.11341737
141	0x3ca0d4c0	0.019632697
142	0xbd1f8771	-0.038947526
143	0xbb91eaa2	-0.0044530192
144	0x3cee7f13	0.029113328
145	0x3dbdb325	0.09262685
146	0x3ceaff30	0.028686136
147	0xbd5c4bdd	-0.053783286
148	0x3db6af91	0.089202054
149	0xbd0d3dd8	-0.034482807
150	0x3dbe5c3e	0.092949376
151	0xbd9d9bd7	-0.0769574
152	0x3d28490b	0.041085284
153	0xbd7d5492	-0.06184823
154	0xbd19c442	-0.03754068
155	0xbdbe74b1	-0.09299601
156	0xbd504709	-0.050848994
157	0x3e1b832c	0.15186757
158	0xbd1dfaa2	-0.0385691
159	0xbc42dd24	-0.011893544
160	0xbc843bb3	-0.016141748
161	0xbd80d9df	-0.062915556
162	0xbd576a10	-0.052591383
163	0xbd17d670	-0.037069738
164	0xbd38e62e	-0.04514139
165	0x3b9317ff	0.0044889445
166	0x3dbc39ce	0.09190713
167	0x3dcf1476	0.101113245
168	0x3d287be0	0.04113376
169	0x3d6bff50	0.05761653
170	0xbcaf1c64	-0.021375842
171	0xbd71acb6	-0.0590026
172	0x3d81ad3e	0.063318714
173	0xbc1278d4	-0.0089399405
174	0x3e02d558	0.12776697
175	0x3e117bd0	0.14207387
176	0x3d8f750e	0.07004748
177	0xbd525eac	-0.051359817
178	0xbdea4e27	-0.114406876
179	0xbd2d72d7	-0.042345848
180	0xbc898004	-0.016784675
181	0x3c3b78f0	0.011442408
182	0x3dc31802	0.095260635
183	0x3d8f5790	0.06999123
184	0xbd666977	-0.056252923
185	0xbd9507cb	-0.07276877
186	0xbd25a54f	-0.040440854
187	0x3d34c895	0.044136602
188	0x3ce253d2	0.02762786
189	0xbd6de495	-0.05807932
190	0x3d901bc4	0.07036546
191	0xbdba4adc	-0.090963095
192	0xbcb94eb2	-0.022620533
193	0x3dcaed7e	0.09908579
194	0xbddbe61d	-0.1073725
195	0xbd059db1	-0.03262109
196	0x3d49f277	0.049303498
197	0x3d814103	0.06311228
198	0xbdc50962	-0.0962093
199	0x3dc19f94	0.09454265
200	0xbdfd4e79	-0.12368483
201	0xbe29a277	-0.16565882
202	0x3d65dcb0	0.056118667
203	0x3d0596ee	0.03261464
204	0x3c27cbcf	0.010241463
205	0x3c45b33b	0.012066658
206	0x3da3c3fb	0.07996365
207	0xba8a5480	-0.0010553747
208	0x3e4068de	0.18790004
209	0x3c678fe5	0.014133428
210	0xbd545a29	-0.051843796
211	0xbd58b82b	-0.05291001
212	0xbd909a7d	-0.07060716
213	0x3d77ccc0	0.060498
214	0x3df001f3	0.11719122
215	0xbda44db0	-0.0802263
216	0xbdaa879d	-0.083266474
217	0xbe5bf2be	-0.21479318
218	0xbe18c601	-0.14919282
219	0xbe1fb11a	-0.15594903
220	0x3df2775a	0.11839171
221	0xbd7e1a7e	-0.062036984
222	0xbd198c35	-0.037487227
223	0x3dc47cfb	0.09594151
224	0xbe31246a	-0.17299047
225	0x3e1dbcb1	0.15404011
226	0x3d6d7330	0.05797118
227	0x3dab8125	0.08374242
228	0x3d5b6110	0.053559363
229	0xbc3d48ed	-0.011553031
230	0xbc92e619	-0.017931985
231	0xbd3455f7	-0.044027295
232	0xbdb6b873	-0.089219
233	0x3e078f7f	0.13238333
234	0xbd985a5e	-0.07439111
235	0x3bd1a107	0.00639737
236	0xbcd247f5	-0.025669077
237	0xbb65ac1a	-0.0035045207
238	0xbd38e062	-0.045135863
239	0x3bdf5f75	0.0068167993
240	0xbd4f48a3	-0.05060638
241	0xbbffaf42	-0.007802875
242	0xbd7d62d6	-0.061861835
243	0xbdf91813	-0.12162795
244	0xbe366c7d	-0.17814822
245	0xbd515b9e	-0.051112764
246	0x3deed1c3	0.116611026
247	0xbcb7c1b1	-0.022431226
248	0x3cbaeb2d	0.022817219
249	0x3dc393b9	0.0954966
250	0x3e5fd191	0.21857287
251	0xbccab0f3	-0.02474258
252	0x3e037909	0.1283914
253	0x3c64d701	0.013967277
254	0x3e0bc23c	0.13648313
255	0x3db05442	0.08609821

tbls_list.0.ff.layernorm.bias f4 [64]
0	0xbd229608	-0.039693862
1	0x3d02b7b4	0.031913474
2	0x3c8fcd03	0.017553812
3	0xbcebdaff	-0.028790949
4	0xbc006432	-0.007836388
5	0xbc447374	-0.011990417
6	0x3cececa1	0.028921427
7	0x3c638cb3	0.013888526
8	0xbcd8ce6e	-0.02646562
9	0xbd0aabbd	-0.03385519
10	0xbc3634ae	-0.011120958
11	0xbc12acf8	-0.008952372
12	0xbd405597	-0.046956625
13	0xbca82992	-0.020527635
14	0xbc33da3d	-0.010977325
15	0xbc66269d	-0.014047292
16	0xbb7d3749	-0.003863769
17	0x3d5293c2	0.051410444
18	0xbcb5efb0	-0.022209018
19	0x3d6f1121	0.058365945
20	0x3c477234	0.012173224
21	0x3cf6ecd0	0.030142218
22	0xbd21f1d9	-0.039537285
23	0xbc48ad57	-0.012248359
24	0x3cdeecf1	0.027212592
25	0xbc84239f	-0.016130267
26	0x3be42555	0.006962458
27	0x3bc1053e	0.0058905175
28	0x3cd392e7	0.025826884
29	0xbc99d513	-0.01877836
30	0xbd5f97d6	-0.05458816
31	0xbb9a4973	-0.004708463
32	0xbd95ba00	-0.07310867
33	0x3aed3c08	0.0018099556
34	0xbcb36c63	-0.021902269
35	0xbd29994e	-0.04140597
36	0x3b45f98c	0.0030208556
37	0xbce2bc8a	-0.027677793
38	0x3d15404f	0.036438283
39	0xbbcf7898	-0.0063315146
40	0x3ce1ed94	0.027579106
41	0x3cc56b12	0.024098907
42	0x3c94feb8	0.018187866
43	0xbc107636	-0.008817246
44	0x3c217355	0.009854157
45	0x3ce4f233	0.02794752
46	0x3cb6029d	0.022218043
47	0x3b9949c0	0.004677981
48	0x3c807281	0.0156796
49	0xbbbc30fe	-0.005743145
50	0xbba51566	-0.0050379513
51	0xbc60f13b	-0.013729389
52	0xbcc1b77c	-0.023647062
53	0xbc061ef4	-0.008186091
54	0xbcf4a23e	-0.02986252
55	0x3c5a1c71	0.013312445
56	0x3cbf0ea3	0.023322409
57	0x3b32d7fe	0.0027289386
58	0x3bd1518f	0.0063878964
59	0x3cd17ee4	0.025573201
60	0xbd34b4d9	-0.044117782
61	0x3c9206ba	0.017825473
62	0x3d039f15	0.032134134
63	0x3c6cf0b3	0.014461684

tbls_list.0.ff.layernorm.weight f4 [64]
0	0x3f866246	1.0498741
1	0x3f69df2c	0.9135616
2	0x3f825d21	1.0184671
3	0x3f80ea95	1.0071589
4	0x3f83e8e6	1.030545
5	0x3f839ab1	1.0281583
6	0x3f85398b	1.0408186
7	0x3f825969	1.0183536
8	0x3f7e669f	0.9937534
9	0x3f85c959	1.0452071
10	0x3f85da20	1.0457191
11	0x3f7919b3	0.9730484
12	0x3f725b5a	0.9467064
13	0x3f8773cc	1.0582213
14	0x3f77fcf2	0.9687034
15	0x3f783939	0.96962315
16	0x3f820044	1.0156331
17	0x3f7b123c	0.980747
18	0x3f7ff243	0.9997904
19	0x3f8651c1	1.0493699
20	0x3f85ab49	1.0442897
21	0x3f8305e1	1.0236169
22	0x3f752a45	0.95767623
23	0x3f808269	1.0039798
24	0x3f85e9fd	1.0462033
25	0x3f85f34e	1.0464876
26	0x3f74b19a	0.955835
27	0x3f8a4380	1.0801849
28	0x3f8b43a7	1.0880021
29	0x3f8a33dc	1.0797076
30	0x3f8105d9	1.007991
31	0x3f786c30	0.9704008
32	0x3f791b63	0.97307414
33	0x3f85170e	1.0397661
34	0x3f79fe12	0.97653306
35	0x3f82b830	1.021246
36	0x3f80b9b6	1.0056674
37	0x3f7b93f1	0.98272616
38	0x3f848762	1.0353816
39	0x3f82e617	1.0226468
40	0x3f83a131	1.0283567
41	0x3f75cc7d	0.9601515
42	0x3f8422f2	1.0323164
43	0x3f884c9c	1.0648379
44	0x3f7b2986	0.98110235
45	0x3f8930f5	1.0718066
46	0x3f8326c1	1.0246202
47	0x3f8393ea	1.0279515
48	0x3f82650a	1.0187085
49	0x3f830734	1.0236573
50	0x3f8523b7	1.0401524
51	0x3f84bcec	1.0370154
52	0x3f8c17e8	1.0944796
53	0x3f76ee6c	0.9645755
54	0x3f84c125	1.0371443
55	0x3f87044d	1.0548187
56	0x3f822472	1.0167372
57	0x3f7dc300	0.9912567
58	0x3f7bfa04	0.9842837
59	0x3f85c1f8	1.044982
60	0x3f76df78	0.96434736
61	0x3f8151d2	1.0103095
62	0x3f7dc806	0.99133337
63	0x3f74cdbd	0.9562643

tbls_list.0.ff.second_proj.bias f4 [64]
0	0xbdbe4bd5	-0.092918076
1	0xbc5dfae9	-0.013548591
2	0xbccff1e8	-0.025383905
3	0xbcd97f88	-0.02655007
4	0xbd338960	-0.043832183
5	0x3cca05fe	0.02466106
6	0x3c95c7ce	0.01828375
7	0x3d203253	0.039110493
8	0xbceb091f	-0.028690873
9	0xbd5ec765	-0.054389376
10	0xbd3bd681	-0.045858864
11	0xbd26aae9	-0.040690336
12	0xbc329880	-0.010900617
13	0xbca8307c	-0.020530932
14	0x3a4fead8	0.0007931418
15	0x3d537cfe	0.051632874
16	0x3cf9068f	0.030398635
17	0x3d5f24e9	0.05447856
18	0xbdaaec5a	-0.08345862
19	0x3b56bac1	0.0032765123
20	0x3d92a236	0.071598455
21	0x3cdd6af9	0.027028548
22	0x3d8b4bc1	0.06801558
23	0x3d1c50a3	0.03816284
24	0x3ca5636d	0.020189011
25	0xbd223937	-0.039605346
26	0xbd4e9ea4	-0.05044426
27	0xbd6df958	-0.05809912
28	0x3b8d81fd	0.0043184743
29	0x3da98811	0.08277906
30	0xbdd311a9	-0.10306103
31	0xbc717678	-0.014737718
32	0xbd88bb0c	-0.06676301
33	0x3cf8fef5	0.03039501
34	0xbc96c88a	-0.018406171
35	0xbc729caf	-0.014807864
36	0x3ce9c25a	0.028535057
37	0xbd714cd5	-0.058911163
38	0x3d8c98da	0.068650916
39	0x3c658c37	0.014010481
40	0xbd2ccbaf	-0.042186435
41	0x3d962d0a	0.07332809
42	0x3d46563b	0.04842208
43	0x3d4b4445	0.049625654
44	0x3dfdef1c	0.12399122
45	0x3d5dd146	0.054154657
46	0x3c1eab1f	0.009684353
47	0xbd03dd5d	-0.03219353
48	0xbd6bda32	-0.057581134
49	0x3dcbfcef	0.09960353
50	0xbc3afc26	-0.011412656
51	0xbd37446c	-0.044742987
52	0x3c04cac3	0.008104983
53	0xbd52b7e1	-0.05144489
54	0x3d2500da	0.040284015
55	0x3d7020b4	0.058624938
56	0xbd67a823	-0.056556832
57	0x3d51304f	0.05107146
58	0x3d27cbfb	0.040966015
59	0xbc9fd910	-0.019512683
60	0x3c5eb649	0.013593265
61	0x3d2954fe	0.04134082
62	0x3d12aed5	0.035811264
63	0x3c13cc10	0.00902082

tbls_list.0.ff.second_proj.weight f4 [64, 256]
0	0xbd799d68	-0.06094113
1	0x3d345fc7	0.044036653
2	0x3d9349e6	0.071918294
3	0x3d47fd1e	0.048825376
4	0x3bc376ef	0.0059651057
5	0x3cefbaa0	0.029263794
6	0xbc5a6640	-0.013330042
7	0x3d2a42b7	0.04156753
8	0xbdc7325e	-0.09726404
9	0x3d94ef16	0.072721645
10	0xbcc80d00	-0.024420261
11	0xbd2714cb	-0.040791314
12	0xbe06549b	-0.13118212
13	0xbdcb4f41	-0.09927226
14	0x3cc480d7	0.023987217
15	0xbbbf52a3	-0.0058387085
16	0xbd61eea2	-0.05515922
17	0x3d9471bf	0.07248258
18	0xbdd83170	-0.105563045
19	0xbdc4e0c5	-0.09613184
20	0xbc5a8101	-0.013336421
21	0x3da3a014	0.07989517
22	0x3e0f426b	0.1399018
23	0x3bce32ca	0.0062926756
24	0xbdf758bf	-0.12077474
25	0x3d957d6a	0.072993115
26	0xbd6ceddc	-0.057844028
27	0x3b8a3762	0.004218028
28	0xbe042dc8	-0.12908089
29	0x3bea8484	0.0071569104
30	0xbd0493af	-0.032367405
31	0x3d993849	0.07481439
32	0x3d034cc8	0.032055646
33	0x3dd19813	0.10234084
34	0xbd340d33	-0.0439579
35	0x3c72175a	0.014776075
36	0x3d665c15	0.05624016
37	0x3dfa5c41	0.12224627
38	0xbbf7b2f0	-0.007559173
39	0xbd33c3cb	-0.043887895
40	0x3dacf4ef	0.08445155
41	0x3e37e0e2	0.1795688
42	0xbc85b421	-0.016321244
43	0x3beeab6c	0.0072836187
44	0xbd2800a8	-0.04101625
45	0x3ced2222	0.02894694
46	0x3bd8870b	0.0066078953
47	0x3d84ad88	0.06478411
48	0xbd84ecfc	-0.06490514
49	0xbd79a3b9	-0.060947154
50	0x3ddc5143	0.10757687
51	0xbc6f4bc3	-0.014605465
52	0xbe1e45f2	-0.1545637
53	0xbdd62397	-0.10456007
54	0x3d2a48c3	0.041573297
55	0x3b4fd0b4	0.003171009
56	0x3b1b1f9d	0.0023669966
57	0xbe269527	-0.16267835
58	0xbb1b1489	-0.0023663363
59	0xbda3f428	-0.080055535
60	0xbd92604f	-0.07147276
61	0x3c9a9da1	0.018873991
62	0xbdd7878e	-0.10523902
63	0xbdbe3b37	-0.09288638
64	0x3bbc0137	0.0057374495
65	0xbd786679	-0.0606446
66	0xbd3cb3da	-0.046069957
67	0xbbbab9e1	-0.005698428
68	0x3d6e7fdd	0.05822741
69	0xbdb1d141	-0.0868249
70	0xbd3e7931	-0.046502296
71	0x3d8184da	0.063241675
72	0x3e0dc5ee	0.13845035
73	0x3d91b14f	0.07113897
74	0xbdb5a885	-0.08870033
75	0x3dd8d008	0.10586554
76	0x3dcf8102	0.10132028
77	0x3bb204c1	0.0054326956
78	0x3e146916	0.14493212
79	0x3d7b3566	0.06133022
80	0x3d91cdb4	0.07119313
81	0xbc6f018d	-0.014587772
82	0xbcb5d015	-0.022193948
83	0xbb3ae7ed	-0.0028519586
84	0x3dcd4d2f	0.10024487
85	0x3d4c48af	0.049874004
86	0xbd094c3f	-0.03351998
87	0x3df3bb9d	0.11901019
88	0xbd999b8a	-0.0750037
89	0x3cc81838	0.02442561
90	0x3d08bee8	0.033385187
91	0xbdc0fdcd	-0.09423409
92	0xbc48d6b0	-0.012258217
93	0xbdeb34fc	-0.11484715
94	0x3e03bfc4	0.12866122
95	0xbd4d9cea	-0.050198473
96	0x3d33c1d8	0.043886036
97	0xbd43b93a	-0.047784068
98	0x3b5643e2	0.003269427
99	0x3d0cb93e	0.03435635
100	0x3b1d242e	0.0023977864
101	0xbda630d3	-0.08114781
102	0xbd9a959f	-0.07548069
103	0xbb64af5f	-0.0034894568
104	0x3d55e2b4	0.052218154
105	0x3db8cfe5	0.09024028
106	0x3d330131	0.043702308
107	0x3d779a9c	0.06045018
108	0x3a41c667	0.000739193
109	0x3d6375dd	0.055532325
110	0xbd9c56aa	-0.07633717
111	0x3d7838e0	0.060601115
112	0x3d8b52b2	0.06802882
113	0xbe207cb6	-0.15672573
114	0xbd4b8f95	-0.049697477
115	0xbd3e18f1	-0.046410505
116	0xbd882339	-0.06647343
117	0xbd1de337	-0.038546767
118	0x3ca1fbdd	0.019773418
119	0xbdf56f28	-0.11984092
120	0x3e0bed22	0.13664678
121	0xbc98e8f4	-0.018665768
122	0x3dfe24f9	0.12409396
123	0xbd181df2	-0.037137933
124	0xbdd4c1bf	-0.10388517
125	0xbde6e38a	-0.112738684
126	0xbe40c7ba	-0.1882619
127	0x3d350db0	0.044202507
128	0xbcc4488d	-0.023960376
129	0x3d90c8b1	0.07069529
130	0x3d2354c3	0.039875757
131	0x3d2c0f03	0.042006504
132	0x3d8dcdc7	0.069240145
133	0xbd065162	-0.032792456
134	0xbe107ccd	-0.14110108
135	0x3c096f5b	0.008388366
136	0xbd28e28d	-0.04123168
137	0x3d69ab0c	0.05704789
138	0x3df2dcca	0.118585184
139	0x3d2fce22	0.042921193
140	0xbd284703	-0.041083347
141	0xbd6f9d5a	-0.05849967
142	0xbb722277	-0.0036946812
143	0xbc9cf738	-0.019160852
144	0xbe012121	-0.12610294
145	0x3d45bc04	0.04827501
146	0x3d2a7827	0.041618492
147	0x3e04211b	0.12903254
148	0x3df54e00	0.11977768
149	0x3dcf2b5b	0.10115691
150	0xbc980c52	-0.018560562
151	0xbd8892b1	-0.06668604
152	0x3d882eaf	0.06649529
153	0x3c1beddb	0.009517158
154	0x3cba593b	0.022747627
155	0xbde0e049	-0.10980279
156	0x3c667762	0.014066549
157	0xbc221f01	-0.009895087
158	0x3d38bd68	0.045102507
159	0x3c7a18f9	0.015264743
160	0xbdb01498	-0.08597678
161	0x3dadda60	0.08488917
162	0xbd62aee4	-0.05534257
163	0x3d774340	0.06036687
164	0x3cc38b29	0.023870068
165	0x3c3b58dd	0.011434761
166	0xbd257087	-0.040390518
167	0x3dc4f540	0.0961709
168	0x3dbeca1c	0.09315893
169	0xbc57de2a	-0.013175527
170	0xbd04d38e	-0.032428317
171	0xbd9b6c64	-0.07589033
172	0x3cfb3309	0.030663984
173	0x3b639664	0.003472709
174	0x3dca33f2	0.09873189
175	0xbd07962a	-0.033102192
176	0xbdfd2c2e	-0.12361942
177	0x3c79a08a	0.015236029
178	0xbbf0a708	-0.0073441304
179	0x3cd78202	0.02630711
180	0x3e2514cd	0.16121216
181	0x3cf48751	0.02984968
182	0xbdee48a7	-0.11634951
183	0x3d85c036	0.06530802
184	0x3e1cc346	0.15308866
185	0xbe16ea25	-0.14737757
186	0xbd3b2b97	-0.045695867
187	0xbd7f7105	-0.062363643
188	0x3c89c45d	0.016817266
189	0xbcfc4e01	-0.030798914
190	0x3d053ffb	0.03253172
191	0x3d246a94	0.040140703
192	0xbde7e4f6	-0.11322968
193	0xbcd12349	-0.02552952
194	0x3c9dc784	0.019260176
195	0x3ddd2389	0.107977934
196	0xbd16bf1d	-0.036803354
197	0xbd3122ad	-0.04324596
198	0xbe331ffd	-0.17492671
199	0xbcb75542	-0.022379521
200	0xbd0cfd05	-0.034420986
201	0xbd10ba55	-0.03533395
202	0x3d986e9c	0.07442972
203	0x3d009474	0.031391576
204	0x3d8f7935	0.0700554
205	0xbd056287	-0.032564666
206	0xbb3c0aba	-0.0028692917
207	0xbc7751cf	-0.015095188
208	0x3d782a66	0.06058731
209	0x3da106ec	0.07862648
210	0xbb11da68	-0.0022255424
211	0xbd901a6a	-0.07036288
212	0xbe02c567	-0.12770616
213	0xbb97eb2a	-0.004636188
214	0x3ce7af65	0.028281877
215	0x3d234972	0.039864965
216	0x3dcd22d0	0.100164056
217	0xbe00e575	-0.12587531
218	0x3b51bb95	0.0032002677
219	0x3e0fc063	0.14038233
220	0xbdd35e91	-0.103207715
221	0x3ce84348	0.028352395
222	0x3dd26c50	0.10274565
223	0xbdbf9ab3	-0.093556784
224	0x3d6f6835	0.05844899
225	0x3d0a68ec	0.033791468
226	0xbcff64ac	-0.031175934
227	0xbd43d384	-0.04780914
228	0xbe2b45cd	-0.16725846
229	0x3d41ef20	0.047347188
230	0x3e0ebe7e	0.13939855
231	0xbc83ea2e	-0.016102877
232	0xbd3c774d	-0.04601221
233	0xbe0abc05	-0.13548286
234	0x3d87cbfa	0.06630702
235	0xbda235a7	-0.079203896
236	0x3d1e1579	0.038594697
237	0xbd4e2c85	-0.050335426
238	0xbce3cf87	-0.027808918
239	0x3e02f4ad	0.12788649
240	0x3cba4a60	0.022740543
241	0xbd6982b0	-0.0570094
242	0xbce834f4	-0.028345563
243	0xbdbe8b31	-0.093038924
244	0xba87894d	-0.0010340601
245	0xbd014f35	-0.03156968
246	0x3daade64	0.08343199
247	0xb9d67d29	-0.00040910512
248	0x3d3d7f54	0.046264008
249	0xbdc9f89b	-0.09861871
250	0xbd848a6c	-0.064717144
251	0x3da483b2	0.080329314
252	0x3c9d9bb1	0.019239279
253	0x3ccb94ec	0.024851285
254	0x3e117d5e	0.1420798
255	0xbd5458d5	-0.05184253

tbls_list.0.mha.kproject.weight f4 [64, 64]
0	0x3de7f1fc	0.11325452
1	0x3d9ab29d	0.07553599
2	0xbcedfd91	-0.029051574
3	0xbd4826ab	-0.048865
4	0x3e0c74c3	0.13716416
5	0x3de8306a	0.11337359
6	0xbd36b555	-0.044606525
7	0xbe5a02f8	-0.21290195
8	0x3df8f495	0.12156025
9	0xbc6a8bcf	-0.0143155595
10	0x3da4bc02	0.08043672
11	0x3dd7da2b	0.10539659
12	0x3e128617	0.14308964
13	0xbdedb60d	-0.11606989
14	0x3b3e2c28	0.0029018018
15	0xbe23845e	-0.15968463
16	0xbdc32969	-0.09529383
17	0xbe70a174	-0.2349909
18	0x3e5705c5	0.20998295
19	0x3d011456	0.031513534
20	0x3da839f0	0.08214176
21	0x3e472c5b	0.19450514
22	0x3de5667f	0.1120119
23	0xbc72c742	-0.014818015
24	0xbdfb89fd	-0.122821786
25	0x3e7adb71	0.24497773
26	0x3e6d9e8f	0.23205017
27	0xbc73e243	-0.014885488
28	0x3e38dfb2	0.18054083
29	0xbd6796be	-0.056540243
30	0xbdccd0e9	-0.10000784
31	0xbd3bc1d5	-0.04583915
32	0x3dd80793	0.1054832
33	0x3deb08b8	0.11476272
34	0xbd723793	-0.05913503
35	0xbbf5f2eb	-0.0075057647
36	0xbd8b9360	-0.06815219
37	0xbdd93b2b	-0.106069885
38	0xbd85914b	-0.06521853
39	0xbdbafef7	-0.09130662
40	0xbdd65460	-0.10465312
41	0xbe3a32a7	-0.18183385
42	0x3e147ba3	0.14500289
43	0xbdd6a02e	-0.104797706
44	0x3d90be55	0.07067553
45	0xbd22bff4	-0.039733842
46	0x3d1f91b3	0.03895731
47	0xbe5a167d	-0.21297641
48	0x3d034132	0.032044597
49	0xbda918c6	-0.08256678
50	0xbcf7d823	-0.03025443
51	0x3d676feb	0.056503218
52	0x3d7e28d1	0.062050644
53	0x3e56725a	0.20942059
54	0x3e32f69f	0.17476891
55	0xbc6df793	-0.014524358
56	0xbe070c6f	-0.13188337
57	0xbcf71b49	-0.030164378
58	0xbbf4bfb5	-0.0074691423
59	0x3ca0f6c3	0.019648915
60	0xbd085531	-0.03328437
61	0xbe0cc79c	-0.1374802
62	0xbd6452aa	-0.055742897
63	0x3da47c9b	0.08031579
64	0x3d499937	0.049218383
65	0x3d1bf5ca	0.0380762
66	0x3b89bdae	0.00420352
67	0x3dbd410b	0.092409216
68	0x3da06e98	0.07833594
69	0xbdf3dabf	-0.11906957
70	0xbd985eab	-0.074399315
71	0x3ca782e3	0.020448154
72	0xbe1ce8d9	-0.153232
73	0xbdc961df	-0.098331206
74	0x3d422a19	0.04740343
75	0xbe037f4b	-0.12841527
76	0x3c2505f8	0.010072224
77	0xbd6acb91	-0.057323042
78	0x3db8c5df	0.09022116
79	0xbd801893	-0.06254687
80	0x3e9c4edd	0.30528918
81	0xbe5e67b5	-0.21719249
82	0x3caf4a61	0.021397771
83	0x3d957c18	0.0729906
84	0xbd8c7f43	-0.06860211
85	0x3db81513	0.089883946
86	0x3e04a1de	0.12952372
87	0xbd905d2e	-0.070490226
88	0x3d5c37e2	0.05376423
89	0xbd14d540	-0.036336184
90	0x3e364ff6	0.1780394
91	0x3d2c6cb9	0.042095874
92	0x3e47ff00	0.19530869
93	0xbe1ea519	-0.15492667
94	0x3b7eb45a	0.0038864822
95	0x3e59e37d	0.21278186
96	0x3e1ee7bd	0.15518089
97	0xbe1b9391	-0.15193011
98	0x3e1c7284	0.15278059
99	0xbe126909	-0.1429788
100	0x3e48e714	0.196194
101	0x3dc10392	0.09424509
102	0x3c9f8ac4	0.019475348
103	0x3e3c5ca4	0.18394715
104	0x3db0cba1	0.08632589
105	0xbd5b0ed7	-0.05348095
106	0xbd0c9269	-0.034319315
107	0x3dbba464	0.091622144
108	0x3e64a751	0.22329451
109	0x3d000eae	0.031264
110	0xbe231540	-0.15926075
111	0xbd7cb6e7	-0.061697867
112	0x3e05cf41	0.13067342
113	0x3da3dbd4	0.08000913
114	0xbd900e42	-0.070339695
115	0x3e2ee047	0.17077743
116	0xbccc97e9	-0.02497478
117	0x3e58cd80	0.21172142
118	0xbe4a9a4e	-0.19785425
119	0x3dcb59a6	0.099292085
120	0xbcb29470	-0.021799296
121	0x3d074f69	0.033034716
122	0xbe2e0182	-0.16992763
123	0xbd5423a6	-0.05179181
124	0x3e010891	0.12600924
125	0xbdfd2eb0	-0.123624206
126	0x3d9f2f73	0.07772722
127	0x3c53fec6	0.012939161
128	0x3dda88cd	0.10670624
129	0xbde7e091	-0.113221295
130	0x3d290a8b	0.04126982
131	0xbb393f4d	-0.002826649
132	0xbcbd0991	-0.02307585
133	0x3d7d20a3	0.061798703
134	0xbcbc215b	-0.022965124
135	0xbdaf865c	-0.08570549
136	0x3db482d4	0.08814016
137	0x3e1e0626	0.15432033
138	0xbde78b08	-0.11305815
139	0x3db483b6	0.08814184
140	0xbe090ea0	-0.13384485
141	0xbe02528d	-0.12726803
142	0x3e23f8a8	0.16012824
143	0xbe8398c9	-0.25702503
144	0x3df0f5a6	0.11765604
145	0xbd7764d6	-0.0603989
146	0x3e108878	0.14114559
147	0x3d29c6bf	0.041449305
148	0x3e0ff1d3	0.14057092
149	0xbe0db604	-0.13838965
150	0xbc2b9e61	-0.010474772
151	0xbd89c42f	-0.06726872
152	0xbe7c9257	-0.24665199
153	0x3e0becd0	0.13664556
154	0x3d6135c3	0.05498291
155	0xbe002920	-0.12515688
156	0xbd1a6cb0	-0.03770131
157	0x3e259db6	0.16173443
158	0x3d875141	0.06607295
159	0xbd82a36f	-0.06378829
160	0x3d32f189	0.043687377
161	0x3d864d91	0.06557763
162	0x3e0952ac	0.13410443
163	0xbcd664f6	-0.026171189
164	0xbd7ed399	-0.062213514
165	0x3d3e7f30	0.046508014
166	0xbdf57aa1	-0.1198628
167	0xbdae0c1b	-0.08498403
168	0xbe03ac18	-0.12858617
169	0x3d02e24c	0.031954095
170	0xbb21f26c	-0.0024711145
171	0xbb772d36	-0.0037716157
172	0x3e848d63	0.2588912
173	0x3ce8d8ad	0.028423632
174	0x3e3ed97c	0.18637651
175	0xbe21c740	-0.15798664
176	0x3cd244d3	0.025667584
177	0x3e3e7200	0.18598175
178	0x3b2457d6	0.0025076768
179	0xbd88a7ca	-0.06672628
180	0xbd0aa9ba	-0.03385327
181	0x3bb482a9	0.00550874
182	0x3e1083e6	0.14112815
183	0xbd9925ba	-0.07477899
184	0x3be5b46e	0.0070100343
185	0x3d43c55b	0.047795635
186	0x3d853bee	0.06505571
187	0x3e397ad5	0.18113263
188	0xbe1ec083	-0.15503125
189	0x3e342275	0.1759127
190	0x3e0d8109	0.13818754
191	0x3e89c83a	0.26910573
192	0xbcbdc1ab	-0.023163637
193	0x3d85c046	0.06530814
194	0xbe01cb9e	-0.1267533
195	0x3e17d98e	0.14829084
196	0xbe0da022	-0.13830617
197	0xbe7640ca	-0.24048153
198	0x3d9b3251	0.075779565
199	0xbcecfc7c	-0.028928988
200	0xbda11a2a	-0.078663185
201	0x3dbde24e	0.0927168
202	0x3d8af092	0.067841664
203	0xbd442f55	-0.0478967
204	0xbdc3e0c6	-0.095643565
205	0x3dce312b	0.10067972
206	0x3ccf2607	0.025286688
207	0xbe059edb	-0.1304888
208	0x3d4c87b1	0.049934093
209	0xbe102bb9	-0.14079179
210	0xbe122585	-0.14272125
211	0x3e1efd7c	0.15526384
212	0x3d6ac06b	0.05731241
213	0xbd90535b	-0.07047149
214	0xbd1eb7d5	-0.038749535
215	0x3cd2f8ce	0.025753405
216	0xbde50631	-0.111828215
217	0x3e524f80	0.2053814
218	0x39821bf1	0.0002481635
219	0x3e4a6709	0.19765867
220	0xbced943e	-0.029001351
221	0xbdc3ba91	-0.09557069
222	0xbde9f7a0	-0.11424184
223	0x3e635555	0.2220052
224	0x3d8e5281	0.0694933
225	0xbc969af3	-0.018384432
226	0x3c668ab4	0.014071155
227	0xbc22ec47	-0.009944028
228	0xbd3cc4b6	-0.046086036
229	0xbdf7fafc	-0.12108418
230	0xbd3ac073	-0.04559369
231	0x3e696141	0.22791006
232	0xbdffcd3f	-0.124903195
233	0x3d519e2a	0.051176228
234	0xbd102284	-0.035189167
235	0x3c1bd3e6	0.00951097
236	0x3e44ff98	0.19238126
237	0x3dc36a15	0.09541718
238	0xbe449f3a	-0.19201365
239	0x3ceb2c9f	0.0287078
240	0xbcc58315	-0.024110356
241	0xbd4c144c	-0.049824044
242	0xbdc07572	-0.09397401
243	0x3c8ed339	0.017434703
244	0x3dd4f637	0.10398524
245	0x3e3f3617	0.18672977
246	0xbdaf355d	-0.085551
247	0xbdc85cd3	-0.0978333
248	0xbce1b102	-0.027550224
249	0x3d9b85c3	0.075938724
250	0xbe544eb5	-0.2073315
251	0xbdd84335	-0.10559694
252	0x3c697ba3	0.014250669
253	0xbd957bdc	-0.07299015
254	0xbd9a7edc	-0.07543728
255	0x3de7831b	0.11304303

tbls_list.0.mha.layernorm.bias f4 [64]
0	0x3de9332d	0.11386714
1	0x3b59227e	0.0033132131
2	0x3d268290	0.040651858
3	0x3d821ef4	0.0635356
4	0xbcd28054	-0.025695957
5	0xbe0530e4	-0.13006932
6	0xbd5f6b05	-0.05454542
7	0xbdc123c0	-0.09430647
8	0x3e148b3c	0.14506239
9	0x3e064b72	0.13114718
10	0x3d62b423	0.055347573
11	0x3d04300e	0.03227239
12	0x3e0da9b2	0.13834265
13	0xbca88895	-0.02057294
14	0x3dcfb3f3	0.101417445
15	0xbd01afd7	-0.031661835
16	0xbabe1043	-0.0014500696
17	0xbdd92bc5	-0.106040515
18	0x3d79fecc	0.06103401
19	0xba8d4e8f	-0.0010780859
20	0xbd09d0cf	-0.0336464
21	0xbdbf9362	-0.09354283
22	0xbcb77b3b	-0.022397628
23	0x3e15031a	0.14551964
24	0x3c1dc11e	0.009628562
25	0x3da301f0	0.07959354
26	0x3c90fa63	0.017697519
27	0x3dfc4ea9	0.12319691
28	0x3c9b85f6	0.018984776
29	0xbdbc53eb	-0.091956936
30	0x3d9a1a38	0.07524532
31	0x3dd095d0	0.101848245
32	0x3d813f8c	0.06310949
33	0x3db7d617	0.08976381
34	0x3da0ec41	0.07857562
35	0xbcfee4ce	-0.031114962
36	0xbd9bd0fe	-0.076082215
37	0x3dad2e8a	0.08456142
38	0xbda0ba5c	-0.07848045
39	0xbdc410b9	-0.09573502
40	0xbdae6ccf	-0.08516847
41	0xbd972ecc	-0.07381973
42	0xbc717f70	-0.014739856
43	0x3d64dad1	0.055872742
44	0xbe25cd91	-0.16191699
45	0xbd2c1d9c	-0.042020425
46	0xbd88029a	-0.06641121
47	0xbc11404d	-0.008865428
48	0x3ce67037	0.02812968
49	0x3c5827d2	0.013193088
50	0x3c98aeb0	0.018637985
51	0x3d51ce6a	0.051222242
52	0x3de5b721	0.1121657
53	0x3e24a26e	0.16077587
54	0x3a897ecf	0.0010490062
55	0x3d02d6ce	0.031943135
56	0xbdf1f2a1	-0.11813856
57	0x3e5e44bf	0.21705912
58	0xbdc72b1c	-0.09725019
59	0xbd5e7e88	-0.05431989
60	0xbd4969d0	-0.049173176
61	0xbcced81c	-0.025249533
62	0xbd5e2661	-0.05423582
63	0xbd6dbf57	-0.058043804

tbls_list.0.mha.layernorm.weight f4 [64]
0	0x3f837a44	1.0271688
1	0x3f7aeb79	0.9801555
2	0x3f83059b	1.0236086
3	0x3f779b69	0.9672151
4	0x3f7d91d6	0.99050653
5	0x3f815582	1.010422
6	0x3f8434fd	1.0328671
7	0x3f819cfe	1.0126035
8	0x3f7e853f	0.9942207
9	0x3f80cc41	1.0062333
10	0x3f7cbd56	0.98726404
11	0x3f7adf20	0.9799671
12	0x3f754054	0.9580128
13	0x3f7850b5	0.9699815
14	0x3f6e1b11	0.9301005
15	0x3f7ed877	0.9954905
16	0x3f7f684d	0.99768525
17	0x3f81ff8d	1.0156113
18	0x3f7a0aa3	0.9767248
19	0x3f872e64	1.0561032
20	0x3f836233	1.0264343
21	0x3f82dee7	1.0224274
22	0x3f6dfbf1	0.9296256
23	0x3f7a18c1	0.9769402
24	0x3f81f978	1.0154257
25	0x3f85c1cd	1.0449768
26	0x3f84b035	1.0366274
27	0x3f835769	1.026105
28	0x3f86ede0	1.0541344
29	0x3f8abdaa	1.0839131
30	0x3f72f15b	0.9489953
31	0x3f7427d4	0.9537327
32	0x3f811a4b	1.0086149
33	0x3f7ed43b	0.9954259
34	0x3f7d2a19	0.9889236
35	0x3f7b3d72	0.98140633
36	0x3f83a407	1.0284432
37	0x3f6cc021	0.92480665
38	0x3f8024f5	1.0011278
39	0x3f855f52	1.0419714
40	0x3f8385ae	1.0275171
41	0x3f6ecbf8	0.9327998
42	0x3f8590dd	1.0434834
43	0x3f82b7e5	1.021237
44	0x3f856d01	1.042389
45	0x3f89ce71	1.0766126
46	0x3f83ba8e	1.0291307
47	0x3f848e03	1.0355839
48	0x3f7aeaaa	0.9801432
49	0x3f7250da	0.9465462
50	0x3f83d89e	1.0300481
51	0x3f88e0b7	1.0693578
52	0x3f81f7ce	1.0153749
53	0x3f802b3d	1.0013195
54	0x3f7d850e	0.9903115
55	0x3f85a6d6	1.0441539
56	0x3f7f99ce	0.9984406
57	0x3f79d238	0.97586393
58	0x3f80f289	1.0074016
59	0x3f85f1cb	1.0464414
60	0x3f79819a	0.9746338
61	0x3f802dd6	1.0013988
62	0x3f7d1274	0.9885628
63	0x3f68957a	0.90853083

tbls_list.0.mha.out_project.weight f4 [64, 64]
0	0xbc68ea50	-0.014216021
1	0x3da27681	0.07932759
2	0xbe7f375b	-0.2492346
3	0x3de47881	0.11155797
4	0xbdb4496e	-0.08803068
5	0x3db8c3a6	0.09021692
6	0xbdc9ed03	-0.098596595
7	0xbcedc07e	-0.029022451
8	0x3e1e860c	0.15480822
9	0x3e8e58a3	0.27802
10	0xbdb377af	-0.08763062
11	0xbe44ee7f	-0.19231604
12	0x3cfe6a32	0.031056497
13	0x3d0773a4	0.033069268
14	0xbdd5805c	-0.10424873
15	0xbd978478	-0.07398313
16	0x3db33b75	0.08751575
17	0xbdf3e3ac	-0.11908659
18	0x3e587e23	0.21141867
19	0xbca8c6c2	-0.020602588
20	0xbe3b7fb4	-0.18310434
21	0x3d230c0a	0.039806403
22	0x3da3e50d	0.08002672
23	0xbd4b3754	-0.049613312
24	0xbdfb6613	-0.122753285
25	0x3e4333b6	0.19062695
26	0xbe403e29	-0.18773712
27	0xbd4d99f3	-0.050195646
28	0xbca31f25	-0.019912312
29	0x3d734b48	0.059397966
30	0xbd84b274	-0.0647935
31	0x3e0683e4	0.1313625
32	0xbcac004f	-0.02099624
33	0x3dcfeff8	0.10153192
34	0xbd05efb3	-0.032699298
35	0x3c23c05f	0.009994595
36	0xbcb1c858	-0.021701977
37	0xbd76dd0f	-0.06026941
38	0xbde22977	-0.11043065
39	0xbd012bee	-0.031536035
40	0xbe1b4b49	-0.15165438
41	0xbdb4c4d0	-0.088266015
42	0xbdc7011e	-0.0971701
43	0xbe3cb99e	-0.18430182
44	0xbe86ab94	-0.2630278
45	0x3dcfc114	0.101442486
46	0x3d18b61b	0.037283044
47	0xbe6b664e	-0.22988245
48	0x3dec28d5	0.115312256
49	0x3e56a4f3	0.2096136
50	0x3dc9baeb	0.09850105
51	0x3e431065	0.19049223
52	0x3e40b183	0.18817715
53	0x3c9eb4a0	0.019373238
54	0xbe29a66c	-0.16567391
55	0xbd2dcbc0	-0.04243064
56	0x3e1f5209	0.15558638
57	0x3d71aa3a	0.05900023
58	0xbe1d3312	-0.15351513
59	0xbdb7308e	-0.08944808
60	0x3cf953b1	0.030435415
61	0x3c8e8428	0.017397001
62	0x3ccc3446	0.02492727
63	0xbd626800	-0.055274963
64	0x3e89dffb	0.26928696
65	0x3d6beb25	0.0575973
66	0xbe2e2812	-0.17007473
67	0x3d882d06	0.066492125
68	0x3dc4b324	0.09604481
69	0x3dd846d6	0.10560386
70	0xbe378034	-0.1792
71	0xbcf98e4a	-0.030463357
72	0xbcd1cb6c	-0.025609694
73	0xbdb8cc18	-0.09023303
74	0x3c470355	0.0121467905
75	0xbc460284	-0.012085561
76	0xbdcc0128	-0.09961158
77	0x3cd5bb86	0.026090395
78	0x3d17049e	0.036869638
79	0x3cf6de75	0.030135373
80	0x3e2f5c1a	0.17124978
81	0x3e8c4a20	0.27400303
82	0x3de780b1	0.11303843
83	0x3c05696d	0.008142811
84	0xbb39e6b1	-0.0028366263
85	0xbdaef391	-0.0854255
86	0xbbbab867	-0.005698252
87	0xbe28f314	-0.16498977
88	0xbd0feea1	-0.035139684
89	0xbc120412	-0.008912103
90	0x3e85bd2b	0.26120886
91	0xbdcb3477	-0.09922116
92	0x3cb8442d	0.022493446
93	0xbe02c7ec	-0.12771577
94	0xbe2c3870	-0.16818404
95	0xbd272d10	-0.04081446
96	0x3d4fcf3f	0.050734755
97	0xbdf9ba00	-0.1219368
98	0x3dd1b8e6	0.10240345
99	0x3d1c394e	0.038140588
100	0x3e0bd1b2	0.13654211
101	0x3dca6387	0.098822646
102	0x3e0d39c7	0.13791572
103	0xbd3a3177	-0.04545733
104	0x3d22151d	0.039570916
105	0xbe58ad70	-0.21159911
106	0x3e6f3699	0.23360671
107	0x3d219803	0.03945161
108	0x3da26c9c	0.07930872
109	0xbdd76f7f	-0.10519313
110	0xbdc7d02b	-0.09756502
111	0x3e033217	0.12812077
112	0x3d8c1627	0.06840163
113	0x3d76b675	0.0602326
114	0xbdcf073f	-0.10108804
115	0xbc80b40a	-0.01571085
116	0xbe077682	-0.13228801
117	0xbdb31b39	-0.08745427
118	0xbe0e8837	-0.1391915
119	0x3d59c3ed	0.053165365
120	0xbc956f8e	-0.01824167
121	0xbb261580	-0.0025342405
122	0xbd83fc55	-0.06444613
123	0xbba228c7	-0.0049487087
124	0x3cff870b	0.031192323
125	0xbdc1abbe	-0.09456585
126	0xbccb8aa7	-0.024846388
127	0xbd67eb97	-0.05662116
128	0x3db2c335	0.08728639
129	0xbdcc3130	-0.09970319
130	0xbca8db1a	-0.020612288
131	0x3e4f9774	0.20272619
132	0x3d8f0429	0.06983215
133	0xbde82364	-0.11334875
134	0x3e27d0c5	0.16388233
135	0x3e449c71	0.19200303
136	0xbe2d35ff	-0.16915129
137	0x3e62af2f	0.2213714
138	0xbe5e6ff8	-0.217224
139	0xbd108c59	-0.035290096
140	0xbd965382	-0.073401466
141	0x3d9fa132	0.077944174
142	0x3d8ea835	0.06965677
143	0xbdef3419	-0.11679859
144	0xbe42d45a	-0.19026318
145	0x3d3f3aad	0.046686817
146	0x3d2490fd	0.040177334
147	0xbe00acc7	-0.1256591
148	0xbc89e985	-0.016834984
149	0x3e071b9e	0.13194129
150	0xbe1affda	-0.15136662
151	0xbcc81de2	-0.024428312
152	0x3d2d0554	0.04224141
153	0xbd85a41a	-0.065254405
154	0x3e119924	0.14218575
155	0xbc3c8463	-0.011506173
156	0x3d3758f8	0.04476258
157	0x3e274b70	0.16337371
158	0xbdc50fd9	-0.09622163
159	0xbda08670	-0.07838142
160	0x3e22825e	0.15870044
161	0xbd1ab18d	-0.037766982
162	0xbd87f3dd	-0.0663831
163	0xbd909392	-0.07059397
164	0xbaa69266	-0.0012708425
165	0x3da1ff07	0.07909971
166	0xbbed7dec	-0.007247677
167	0x3e24cda3	0.16094069
168	0xbd646fd6	-0.055770718
169	0xbdd9b73b	-0.106306516
170	0x3e50940a	0.20368972
171	0xbcada0ab	-0.021194777
172	0x3e59ef28	0.21282637
173	0xbd568039	-0.052368376
174	0x3de90754	0.11378351
175	0x3da86abf	0.08223485
176	0xbe17da42	-0.14829352
177	0x3e07fdd8	0.13280427
178	0x3e3c7579	0.18404187
179	0xbe45e9ed	-0.19327517
180	0x3d9b9edf	0.07598662
181	0x3dfe8202	0.12427141
182	0x3d463c00	0.048397064
183	0xbd60560c	-0.05476956
184	0xbdc7a34c	-0.09747943
185	0xbd5962c8	-0.05307272
186	0xbe18f6f7	-0.1493796
187	0x3e029207	0.12751018
188	0xbdc4e15c	-0.096132964
189	0xbb8c1f5a	-0.0042761983
190	0x3d553497	0.052052107
191	0x3e2f732a	0.17133775
192	0x3c3ae8c5	0.011408036
193	0xbd412efb	-0.047163945
194	0xbdd26251	-0.102726586
195	0x3bb7ca9c	0.0056088697
196	0xbd8e4338	-0.06946415
197	0x3ccfe43f	0.02537739
198	0xbe3951eb	-0.18097655
199	0x3d031ec2	0.032011755
200	0x3d6ad473	0.057331514
201	0xbe621f08	-0.2208215
202	0x3b13dcd7	0.002256205
203	0xbdbb6fb5	-0.09152166
204	0x3db20bad	0.08693633
205	0xbe4319cd	-0.19052811
206	0xbdf68366	-0.12036781
207	0xbdbcd4ea	-0.09220298
208	0x3baa567a	0.005198297
209	0xbe13f5bd	-0.1444921
210	0x3e0dc024	0.13842827
211	0xba7ec8db	-0.0009719261
212	0x3c8d77d6	0.017269056
213	0xbe97e5de	-0.29667562
214	0x3dae30db	0.08505412
215	0x3cfc170c	0.030772708
216	0x3dc71a14	0.09721771
217	0x3e186465	0.14882047
218	0xbd949e12	-0.07256712
219	0x3bb63214	0.005560169
220	0xbdab00e4	-0.08349779
221	0x3dd35227	0.10318404
222	0x3d0fcd35	0.03510781
223	0x3e0ab217	0.13544498
224	0x3db85158	0.0899989
225	0xbca0ee49	-0.019644873
226	0x3c9f4c11	0.019445451
227	0xbdf2c579	-0.11854071
228	0xbd4782bc	-0.048708662
229	0xbce967bf	-0.028491853
230	0x3e29b06e	0.16571209
231	0x3c8a3b06	0.016873848
232	0x3d72c819	0.05927286
233	0xbcba31f4	-0.022728898
234	0xbec3de62	-0.38255602
235	0x3e0844ee	0.13307545
236	0x3d44cd61	0.048047427
237	0x3d4e64a1	0.050388936
238	0xbd6dc1f7	-0.058046307
239	0xbdcd00dd	-0.1000993
240	0xbb9c75ad	-0.0047747702
241	0xbdad40fd	-0.08459661
242	0xbdf1f306	-0.11813931
243	0xbdcb91fe	-0.09939955
244	0x3d28560a	0.04109768
245	0xbde8b2a7	-0.113622
246	0xbdb56b2a	-0.088583305
247	0xbcb8d4f3	-0.02256248
248	0x3da8e9f4	0.08247748
249	0x3d265337	0.040606704
250	0xbda08371	-0.078375705
251	0x3a007782	0.00049006206
252	0x3da43fb6	0.080199644
253	0x3d465986	0.04842522
254	0xbd1068ee	-0.03525632
255	0xbe6c56dd	-0.2308001
