degradation_transformer_model.safetensors (safetensors, 866672 bytes, 38 tensors)

lm_head.weight f4 [1000, 64]
0.47095937 -0.31795037 -1.024931 -2.1678808 0.3074532 -0.049716733 1.9699972 1.5675005
0.4033688 1.4320704 -1.0054284 -0.45371714 0.078718655 -1.3895541 0.1303908 1.4367191
-0.4093578 -0.28552186 -2.134257 -0.41740087 -1.0271434 1.7283901 0.7879823 -2.124845
-0.9611197 -0.55562955 -0.56497014 -0.34581026 -0.26612496 -1.2221742 0.20648687 -0.71113497
-1.6150897 -1.5332093 -0.25652835 0.7236157 -0.64068896 0.65066296 0.13136826 -0.2812965
-0.5266478 -0.196859 -2.0911105 -0.37328306 0.37475437 0.09227437 -0.19451298 -1.622364
0.731575 0.6620301 -2.499646 -0.7466985 -0.11408931 -0.9379959 0.6047473 1.3842887
-0.74398005 -2.3745236 -2.1322882 -0.3670256 -0.12751585 0.6413134 0.111056805 0.36500186
0.98254883 0.49706036 1.9492389 -0.5583637 -1.4023213 0.040651847 -0.19739965 0.722621
0.9817205 0.3252411 1.3136983 0.081618235 -0.6165645 -1.2089736 -0.03247005 -0.47808075
-1.2238349 0.87334454 -0.77262783 0.19719967 0.054831352 -1.3610765 -2.2753618 0.63231784
1.0830665 0.65250915 0.34907165 1.9709105 -1.2859371 0.5976658 -1.1214647 1.5213326
0.9649178 -1.2579123 -1.1486068 1.7742139 -1.035949 0.2094368 -1.1251073 -0.04705115
-0.5329014 -0.78504723 -0.31337586 -1.5437403 1.062545 2.4836092 -0.6489455 0.95592785
0.6670036 0.08426474 -1.076144 -2.1076179 1.2777237 0.17509079 -0.6015577 0.55099124
0.5190174 -1.5324776 0.8231721 0.8272168 -1.2593024 -2.2260363 1.0587627 0.28668794
-0.94141996 0.2960246 1.2791342 -0.06657362 -0.0999866 -0.145083 1.3989785 -1.6438682
-2.1848783 1.9086797 -1.2590013 -0.022046817 0.2223345 -0.27882218 1.231202 -1.146851
-0.89991194 0.55945826 -0.8964103 -0.5613238 0.89901173 -2.6096108 0.47615552 0.802351
-0.12717304 0.19505124 0.13094355 -2.094336 -0.38907275 -0.4858092 0.4450867 0.17255495
0.7234749 -0.16032311 -3.3904083 -1.500964 -1.26544 -0.06603589 -1.2679029 0.706048
-0.03288203 -0.6666315 0.8790491 0.2716653 0.49089512 -0.76670617 1.4181504 0.71280026
2.101344 0.85672766 -0.39349186 -0.5268384 0.35059637 1.2756896 0.41002816 0.8824719
0.81511134 1.5228381 -1.2673059 -0.3395384 -0.3155155 0.20978248 0.24850221 -0.46644258
-0.2863861 0.37109622 -1.0522246 -0.90500486 -0.09799499 -1.9882656 -0.359811 -0.16170855
-0.9552501 0.5835931 -1.2729485 1.4984554 -0.9796185 0.34166887 1.408726 -0.420079
1.1812488 0.62801313 -0.8384758 -0.92632985 1.3131284 0.893896 0.19797002 -0.05318628
0.703566 0.043779466 0.32067233 -1.6615417 -0.5838602 0.46599716 -0.55536354 0.8205836
-0.005835761 -1.0364572 1.071022 -0.4499714 -1.0935999 0.64684194 1.0053256 1.6051899
1.7383983 -0.9960973 -0.5831232 -0.43249983 -1.6595082 -0.46629566 0.49907148 0.41076815
-0.04717742 -0.83501965 -0.62816286 1.5932503 1.355461 1.235819 0.4479926 1.4946142
-0.97402674 0.034002855 -0.48798984 1.2332113 -1.5513446 0.42636395 -0.123685025 -0.67011327
00000000: 9621 f13e 64ca a2be f030 83bf 8fbe 0ac0
00000010: 816a 9d3e c6a3 4bbd de28 fc3f dba3 c83f
00000020: 5b86 ce3e 154e b73f e1b1 80bf 9d4d e8be
00000030: 3f37 a13d e9dc b1bf 2a85 053e 69e6 b73f
00000040: 5897 d1be ec2f 92be ab97 08c0 91b5 d5be
00000050: 6f79 83bf e33b dd3f 35b9 493f 76fd 07c0
00000060: f10b 76bf bd3d 0ebf e2a1 10bf 0b0e b1be
00000070: 8841 88be 3470 9cbf 4b71 533e f10c 36bf
00000080: 42bb cebf 3440 c4bf af57 83be e13e 393f
00000090: 3104 24bf d991 263f 6785 063e 1806 90be
000000a0: 64d2 06bf 6895 49be c1d4 05c0 f51e bfbe
000000b0: cedf bf3e 58fa bc3d 692e 47be a0a9 cfbf
000000c0: 8048 3b3f ce7a 293f 33fa 1fc0 a227 3fbf
000000d0: a8a7 e9bd 8020 70bf b8d0 1a3f 5f30 b13f
000000e0: 7a75 3ebf 32f8 17c0 6977 08c0 c8ea bbbe
000000f0: 8493 02be 1d2d 243f c071 e33d 86e1 ba3e
00000100: 5288 7b3f b27e fe3e a980 f93f ecf0 0ebf
00000110: 447f b3bf 8d82 263d 2223 4abe b1fd 383f
00000120: 0952 7b3f 0086 a63e 4427 a83f 7627 a73d
00000130: 2cd7 1dbf a6bf 9abf 51ff 04bd 00c7 f4be
00000140: 9fa6 9cbf 8293 5f3f f0ca 45bf b6ee 493e
00000150: d796 603d c137 aebf 879f 11c0 95df 213f
00000160: eca1 8a3f d70a 273f 85b9 b23e cc46 fc3f
00000170: 9699 a4bf a000 193f 288c 8fbf 07bb c23f
00000180: da04 773f 4503 a1bf 8c05 93bf 7119 e33f
00000190: fa99 84bf 9a76 563e 8403 90bf b5b8 40bd
000001a0: 3a6c 08bf dbf8 48bf cd72 a0be 4899 c5bf
000001b0: 7901 883f 74f3 1e40 4b21 26bf b0b7 743f
000001c0: bfc0 2a3f fe92 ac3d 16bf 89bf 36e3 06c0
000001d0: 738c a33f 004b 333e afff 19bf c30d 0d3f
000001e0: 53de 043f 3a28 c4bf 68bb 523f 7bc4 533f
000001f0: d230 a1bf 6177 0ec0 8985 873f c3c8 923e
00000200: e600 71bf 8990 973e abba a33f c057 88bd
00000210: c6c5 ccbd a390 14be ba11 b33f 466a d2bf
00000220: 0cd5 0bc0 9e4f f43f f426 a1bf 879b b4bc
00000230: a8ab 633e c8c1 8ebe 0798 9d3f 03cc 92bf
00000240: a160 66bf a838 0f3f 257b 65bf ebb2 0fbf
00000250: a225 663f dd03 27c0 a8ca f33e e066 4d3f
00000260: a639 02be 83bb 473e 1116 063e 9a09 06c0
00000270: 8b34 c7be fcbb f8be 67e2 e33e 3fb2 303e
00000280: a735 393f be2b 24be 73fc 58c0 971f c0bf
00000290: f0f9 a1bf d33d 87bd a44a a2bf 90bf 343f
000002a0: 4faf 06bd 5da8 2abf 5d09 613f b717 8b3e
000002b0: 9b56 fb3e db46 44bf f485 b53f 147a 363f
000002c0: 6c7c 0640 8152 5b3f c477 c9be e2de 06bf
000002d0: 5e81 b33e cc49 a33f 36ef d13e aee9 613f
000002e0: 23ab 503f 5cec c23f 1437 a2bf fad7 adbe
000002f0: 3f8b a1be 38d1 563e 5d77 7e3e 90d1 eebe
00000300: 33a1 92be 5300 be3e 4caf 86bf 66ae 67bf
00000310: 99b1 c8bd 7d7f febf 2639 b8be ed96 25be
00000320: 458b 74bf 5b66 153f faef a2bf 63cd bf3f
00000330: 47c8 7abf 39ef ae3e 2251 b43f 9814 d7be
00000340: 2933 973f 78c5 203f 5aa6 56bf f423 6dbf
00000350: 9714 a83f 5ed6 643f a7b8 4a3e dbd9 59bd
00000360: e71c 343f 1952 333d 2a2f a43e 66ad d4bf
00000370: dd77 15bf 2e97 ee3e 4e2c 0ebf c411 523f
00000380: e939 bfbb a1aa 84bf 4017 893f a762 e6be
00000390: 15fb 8bbf 6f97 253f 82ae 803f dd76 cd3f
000003a0: d683 de3f 3c00 7fbf 9047 15bf 9e70 ddbe
000003b0: c46a d4bf 4ebe eebe 4c86 ff3e 3450 d23e
000003c0: 1c3d 41bd d9c3 55bf 48cf 20bf a0ef cb3f
000003d0: bf7f ad3f 512f 9e3f 495f e53e 854f bf3f
000003e0: d159 79bf 9446 0b3d ced9 f9be ded9 9d3f
000003f0: 7692 c6bf 604c da3e 934e fdbd 8b8c 2bbf

tbls_list.0.ff.first_proj.bias f4 [256]
-0.0909911 -0.26018283 -0.0019027764 0.02834265 -0.26343006 -0.012767405 -0.23570077 -0.17697215
-0.2029399 0.013915495 -0.06321302 -0.010511095 -0.2646877 -0.19250165 -0.09216957 -0.18401755
-0.26477292 -0.049934313 -0.06276639 -0.0083647305 -0.082493044 -0.3095034 -0.090294644 -0.1254703
-0.16532362 -0.069697835 -0.19734049 -0.20344786 -0.057813883 -0.2100172 -0.06681812 0.009245773
-0.0803135 -0.15199345 -0.22105654 0.0079533 -0.13179916 -0.017255465 -0.20694284 -0.2113322
-0.057699062 -0.19074443 0.01664349 -0.06029365 -0.120609194 -0.27649054 -0.10606155 -0.19087698
-0.09850679 -0.13817449 -0.29363242 -0.23842679 -0.115510926 -0.084167324 -0.05764988 -0.2641747
-0.19322354 -0.16528356 -0.27122328 -0.1390082 -0.07506272 -0.047652956 -0.28156364 -0.13101858
-0.0861748 -0.17562911 -0.14776179 -0.18209603 -0.12688175 -0.031781558 -0.15342456 -0.19645034
-0.016999522 0.006358281 -0.1536805 -0.0833147 -0.097500674 -0.13597742 -0.15873076 -0.10762614
-0.21332283 -0.11907388 -0.00025599933 -0.22440942 -0.23624475 -0.19197683 -0.08842701 -0.04981965
-0.16028607 -0.121655695 -0.06645391 -0.24414714 -0.059855077 -0.05568756 -0.19547753 -0.010579702
-0.17058331 -0.04024144 -0.070233434 -0.04857685 -0.118554294 -0.12089811 -0.12808374 -0.09274492
-0.16493134 -0.21381983 -0.06296226 -0.09752792 -0.1291169 -0.16701756 -0.12575433 -0.21492599
-0.08706416 -0.23021814 -0.21361381 -0.07341873 -0.116766565 -0.12936696 -0.25967553 -0.1754629
-0.17921038 -0.057331763 -0.07830136 -0.18175119 -0.11424383 -0.21270616 -0.06755907 -0.11876613
-0.17686579 -0.09403059 -0.058437478 -0.1868086 -0.24330941 -0.22990404 -0.2814237 -0.27457786
-0.2526946 -0.27003607 -0.23736589 -0.11278446 -0.037524637 -0.049910385 -0.16855632 -0.054006863
-0.18197134 -0.26847044 -0.09234751 -0.12577757 -0.21687718 -0.20979021 -0.1692986 0.010814108
-0.17575343 -0.1676953 -0.20318228 -0.09670639 -0.037735604 -0.20162427 -0.20460957 -0.16217561
-0.24162897 -0.12225318 -0.1066136 -0.20226075 -0.05984145 -0.22992764 -0.27686235 -0.11681893
-0.12683176 -0.18699694 -0.28318444 -0.28289598 -0.15647224 -0.20668039 -0.16411386 -0.06811136
-0.0983841 -0.1596996 -0.04174216 -0.19590148 -0.09642086 -0.18725474 -0.12980793 -0.20017469
-0.24496356 -0.10873968 -0.17677382 -0.23347251 -0.2092837 -0.15517123 -0.048870668 -0.069494724
-0.22454712 -0.23199737 -0.09028927 -0.06763155 -0.050218627 -0.22406396 -0.18141145 -0.15407503
-0.12956968 -0.14520407 -0.24594423 -0.20249806 -0.1864736 -0.07081275 -0.15377845 -0.14105105
-0.13356306 -0.18542168 -0.088996455 -0.1248059 -0.10428614 -0.29098085 -0.23651274 -0.20350236
-0.2404455 -0.16088197 -0.19037195 -0.19201458 -0.16770282 -0.06153127 -0.24261045 -0.24737643
-0.10448042 -0.19460289 -0.1346278 -0.12660539 -0.0611778 -0.22830132 -0.10648352 0.015767017
-0.09450066 -0.21367928 -0.16041791 -0.09814248 -0.21854594 -0.21540238 -0.13515115 -0.11611573
-0.11947696 -0.005633238 -0.044006076 -0.16572033 -0.14946732 -0.27098393 -0.2260308 -0.20604858
-0.08076468 -0.090359 0.039373722 -0.2105317 -0.1642534 -0.16740632 -0.16854928 -0.18775108
00000000: 8b59 babd af36 85be 9566 f9ba d82e e83c
00000010: 4ee0 86be 612e 51bc 8b5b 71be 3038 35be
00000020: 7acf 4fbe d1fd 633c d475 81bd ba36 2cbc
00000030: 2585 87be 271f 45be 66c3 bcbd 196f 3cbe
00000040: 5190 87be ec87 4cbd aa8b 80bd 390c 09bc
00000050: 1df2 a8bd 3b77 9ebe 66ec b8bd 497b 00be
00000060: 984a 29be bdbd 8ebd a013 4abe a354 50be
00000070: 40ce 6cbd c00e 57be f0d7 88bd 957b 173c
00000080: 677b a4bd 2ca4 1bbe a55c 62be 8f4e 023c
00000090: 5cf6 06be 555b 8dbc d3e8 53be 7867 58be
000000a0: da55 6cbd 8252 43be ee57 883c 79f6 76bd
000000b0: f401 f7bd 2b90 8dbe cc36 d9bd 4175 43be
000000c0: eebd c9bd 9d7d 0dbe fd56 96be 2726 74be
000000d0: fe90 ecbd eb5f acbd 4822 6cbd e841 87be
000000e0: 64dc 45be 1840 29be c7dd 8abe 2a58 0ebe
000000f0: 7cba 99bd bf2f 43bd 1c29 90be bc29 06be
00000100: 6a7c b0bd 1ed8 33be de4e 17be 6277 3abe
00000110: 4aed 01be 612d 02bd 541b 1dbe 472a 49be
00000120: 9542 8bbc 2059 d03b 6c5e 1dbe e6a0 aabd
00000130: 6fae c7bd aa3d 0bbe 518a 22be 186b dcbd
00000140: 4d71 5abe 02dd f3bd a637 86b9 95cb 65be
00000150: 25ea 71be 9395 44be 3819 b5bd b00f 4cbd
00000160: 0822 24be 9f26 f9bd fd18 88bd b501 7abe
00000170: 992a 75bd a418 64bd 432b 48be 7d56 2dbc
00000180: 64ad 2ebe 35d4 24bd 8cd6 8fbd 85f8 46bd
00000190: 98cc f2bd 6e99 f7bd 6228 03be 0cf1 bdbd
000001a0: c3e3 28be 96f3 5abe 5bf2 80bd b8bc c7bd
000001b0: 3837 04be a706 2bbe bec5 00be 8f15 5cbe
000001c0: b24e b2bd 4ebe 6bbe 94bd 5abe 8f5c 96bd
000001d0: 4f23 efbd c678 04be 31f4 84be 8cac 33be
000001e0: ed82 37be b6d4 6abd 775c a0bd fc1c 3abe
000001f0: abf8 e9bd a5cf 59be 695c 8abd a83b f3bd
00000200: 4e1c 35be 1c93 c0bd 235c 6fbd c14a 3fbe
00000210: 1a26 79be f76b 6bbe c416 90be 7895 8cbe
00000220: 3061 81be 2b42 8abe 0b10 73be 8afb e6bd
00000230: 6fb3 19bd d56e 4cbd 079a 2cbe 4d36 5dbd
00000240: b256 3abe f574 89be b120 bdbd d6cb 00be
00000250: 0d15 5ebe 3fd3 56be 9d5c 2dbe a82d 313c
00000260: b5f8 33be 51b8 2bbe 040f 50be 000e c6bd
00000270: a690 1abd 9876 4ebe 2c85 51be 5d11 26be
00000280: 966d 77be e05f fabd 3b58 dabd 711d 4fbe
00000290: 4f1c 75bd 2772 6bbe e7c0 8dbe c33e efbd
000002a0: 2fe0 01be 207c 3fbe 8dfd 90be bed7 90be
000002b0: 423a 20be 06a4 53be 770d 28be f87d 8bbd
000002c0: 9a7d c9bd 4b88 23be d4f9 2abd 669a 48be
000002d0: 4d78 c5bd b5bf 3fbe 5fec 04be 98fa 4cbe
000002e0: bad7 7abe e9b2 debd 3204 35be 6b13 6fbe
000002f0: 774e 56be 35e5 1ebe 9c2c 48bd 4053 8ebd
00000300: aeef 65be b890 6dbe 95e9 b8bd 6982 8abd
00000310: 0cb2 4dbd 0671 65be ecc3 39be d8c5 1dbe
00000320: eaad 04be 60b0 14be ced8 7bbe a75b 4fbe
00000330: eff2 3ebe 4606 91bd 1978 1dbe b06f 10be
00000340: c1c4 08be 2edf 3dbe c643 b6bd 3c9a ffbd
00000350: f993 d5bd 71fb 94be 6530 72be ec62 50be
00000360: 5837 76be 3ebe 24be ddf0 42be 789f 44be
00000370: 4aba 2bbe 3708 7cbd e06e 78be 3f50 7dbe
00000380: d5f9 d5bd fb45 47be dfdb 09be d8a4 01be
00000390: 9395 7abd d2c7 69be 0814 dabd d529 813c
000003a0: 9089 c1bd bece 5abe 9844 24be edfe c8bd
000003b0: 82ca 5fbe 7192 5cbe 1065 0abe 15ce edbd
000003c0: 56b0 f4bd 0697 b8bb b73f 34bd 97b2 29be
000003d0: f60d 19be 68be 8abe 9e74 67be 66fe 52be
000003e0: f467 a5bd 240e b9bd 5746 213d 9f95 57be
000003f0: 0b32 28be 906c 2bbe 2f98 2cbe d241 40be

tbls_list.0.ff.first_proj.weight f4 [256, 64]
-0.010182679 0.12307894 0.008277594 -0.094581775 0.109678954 0.16893828 -0.020349411 -0.14047334
0.03166242 -0.07966464 -0.16934462 -0.04743961 -0.025539871 -0.041553922 0.011706763 -0.13148467
0.14880554 -0.052541714 -0.0416638 0.023512898 0.12189525 0.17145847 0.011852365 0.07121188
-0.08780624 -0.11483031 0.09538138 0.05601339 -0.080175884 -0.07332521 0.12811778 0.017521502
0.034165826 0.06327477 -0.036974847 0.06825661 0.027675489 -0.055123527 -0.14715905 0.0720901
-0.114305675 0.012602208 -0.012769431 0.034507893 -0.1650217 0.02052108 -0.097077034 -0.037903562
0.015042564 0.1521143 -0.041113213 -0.12717418 -0.017426785 -0.12638022 -0.010256444 0.06395835
0.045557242 -0.040801063 0.08241045 -0.068650216 0.061526913 0.07955057 0.10641465 -0.02852032
0.067379564 -0.26702422 -0.18757683 -0.02347022 0.13953194 0.11145264 -0.001217094 0.051568538
-0.05355947 -0.062097248 -0.16318722 0.05193822 -0.17180167 -0.23543918 -0.025574844 0.086598374
0.0040766327 0.08588609 -0.011921903 0.11820941 -0.19076686 0.07548775 -0.0526932 -0.12893607
0.03486678 -0.078079976 -0.042458966 0.038695842 0.17407012 0.0073100217 0.0763374 -0.03857833
0.1821131 0.02858421 0.10747656 0.07928354 -0.12913889 -0.073865846 0.059686843 0.261925
-0.0056253597 0.14924099 0.028026698 -0.057432197 -0.041415118 -0.105787605 -0.029570179 -0.07714054
-0.026130382 -0.03319035 -0.0007241553 0.16740042 -0.08816191 -0.13829957 0.009544558 0.10297091
0.03828607 -0.16686928 -0.068571076 -0.07143783 0.16896585 0.0061895456 0.0026219115 0.17587008
-0.10836427 -0.071583286 -0.085616484 0.06278656 -0.11839998 0.02426492 0.0133793065 0.060289204
0.009300441 -0.05594979 0.07647378 -0.12282516 -0.05119252 0.076819144 -0.06710668 0.01463039
0.046310555 0.06378273 0.0009720879 0.099940404 -0.04794499 0.052688908 -0.20313995 -0.021325944
-0.05285052 -0.09083397 -0.049276557 -0.04709793 0.10981063 0.12672442 0.026676178 -0.07429948
-0.035507534 -0.23561496 -0.11200822 -0.157189 -0.13765895 0.11718412 -0.06699093 0.111777514
-0.023925127 -0.05803313 -0.069639534 -0.047327597 0.043040294 0.012104478 -0.018469421 -0.08608391
0.009215351 0.04526496 -0.02665799 0.09151936 -0.04638829 0.0006595844 -0.0568207 0.10751617
-0.11103882 0.18601644 -0.070340745 -0.05675117 0.0066251634 0.013112823 0.19184202 -0.033111285
0.077281505 -0.11142984 -0.015915062 0.09143981 0.08571898 0.07237963 -0.028821722 -0.00016783847
-0.080919236 -0.041738473 -0.24121594 0.056041606 -0.06312918 -0.016589774 -0.027496012 0.060208492
0.23480998 -0.046143293 0.020753196 0.0007913838 -0.2257845 -0.10784436 0.018199537 0.018894129
-0.0747032 0.09797002 -0.06409022 0.040590912 0.07077871 0.08779279 -0.017027522 0.025503252
-0.07712078 0.04802559 0.008561545 0.0042736223 -0.060213618 -0.11230048 0.18461636 0.04445307
-0.07174028 -0.029900886 0.03891656 -0.06319008 0.059309322 0.07277254 0.072336644 -0.0787073
-0.048992064 0.078959964 -0.03875181 0.080989845 -0.003495349 0.16220266 -0.018803049 -0.06346221
-0.013173845 -0.06926844 0.11989822 0.102423 0.049173083 0.05054458 -0.1559648 0.09313292
00000000: 40d5 26bc d010 fc3d bf9e 073c 17b4 c1bd
00000010: 5c9f e03d 28fe 2c3e cfb3 a6bc 3ed8 0fbe
00000020: 74b0 013d 3727 a3bd ad68 2dbe 0950 42bd
00000030: fe38 d1bc 7234 2abd b9cd 3f3c eba3 06be
00000040: 7b60 183e fb35 57bd a9a7 2abd 1f9e c03c
00000050: 38a4 f93d cf92 2f3e 6c30 423c 89d7 913d
00000060: c2d3 b3bd 272c ebbd 5057 c33d 4c6e 653d
00000070: 4133 a4bd 872b 96bd 4f31 033e 4189 8f3c
00000080: 77f1 0b3d 3496 813d f072 17bd 1fca 8b3d
00000090: b5b7 e23c 35c9 61bd ddb0 16be f9a3 933d
000000a0: 1819 eabd 7e79 4e3c e036 51bc 2658 0d3d
000000b0: 73fb 28be d31b a83c 53d0 c6bd c440 1bbd
000000c0: 1675 763c dac3 1b3e 5466 28bd f339 02be
000000d0: 9ec2 8ebc d169 01be a50a 28bc 98fc 823d
000000e0: 3b9a 3a3d 041f 27bd cfc6 a83d 7c98 8cbd
000000f0: a503 7c3d 69eb a23d edef d93d 72a3 e9bc
00000100: 4cfe 893d 66b7 88be 2414 40be 9e44 c0bc
00000110: 76e1 0e3e 4841 e43d e686 9fba 8839 533d
00000120: 2d61 5bbd af59 7ebd 8d1a 27be 2cbd 543d
00000130: c7ec 2fbe f816 71be 5682 d1bc 7d5a b13d
00000140: 4695 853b 0ce5 af3d 1654 43bc c617 f23d
00000150: 6358 43be 5299 9a3d d3d4 57bd d107 04be
00000160: 78d0 0e3d 65e8 9fbd 74e9 2dbd 887f 1e3d
00000170: 703f 323e e888 ef3b c856 9c3d 5004 1ebd
00000180: db7b 3a3e 6f29 ea3c ac1c dc3d 695f a23d
00000190: fc3c 04be fa46 97bd 317a 743d 091b 863e
000001a0: f054 b8bb a1d2 183e 3f98 e53c 063e 6bbd
000001b0: e6a2 29bd 2ca7 d8bd 293d f2bc dcfb 9dbd
000001c0: 620f d6bc 9bf2 07bd 3dd5 3dba 046b 2b3e
000001d0: 3b8e b4bd 679e 0dbe c760 1c3c 6ae2 d23d
000001e0: dbd1 1c3d c8df 2abe fe6e 8cbd ff4d 92bd
000001f0: 6205 2d3e acd1 ca3b 60d4 2b3b 4917 343e
00000200: 16ee ddbd 429a 92bd b257 afbd 3d96 803d
00000210: b07b f2bd 3ac7 c63c e134 5b3c d0f1 763d
00000220: e060 183c 9b2b 65bd 499e 9c3d c28b fbbd
00000230: 3faf 51bd 5b53 9d3d 3a6f 89bd 4eb4 6f3c
00000240: 23b0 3d3d 85a0 823d b7d3 7e3a 8ead cc3d
00000250: f761 44bd 53d0 573d eb03 50be bfb3 aebc
00000260: c979 58bd 2907 babd 37d6 49bd c2e9 40bd
00000270: 65e4 e03d 0cc4 013e 0088 da3c 532a 98bd
00000280: 5970 11bd 0c45 71be 9164 e5bd 27f6 20be
00000290: 78f6 0cbe 3afe ef3d 8a32 89bd 9ceb e43d
000002a0: a1fe c3bc 26b4 6dbd 2c9f 8ebd 95da 41bd
000002b0: 054b 303d dc51 463c 2f4d 97bc c34c b0bd
000002c0: fcfb 163c c067 393d db61 dabc 816e bb3d
000002d0: a601 3ebd f6e7 2c3a d3bc 68bd 7031 dc3d
000002e0: 5268 e3bd 187b 3e3e cf0e 90bd ea73 68bd
000002f0: e617 d93b 2ad7 563c 3c72 443e b39f 07bd
00000300: c445 9e3d 5435 e4bd 4e60 82bc cc44 bb3d
00000310: 6f8d af3d c53b 943d 881b ecbc ccfd 2fb9
00000320: fcb8 a5bd f6f5 2abd 5001 77be e28b 653d
00000330: df49 81bd 47e7 87bc 513f e1bc 2e9d 763d
00000340: 0772 703e c000 3dbd 9b02 aa3c de74 4f3a
00000350: 0d34 67be 81dd dcbd 3217 953c dcc7 9a3c
00000360: fefd 98bd 81a4 c83d bc41 83bd a842 263d
00000370: 6ef4 903d b5cc b33d 4d7d 8bbc 32ec d03c
00000380: 80f1 9dbd 7bb6 443d b945 0c3c be09 8c3b
00000390: 8ea2 76bd cbfd e5bd 120c 3d3e 6c14 363d
000003a0: 91ec 92bd b4f2 f4bc f966 1f3d cd69 81bd
000003b0: 55ee 723d c509 953d 3c25 943d 4b31 a1bd
000003c0: e7ab 48bd c3b5 a13d 38ba 1ebd 01de a53d
000003d0: 3a12 65bb 7418 263e da08 9abc 7af8 81bd
000003e0: 1cd7 57bc 9ddc 8dbd 338d f53d 26c3 d13d
000003f0: b769 493d d507 4f3d 3db5 1fbe 79bc be3d

tbls_list.0.ff.layernorm.bias f4 [64]
-0.015451644 -0.031033508 0.051675856 0.019138562 -0.026311852 0.042273868 0.05685566 0.015237081
0.07299068 0.027748842 -0.050310154 -0.023066198 -0.030462647 -0.0396353 -0.0029594717 0.020946082
-0.01980519 0.013310775 0.03257175 -0.013572957 -0.024515467 0.02501644 -0.015884144 -0.033292565
-0.026086312 0.028545588 -0.040566847 0.012006372 -0.0076986193 0.0014029271 0.027465433 -0.01665998
0.011852513 -0.031862557 0.057435814 -0.032968327 -0.023484746 -0.01746413 -0.04617282 0.016550142
0.07334652 -0.010477971 -0.0034821164 -0.032962084 0.02396693 -0.0232202 -0.03107127 0.019418607
-0.004512422 0.025005132 -0.010248502 0.029278299 -0.02947163 0.03454718 -0.020000977 -0.028731257
0.048427105 0.0024285682 0.018111736 -0.0049205855 -0.018662361 -0.037415672 -0.020412344 0.04193138
00000000: e428 7dbc fc39 febc 10aa 533d 79c8 9c3c
00000010: f48b d7bc 5d27 2d3d 7be1 683d f3a4 793c
00000020: 237c 953d 8a51 e33c 0512 4ebd 53f5 bcbc
00000030: cd8c f9bc a058 22bd b2f3 41bb 1e97 ab3c
00000040: 7e3e a2bc 7015 5a3c f569 053d 1c61 5ebc
00000050: a9d4 c8bc 47ef cc3c 771f 82bc c95d 08bd
00000060: f6b2 d5bc 70d8 e93c 6c29 26bd 60b6 443c
00000070: b344 fcbb 6ce2 b73a 30ff e03c 837a 88bc
00000080: 0b31 423c 5082 02bd d141 6b3d cc09 07bd
00000090: 1563 c0bc ef10 8fbc b61f 3dbd 2a94 873c
000000a0: b336 963d ccab 2bbc 3834 64bb 4003 07bd
000000b0: 4c56 c43c 4a38 bebc 2d89 febc c513 9f3c
000000c0: f0dc 93bb 90d7 cc3c 55e9 27bc 0bd9 ef3c
000000d0: 7d6e f1bc 5881 0d3d 17d9 a3bc d05d ebbc
000000e0: 805b 463d 9d28 1f3b 105f 943c dd3c a1bb
000000f0: cfe1 98bc 2d41 19bd ca37 a7bc 3dc0 2b3d

tbls_list.0.ff.layernorm.weight f4 [64]
1.0215987 1.0351331 0.9762685 1.0389448 0.9874804 1.0370489 1.0032146 0.98903155
0.976169 0.9607168 0.9862948 1.0302579 0.9736011 0.9285972 1.0065037 1.0517461
1.0976774 1.0275719 1.0259507 0.97960764 0.9971977 1.0195628 1.0431211 0.97649443
1.0074861 0.9352627 1.007327 1.0527233 1.0248109 1.0087606 0.9694916 0.99476403
1.023461 1.0920671 1.0141041 0.9379184 1.0540795 0.9678925 0.97054696 1.0258999
0.9933687 0.92108774 1.0619634 1.060882 0.9769836 0.9903 1.0813633 1.0169055
1.0569735 0.9541046 1.0484488 1.0115979 0.9636955 1.0057473 0.96603405 1.0385411
0.9720195 0.95041716 1.1093723 1.0240217 0.96465623 0.95857924 0.9905932 0.97226286
00000000: bfc3 823f 3e7f 843f bbec 793f 25fc 843f
00000010: 84cb 7c3f 05be 843f 5669 803f 2c31 7d3f
00000020: 36e6 793f 89f1 753f d17d 7c3f 7edf 833f
00000030: ec3d 793f 8cb8 6d3f 1dd5 803f 9e9f 863f
00000040: b180 8c3f 7a87 833f 5a52 833f 91c7 7a3f
00000050: 5948 7f3f 0981 823f fe84 853f 8afb 793f
00000060: 4ef5 803f 606d 6f3f 17f0 803f a3bf 863f
00000070: 012d 833f 111f 813f 9a30 783f dba8 7e3f
00000080: c500 833f dbc8 8b3f 2ace 813f 6c1b 703f
00000090: 14ec 863f cec7 773f c475 783f b050 833f
000000a0: 694d 7e3f 68cc 6b3f 6bee 873f fbca 873f
000000b0: 991b 7a3f 4d84 7d3f 1d6a 8a3f f629 823f
000000c0: e84a 873f 3340 743f 9233 863f 0a7c 813f
000000d0: c0b4 763f 54bc 803f 024e 773f eaee 843f
000000e0: 45d6 783f 8a4e 733f e9ff 8d3f 2513 833f
000000f0: b6f3 763f 7365 753f 8497 7d3f 38e6 783f

tbls_list.0.ff.second_proj.bias f4 [64]
-0.07114751 -0.09813433 -0.07633375 -0.027501648 0.0365657 0.03383969 -0.0020244736 0.02333864
0.09873253 -0.068631135 -0.024596503 -0.06302189 -0.048250925 -0.07655553 -0.062172763 0.040283088
0.017174086 0.06703577 0.036956683 -0.08034154 0.012819322 0.08049397 0.0027097247 0.019583892
0.068230905 0.06161861 -0.00478132 -0.030809866 0.03354878 0.042740673 -0.059014414 -0.0054507535
0.036260284 -0.023690898 0.09657243 -0.07752909 0.07927857 -0.09726788 0.04416343 -0.03785579
-0.03107244 0.010470989 0.00056683936 -0.023696186 -0.038531307 -0.0054154955 -0.035403013 -0.012112769
-0.062093757 0.07307844 0.020306157 -0.022233762 0.07758573 0.018836945 0.010676569 -0.014243515
-0.019627923 0.08714776 0.076886155 -0.033500537 0.0737682 0.053266257 0.04390738 0.073191315
00000000: c9b5 91bd a7fa c8bd de54 9cbd 234b e1bc
00000010: eac5 153d 7d9b 0a3d 08ad 04bb ad30 bf3c
00000020: 4834 ca3d 7b8e 8cbd 9b7e c9bc 9f11 81bd
00000030: c3a2 45bd 25c9 9cbd dea8 7ebd e1ff 243d
00000040: abb0 8c3c 0d4a 893d e45f 173d 1b8a a4bd
00000050: 2208 523c 06da a43d a395 313b 666e a03c
00000060: a5bc 8b3d cc63 7c3d 9fac 9cbb f964 fcbc
00000070: 726a 093d d810 2f3d 19b9 71bd 3c9c b2bb
00000080: aa85 143d 6a13 c2bc c4c7 c53d 92c7 9ebd
00000090: ce5c a23d 6234 c7bd b6e4 343d ac0e 1bbd
000000a0: a18b febc 838e 2b3c f297 143a 811e c2bc
000000b0: 01d3 1dbd 7874 b1bb c002 11bd a374 46bc
000000c0: 0656 7ebd 26aa 953d 1959 a63c 9423 b6bc
000000d0: 44e5 9e3d f04f 9a3c c7ec 2e3c a25d 69bc
000000e0: bdca a0bc 867a b23d 7d76 9d3d dc37 09bd
000000f0: c813 973d b82d 5a3d 3ad8 333d 54e5 953d

tbls_list.0.ff.second_proj.weight f4 [64, 256]
-0.09813056 0.06543603 0.039078258 -0.04107906 -0.034169465 -0.0058929995 -0.1385742 -0.04604705
-0.105092704 0.0645808 -0.03463438 0.11084267 -0.038251523 0.009270323 -0.11867657 0.027092671
0.072157934 -0.106414154 -0.019984359 0.005255778 -0.07835897 -0.029765613 0.027675038 0.008869107
-0.014876801 -0.04876375 0.03713859 0.001513939 0.22665696 0.10804741 0.1129789 -0.067864284
-0.00062999304 -0.039572887 0.019456625 -0.020872695 0.018534226 -0.11496329 -0.050658572 0.12594593
0.003700015 0.05877611 -0.13312668 -0.0029027257 -0.041182626 -0.14805827 -0.009477706 0.060910594
0.07971189 0.11004837 -0.15570691 0.07701012 0.086441986 0.039547157 0.120542705 0.15560852
-0.051614612 -0.044732116 0.1522962 -0.11910065 -0.08520934 0.01893449 0.024996005 0.052799385
0.095660254 -0.18688497 0.023418542 -0.048819494 0.011349995 -0.08697064 -0.046276312 0.09309425
-0.018873109 0.105685435 -0.056607544 -0.022011407 0.06064991 0.016055707 -0.121700004 -0.0529171
-0.008813017 0.022163346 0.05035928 0.048910033 0.057485864 0.07441331 -0.06861121 -0.16293691
-0.045071367 0.021858431 -0.057455666 0.024217444 0.021314751 0.12934363 0.0625198 -0.063872844
-0.021790741 -0.12167489 0.083761156 -0.014822776 0.13909791 -0.0063210237 0.13485356 -0.049108163
0.08034682 -0.16391511 0.092160285 -0.09546718 -0.027296357 0.106254734 -0.12284761 0.09955266
0.04703201 -0.037819248 -0.010351313 0.11057211 0.10895212 0.023791255 0.05425879 0.13781586
0.0034196747 0.089487374 0.031124508 0.08007151 0.0064767837 0.06641002 0.16992569 -0.10025216
-0.040049557 -0.12796414 0.05016551 -0.05979893 0.083115414 0.025035203 0.005432772 -0.03420264
0.0275936 -0.008426892 0.02380466 0.08246783 -0.13307337 0.026029943 0.09918015 0.16266583
-0.033422727 -0.0137889115 -0.09276085 0.03876095 -0.015097077 0.117522515 -0.056892 -0.056482565
-0.06211344 0.011208701 -0.18914872 -0.03164851 -0.12234112 -0.05245056 0.09396982 0.026637489
-0.012028764 0.0919421 -0.08255377 -0.023674415 -0.05158994 0.0634973 0.07551588 0.045585945
-0.19904977 0.017516967 -0.005323537 0.13065703 -0.049888283 -0.006445624 0.031286508 -0.009310334
0.058167584 -0.25164804 0.017561655 -0.10688852 0.07914795 0.13635844 -2.4684497e-05 -0.063639626
-0.05229358 0.082080916 0.15346713 -0.08381141 -0.027172852 -0.057551406 0.17849992 -0.07368012
-0.02368299 0.031366475 -0.041341864 0.0038060294 -0.06919135 -0.025409032 0.11351893 0.0049311323
-0.031790107 -0.13528264 -0.06897102 -0.08812416 0.05321066 -0.040515594 0.111520834 -0.019652685
-0.06148297 -0.024769068 0.017812274 -0.19770473 -0.036849998 0.036531597 -0.020398915 -0.07811499
-0.0027630182 0.05846648 0.14079516 -0.17442974 -0.12408888 -0.055384822 0.019035831 -0.10019015
0.06257722 -0.022825982 0.0022533718 -0.015950479 -0.059436314 -0.014320367 -0.11174132 -0.09406887
-0.06908569 -0.025902707 0.11158529 -0.033149265 -0.06095909 -0.014031186 -0.0669946 0.036732454
0.003371216 0.05158028 -0.0697273 0.07222244 -0.018589672 0.053722218 -0.031099884 0.08600671
-0.0463124 0.06072466 -0.064950295 0.024702722 0.06517599 0.089275844 0.051291466 0.12995414
00000000: adf8 c8bd 5303 863d 8610 203d 8442 28bd
00000010: 48f5 0bbd 101a c1bb 65e6 0dbe d59b 3cbd
00000020: d83a d7bd f042 843d c8dc 0dbd 7b01 e33d
00000030: a1ad 1cbd 8ee2 173c b40c f3bd 73f1 dd3c
00000040: 8ac7 933d aaef d9bd 3db6 a3bc a938 ac3b
00000050: ab7a a0bd 04d7 f3bc c3b6 e23c bb4f 113c
00000060: d3bd 73bc 7fbc 47bd a21e 183d 5d6f c63a
00000070: c318 683e f647 dd3d 7b61 e73d 6efc 8abd
00000080: 1e26 25ba 2e17 22bd 8063 9f3c 37fd aabc
00000090: 17d5 973c e071 ebbd 5d7f 4fbd f8f7 003e
000000a0: f37b 723b 38bf 703d 5c52 08be a83b 3ebb
000000b0: 1daf 28bd 969c 17be 6148 1bbc 637d 793d
000000c0: fd3f a33d 0a61 e13d a271 1fbe 7bb7 9d3d
000000d0: 7f08 b13d 33fc 213d 18df f63d d757 1f3e
000000e0: d869 53bd 0639 37bd 89f3 1b3e 0beb f3bd
000000f0: 3c82 aebd 811c 9b3c 6cc4 cc3c 2b44 583d
00000100: 86e9 c33d c65e 3fbe 3ed8 bf3c f3f6 47bd
00000110: 54f5 393c aa1d b2bd 3b8c 3dbd 33a8 be3d
00000120: c79b 9abc 9b71 d83d 50dd 67bd 4451 b4bc
00000130: 0a6c 783d 4287 833c da3d f9bd 9abf 58bd
00000140: 7964 10bc e88f b53c 8845 4e3d e355 483d
00000150: 4c76 6b3d 0166 983d 0984 8cbd efd8 26be
00000160: c19c 38bd 7410 b33c a256 6bbd a963 c63c
00000170: 469c ae3c a872 043e 620a 803d c4cf 82bd
00000180: 7f82 b2bc af30 f9bd f88a ab3d 3bdb 72bc
00000190: af6f 0e3e 9720 cfbb 0d17 0a3e a425 49bd
000001a0: e08c a43d 5dd9 27be 88be bc3d 4c84 c3bd
000001b0: 9c9c dfbc 159c d93d 8797 fbbd 44e2 cb3d
000001c0: a3a4 403d 5be8 1abd 8e98 29bc a173 e23d
000001d0: 4a22 df3d e1e5 c23c 773e 5e3d 9a1f 0d3e
000001e0: 9f1c 603b 2845 b73d d3f8 fe3c 88fc a33d
000001f0: 333b d43b fa01 883d 0001 2e3e 0151 cdbd
00000200: 010b 24bd 0809 03be 5a7a 4d3d b9ef 74bd
00000210: 6a38 aa3d a016 cd3c 6505 b23b 1118 0cbd
00000220: f90b e23c f210 0abc fe01 c33c e5e4 a83d
00000230: 6344 08be bf3c d53c f61e cb3d df91 263e
00000240: 45e6 08bd e3ea 61bc 67f9 bdbd cdc3 1e3d
00000250: bb59 77bc a5af f03d 9607 69bd 435a 67bd
00000260: aa6a 7ebd b3a4 373c 34b0 41be dea1 01bd
00000270: fb8d fabd 66d6 56bd 4073 c03d dd36 da3c
00000280: 4b14 45bc 244c bc3d f311 a9bd d9f0 c1bc
00000290: f94f 53bd df0a 823d 12a8 9a3d 54b8 3a3d
000002a0: b4d3 4bbe be7f 8f3c 1171 aebb f5ca 053e
000002b0: a857 4cbd d035 d3bb 4826 003d 5f8a 18bc
000002c0: 2241 6e3d 03d8 80be 76dd 8f3c 5ee8 dabd
000002d0: 5218 a23d 8ca1 0b3e 8e11 cfb7 7e55 82bd
000002e0: cb31 56bd 0a1a a83d 7d26 1d3e 51a5 abbd
000002f0: 9a99 debc 06bb 6bbd afc8 363e 9ae5 96bd
00000300: d402 c2bc 227a 003d 1656 29bd 946e 793b
00000310: 32b4 8dbd 9a26 d0bc 9d7c e83d 5695 a13b
00000320: 5836 02bd 8887 0abe ae40 8dbd 717a b4bd
00000330: 6cf3 593d aef3 25bd 0965 e43d abfe a0bc
00000340: 91d5 7bbd 80e8 cabc 0ceb 913c 1c73 4abe
00000350: 06f0 16bd 28a2 153d a01b a7bc c0fa 9fbd
00000360: c113 35bb 8c7a 6f3d 9b2c 103e b69d 32be
00000370: 5022 febd 32db 62bd 08f1 9b3c 7e30 cdbd
00000380: 7c28 803d 8efd babc 4ead 133b 94aa 82bc
00000390: 7e73 73bd f99f 6abc a2d8 e4bd 2ea7 c0bd
000003a0: cc7c 8dbd ea31 d4bc d486 e43d 86c7 07bd
000003b0: 3db0 79bd 0fe3 65bc 7734 89bd c574 163d
000003c0: 9eef 5c3b d845 533d 30cd 8ebd 5ce9 933d
000003d0: 5e49 98bc d40b 5c3d 2fc5 febc 4924 b03d
000003e0: 12b2 3dbd 6cba 783d a904 85bd 5d5d ca3c
000003f0: fd7a 853d 41d6 b63d 0017 523d b312 053e

tbls_list.0.mha.kproject.weight f4 [64, 64]
0.09941111 -0.09661586 -0.19300663 0.18404394 0.0635837 -0.1264699 -0.17741124 -0.21017854
0.122389935 0.29463676 0.012159237 -0.06781237 -0.0685245 0.15914187 0.2133706 -0.05677275
-0.029659484 0.09339129 0.07721783 -0.16329204 -0.23126338 0.19413978 0.109627135 -0.19535156
0.060681663 -0.026631644 -0.0022950848 -0.10237792 0.006147463 0.18053938 0.098315105 -0.10032861
0.085638 0.07784133 -0.028917197 -0.01757262 0.0072704353 0.1828367 -0.1032514 0.077992335
0.08742218 -0.04496363 0.020363806 0.05878992 -0.007657253 0.22558405 -0.027195357 0.093327455
-0.09331885 -0.093233325 0.0047196466 0.09456585 -0.31339896 -0.08307193 -0.08950192 -0.11410691
-0.06787819 0.12322239 -0.005679605 0.1538818 0.107874915 -0.05886075 0.07603577 -0.043281544
0.06206268 0.009900074 0.13686058 0.010388746 0.17267682 -0.20411076 -0.08379855 0.0511983
-0.10050729 -0.16587347 0.060889613 0.006857121 -0.053593375 0.06772008 -0.12421431 -0.0443553
0.027942589 0.05082452 0.14173134 0.045391686 -0.08168641 0.05551219 0.101018995 0.17313564
0.0017625928 0.15269068 -0.034411963 -0.27195176 -0.14059126 -0.06969102 0.14511882 -0.14884952
0.33373284 -0.111766405 -0.17770806 0.07655313 0.117523685 -0.13225059 -0.10706585 0.13502634
0.0034019183 -0.015059705 -0.088760376 -0.0019832382 -0.19894256 0.03520574 0.047395535 -0.10333167
0.067742586 0.15441334 0.08743159 -0.13067459 -0.011448536 0.072216794 -0.038286082 -0.12574823
-0.10970715 -0.0099087255 0.1275025 0.07198977 -0.032488875 0.075675726 0.01856007 0.099488705
0.08058851 0.048136182 0.07400073 0.060407445 -0.11503781 -0.03903157 -0.098229736 0.12777029
-0.12588662 -0.13100064 0.07662449 0.08331732 0.014724976 -0.09342309 -0.072849564 -0.12655406
-0.12608989 0.2108889 0.14591019 0.062466245 0.22064272 -0.08681008 0.10395378 0.149542
-0.026098551 0.09764874 0.038928237 0.122224666 -0.08650713 -0.028463928 -0.102117494 0.12796232
-0.10061477 0.06877098 -0.102457725 0.10560412 -0.13253152 -0.04038937 0.024752716 -0.16466764
0.012497237 -0.12601125 -0.012149591 -0.22981176 -0.06446017 -0.013573642 -0.06268591 -0.056818984
-0.043459665 0.12501423 -0.12907015 -0.12535717 0.14996643 0.0028294737 -0.05120079 -0.026123792
-0.037200835 0.045585815 0.21133018 -0.0064007076 0.00053765974 -0.33739385 -0.027302364 0.002838738
0.08370549 -0.08326856 -0.06891205 0.1770568 0.042797357 -0.11976449 -0.17423014 0.08063804
-0.040665463 -0.022895074 0.07722488 -0.06444625 0.04138425 -0.18979521 -0.20464627 0.009822644
-0.2115277 0.05116639 0.29741237 0.05972506 0.0036650526 -0.15500472 0.06039514 0.055701964
0.049010474 -0.12390518 -0.12893994 0.17197913 -0.098457456 0.077386014 -0.12585075 -0.10487008
-0.0976914 0.011353955 -0.17440125 -0.07506217 -0.06900089 -0.05136122 -0.022289615 -0.11246429
0.03997154 -0.12181709 -0.006971219 -0.2155364 0.09060476 -0.01938382 -0.03668758 -0.2015751
-0.06249152 0.07270356 0.1236301 0.010722165 0.034294806 0.013194236 0.039441753 0.08391833
-0.016268658 -0.010556967 0.15621755 0.07430589 0.044194717 -0.07692581 -0.058635864 0.14920716
00000000: 0d98 cb3d 89de c5bd 88a3 45be 0476 3c3e
00000010: 2c38 823d 5381 01be 4bab 35be 0b39 57be
00000020: 93a7 fa3d a1da 963e 8937 473c 36e1 8abd
00000030: 9356 8cbd 16f6 223e d37d 5a3e 8b8a 68bd
00000040: 72f8 f2bc ef43 bf3d 6224 9e3d 0736 27be
00000050: 4fd0 6cbe 94cc 463e 3184 e03d 3d0a 48be
00000060: 568d 783d 9b2a dabc 2269 16bb 84ab d1bd
00000070: a870 c93b 51df 383e 6e59 c93d 1679 cdbd
00000080: fa62 af3d 466b 9f3d c2e3 ecbc 75f4 8fbc
00000090: d53c ee3b 8b39 3b3e 7875 d3bd 72ba 9f3d
000000a0: 660a b33d c92b 38bd ffd1 a63c b3cd 703d
000000b0: b2e9 fabb 81ff 663e ccc8 debc 7722 bf3d
000000c0: f41d bfbd 1df1 bebd 44a7 9a3b beab c13d
000000d0: d475 a0be 9e21 aabd c84c b7bd e2b0 e9bd
000000e0: b803 8bbd 055c fc3d fb1b babb 3193 1d3e
000000f0: 86ed dc3d f817 71bd a4b8 9b3d fd47 31bd
00000100: 7035 7e3d ec33 223c 2e25 0c3e 8f35 2a3c
00000110: 31d2 303e 6902 51be 939e abbd 4fb5 513d
00000120: c4d6 cdbd bcda 29be 6367 793d b3b1 e03b
00000130: ba84 5bbd d3b0 8a3d 1264 febd e7ad 35bd
00000140: dbe7 e43c 5f2d 503d 0522 113e a2ec 393d
00000150: 344b a7bd c060 633d 0ce3 ce3d 784a 313e
00000160: cd06 e73a f25a 1c3e 8ff3 0cbd 433d 8bbe
00000170: 28f7 0fbe 2aba 8ebd 079a 143e 026c 18be
00000180: 08df aa3e c9e5 e4bd 1af9 35be e3c7 9c3d
00000190: 42b0 f03d b36c 07be 5745 dbbd 5844 0a3e
000001a0: b8f2 5e3b fbbc 76bc 00c8 b5bd 37f9 01bb
000001b0: 99b7 4bbe e533 103d d221 423d 8e9f d3bd
000001c0: a0bc 8a3d 881e 1e3e 550f b33d 8fcf 05be
000001d0: a492 3bbc 66e6 933d ded1 1cbd 25c4 00be
000001e0: 24ae e0bd 3558 22bc 0490 023e 5f6f 933d
000001f0: 0e13 05bd e0fb 9a3d 4a0b 983c bcc0 cb3d
00000200: 970b a53d 722a 453d b28d 973d cc6d 773d
00000210: f198 ebbd 91df 1fbd ac2c c9bd 37d6 023e
00000220: 6ce8 00be 0825 06be 4ded 9c3d 45a2 aa3d
00000230: 0741 713c 9b54 bfbd 2732 95bd 6397 01be
00000240: b51d 01be 43f3 573e 7b69 153e 9bdc 7f3d
00000250: 2af0 613e 7cc9 b1bd b8e5 d43d 8a21 193e
00000260: a1cc d5bc 10fc c73d 3773 1f3d ed50 fa3d
00000270: a62a b1bd 2f2d e9bc fa22 d1bd 8e08 033e
00000280: 1e0f cebd cdd7 8c3d 5bd5 d1bd f946 d83d
00000290: 58b6 07be 536f 25bd 35c6 ca3c a29e 28be
000002a0: 36c1 4c3c 1809 01be 140f 47bc c653 6bbe
000002b0: b203 84bd fb63 5ebc 7861 80bd 06bb 68bd
000002c0: c302 32bd bb03 003e f72a 04be a15d 00be
000002d0: cd90 193e b16e 393b ebb7 51bd 9001 d6bc
000002e0: e75f 18bd 31b8 3a3d f066 583e 07bd d1bb
000002f0: bcf1 0c3a e3be acbe 35a9 dfbc 1f0a 3a3b
00000300: c96d ab3d b588 aabd c321 8dbd 614e 353e
00000310: 484c 2f3d 1647 f5bd 6369 32be 8f25 a53d
00000320: d490 26bd 738e bbbc 1428 9e3d 65fc 83bd
00000330: 8882 293d ad59 42be cb8e 51be 28ef 203c
00000340: b89a 58be d993 513d 6f46 983e 44a2 743d
00000350: 6131 703b 8fb9 1ebe e560 773d be27 643d
00000360: 35bf 483d 00c2 fdbd d508 04be 4c1b 303e
00000370: 10a4 c9bd 8f7c 9e3d 05df 00be 20c6 d6bd
00000380: 6e12 c8bd f005 3a3c 3e96 32be 32ba 99bd
00000390: 5750 8dbd 2560 52bd b698 b6bc ad53 e6bd
000003a0: 33b9 233d 3d7b f9bd d36e e4bb 93b5 5cbe
000003b0: fd8e b93d d1ca 9ebc b745 16bd b469 4ebe
000003c0: 1cf7 7fbd 9be5 943d c731 fd3d 05ac 2f3c
000003d0: b678 0c3d a32c 583c ad8d 213d 60dd ab3d
000003e0: d945 85bc 21f7 2cbc 7ef7 1f3e b02d 983d
000003f0: 8505 353d 478b 9dbd 292c 70bd c3c9 183e

tbls_list.0.mha.layernorm.bias f4 [64]
-0.013752553 0.058682304 -0.021644732 -0.03085247 0.109502904 -0.009810189 -0.03217807 -0.0825198
-0.015774693 0.05654785 0.08362289 0.14845808 0.1068293 0.08991234 0.038973242 -0.067377165
-0.14401409 -0.13675426 0.017127743 -0.0048035067 0.16521062 -0.0770578 0.0570373 0.054063026
0.11723349 -0.052084208 -0.047344465 -0.040379986 -0.054908663 -0.062844515 -0.1333653 0.053427614
0.007562509 0.04076867 -0.090001486 -0.08181149 0.0123588275 0.04677752 0.06761658 -0.022353675
-0.025969464 -0.0065381574 -0.0044157878 0.061688803 0.123267874 0.05750395 0.10218808 0.046358936
0.05003107 -0.11451954 0.09547086 0.023154626 -0.010781316 -0.099506 -0.033539984 -0.063008584
-0.027790261 -0.10454019 -0.11373089 -0.12737964 -0.055048645 0.036797382 0.012853902 -0.14520128
00000000: 6352 61bc db5c 703d 4b50 b1bc 52be fcbc
00000010: 0f43 e03d eaba 20bc 27cd 03bd 2400 a9bd
00000020: ee39 81bc b89e 673d 7a42 ab3d 6505 183e
00000030: 52c9 da3d f623 b83d 68a2 1f3d 0afd 89bd
00000040: 6e78 13be 4f09 0cbe 7b4f 8c3c bc66 9dbb
00000050: f92c 293e 7bd0 9dbd f29f 693d 3171 5d3d
00000060: 1d18 f03d 4056 55bd 45ec 41bd 7c65 25bd
00000070: e8e7 60bd a0b4 80bd ea90 08be ead6 5a3d
00000080: ecce f73b 0dfd 263d b352 b8bd c88c a7bd
00000090: ae7c 4a3c c999 3f3d 907a 8a3d 0e1f b7bc
000000a0: eabd d4bc 0a3e d6bb 50b2 90bb 66ad 7c3d
000000b0: de73 fc3d 4389 6b3d fc47 d13d dee2 3d3d
000000c0: 61ed 4c3d 3889 eabd 3a86 c33d c5ae bd3c
000000d0: 1ea4 30bc cdc9 cbbd 3961 09bd a50a 81bd
000000e0: 67a8 e3bc 2b19 d6bd beeb e8bd cf6f 02be
000000f0: b07a 61bd dab8 163d 2c99 523c a5af 14be

tbls_list.0.mha.layernorm.weight f4 [64]
0.9915812 1.0371739 1.0021671 1.0086635 1.0575897 1.0030388 1.0160724 1.0477
0.9935472 0.9132826 1.0620607 1.086242 1.0132422 0.98263514 0.9470842 1.0455065
1.1250373 0.919095 1.0301392 1.0334095 1.0202689 0.9462168 1.0337054 0.96647644
0.9371807 0.93412036 0.96226335 1.0327454 0.9362657 1.0409902 0.99901867 0.963584
0.89641654 1.110229 0.9832817 1.0232502 0.98359305 1.0501517 1.0181855 1.0341707
0.98936236 0.8975758 0.9734006 1.0427579 0.9569675 1.0627289 1.0886855 0.97086495
1.1013875 0.9427405 0.9634821 0.93412435 0.9684017 1.0212694 1.0365224 1.0309532
0.9865132 1.0398741 1.0791426 1.0179341 1.0173234 1.0016781 0.9796388 0.97476166
00000000: 44d8 7d3f 1dc2 843f 0347 803f e31b 813f
00000010: 195f 873f 9363 803f a90e 823f 091b 863f
00000020: 1c59 7e3f e3cc 693f 9bf1 873f fa09 8b3f
00000030: ecb1 813f fa8d 7b3f 1c74 723f 28d3 853f
00000040: 3901 903f cf49 6b3f 9adb 833f c346 843f
00000050: 2c98 823f 443b 723f 7550 843f 006b 773f
00000060: 13eb 6f3f 8322 6f3f e456 763f 0031 843f
00000070: 1caf 6f3f 2b3f 853f b0bf 7f3f 71ad 763f
00000080: 8e7b 653f fc1b 8e3f 59b8 7b3f ddf9 823f
00000090: c1cc 7b3f 5f6b 863f e753 823f b55f 843f
000000a0: da46 7d3f 87c7 653f c830 793f 1779 853f
000000b0: d2fb 743f 8007 883f 0c5a 8b3f 9b8a 783f
000000c0: 44fa 8c3f 7157 713f c3a6 763f c622 6f3f
000000d0: 2ce9 773f f5b8 823f c4ac 843f 46f6 833f
000000e0: 218c 7c3f 981a 853f 5821 8a3f aa4b 823f
000000f0: a737 823f fd36 803f 9cc9 7a3f fb89 793f

tbls_list.0.mha.out_project.weight f4 [64, 64]
-0.071292885 0.1903729 0.036289234 -0.076501705 0.014203778 0.13105905 0.03507884 0.0120348325
-0.009641749 0.030400928 0.0644788 0.12391054 0.05213306 0.14964627 -0.016564287 -0.011240844
-0.041524757 0.08925423 0.05331367 -0.020432636 0.14235146 0.08900258 -0.19444832 0.035718314
-0.06503002 0.026466625 -0.010788324 -0.0088481 -0.02451417 0.02707855 0.14531696 0.031584788
-0.16379522 -0.17608541 -0.038452804 -0.18259203 -0.07627301 0.08260548 0.085779846 -0.023886735
-0.06795041 -0.08738654 0.06254454 -0.063104555 0.15043433 0.042004075 0.037559878 -0.054634437
0.19748123 -0.11951781 -0.19451171 -0.041191153 0.19676682 0.01439915 0.19606432 -0.08050617
-0.035931658 0.08595141 -0.08646565 0.2909771 0.12164298 0.13339359 -0.15587255 -0.025400193
0.08511146 0.26531315 0.079514526 0.12885706 0.0510314 0.05385022 -0.13983208 -0.250186
0.10448938 0.055999912 0.16105582 0.05631647 0.04447484 -0.23499586 -0.11930082 0.07366184
0.037291344 0.099609606 0.11595068 0.019300297 0.0370627 0.06352906 -0.018165743 0.19285908
-0.040054 -0.027572835 -0.0590337 0.085816495 0.008395594 -0.31377953 0.3031417 -0.1378297
0.15721437 -0.14263459 0.23712356 0.12043134 -0.20603845 -0.1286946 -0.04394573 0.2511718
0.19939332 0.0039984565 -0.055420414 -0.044221144 0.1516275 -0.16364451 -0.02976643 0.053369615
-0.061135888 -0.042863924 -0.26704833 0.20467775 -0.10156902 0.09847395 0.016597057 0.04573728
-0.17986554 0.072894625 0.0648598 0.06127491 0.029286863 0.04544182 -0.044523474 -0.09457674
0.04859943 -0.059464257 -0.022553623 0.03076567 0.00925321 -0.08099996 0.18319519 -0.010517206
-0.13490762 -0.034334626 0.22004114 -0.017146487 -0.12692933 -0.19214727 -0.12104354 0.033591222
-0.17991847 -0.12613484 0.072096124 0.033461653 0.09685875 -0.042590424 0.014705223 0.055970654
-0.044864334 0.030035995 -0.14294487 -0.10900547 0.09066375 -0.0014437314 -0.046750534 -0.20701325
-0.14367591 0.22894844 -0.06572397 -0.17650828 -0.14112963 -0.010658102 0.009972591 0.15378334
0.16880853 0.051445942 -0.096499376 0.031449184 0.06816384 0.012539585 0.08284563 0.053560045
-0.13571852 0.01572286 0.019494817 -0.10124234 0.09040067 -0.13445365 -0.03372551 -0.084330894
0.08016159 0.2246318 0.0006197793 -0.013448117 -0.15912075 0.0058515607 -0.053630926 -0.03153651
-0.016219867 -0.11036659 0.0043860134 0.25596595 0.001717193 0.16521782 0.027708238 -0.23727494
-0.094587825 0.09067329 0.08067015 -0.07888887 0.010227498 0.026620872 0.06058922 -0.15411647
-0.07018629 -0.08368611 -0.13325627 -0.039165754 0.061085835 -0.21034408 0.26196826 -0.017702429
-0.21606956 0.0049360245 -0.13875161 0.14980301 -0.13189739 -0.11703624 -0.08118734 -0.122399114
-0.00083515595 0.060569797 0.062277995 -0.076941475 -0.022084873 -0.23609431 0.026411293 0.1415171
-0.019983932 0.10010348 0.0055178464 0.09623432 0.091427095 -0.17867179 -0.027811952 0.050599713
0.08949764 -0.15610035 -0.13712472 -0.009458255 0.14157881 0.04873835 0.18106465 -0.0010867739
0.05989561 -0.07211161 0.16355416 0.17333175 0.008629211 0.090041 0.1880366 0.10173363
00000000: 0102 92bd 1df1 423e 05a4 143d edac 9cbd
00000010: f6b6 683c 5834 063e d4ae 0f3d bf2d 453c
00000020: 6df8 1dbc 5e0b f93c 760d 843d cfc4 fd3d
00000030: 7a89 553d df3c 193e d4b1 87bc 842b 38bc
00000040: dd15 2abd ecca b63d 6f5f 5a3d 5862 a7bc
00000050: 95c4 113e fc46 b63d 761d 47be 5e4d 123d
00000060: 762e 85bd 89d0 d83c 83c1 30bc 9ff7 10bc
00000070: f1d1 c8bc d6d3 dd3c f8cd 143e 0d5f 013d
00000080: efb9 27be bc4f 34be b080 1dbd 68f9 3abe
00000090: 0635 9cbd 102d a93d 58ad af3d 1dae c3bc
000000a0: 9629 8bbd b7f7 b2bd 5a17 803d f63c 81bd
000000b0: 750b 1a3e 770c 2c3d 63d8 193d 5cc8 5fbd
000000c0: 8538 4a3e c1c5 f4bd 142e 47be 0eb8 28bd
000000d0: 3e7d 493e 6aea 6b3c 16c5 483e 6be0 a4bd
000000e0: 132d 13bd 4b07 b03d e714 b1bd f3fa 943e
000000f0: f41f f93d 5498 083e 0e9d 1fbe 1114 d0bc
00000100: eb4e ae3d 20d7 873e 83d8 a23d 1bf3 033e
00000110: 4d06 513d 0c92 5c3d 2430 0fbe 6118 80be
00000120: 87fe d53d 2a60 653d d1eb 243e 19ac 663d
00000130: 402b 363d c1a2 70be fd53 f4bd 05dc 963d
00000140: cfbe 183d 1f00 cc3d 8d77 ed3d a81b 9e3c
00000150: 0fcf 173d 861b 823d 53d0 94bc da7c 453e
00000160: aa0f 24bd 6de0 e1bc 52cd 71bd 8fc0 af3d
00000170: ac8d 093c b6a7 a0be 6435 9b3e 3b23 0dbe
00000180: cefc 203e cd0e 12be 85d0 723e b5a4 f63d
00000190: befb 52be 84c8 03be 7000 34bd 9799 803e
000001a0: c32d 4c3e 7c05 833b 8400 63bd 3b21 35bd
000001b0: 3d44 1b3e 6d92 27be bad8 f3bc 199a 5a3d
000001c0: a069 7abd 1592 2fbd 8fba 88be 0b97 513e
000001d0: 6b03 d0bd b6ac c93d 8df6 873c 0457 3b3d
000001e0: ac2e 38be c749 953d 37d5 843d 66fb 7a3d
000001f0: 01eb ef3c 3421 3a3d 3f5e 36bd 73b1 c1bd
00000200: 3210 473d cb90 73bd 60c2 b8bc 4908 fc3c
00000210: c79a 173c 4fe3 a5bd 8597 3b3e 5c50 2cbc
00000220: 3925 0abe 77a2 0cbd 7752 613e ca76 8cbc
00000230: c3f9 01be 41c2 44be ade5 f7bd f396 093d
00000240: 8c3c 38be 7e29 01be 22a7 933d 160f 093d
00000250: e15d c63d 4c73 2ebd 2dee 703c 7c41 653d
00000260: aac3 37bd 0c0e f63c 2460 12be 433e dfbd
00000270: ebad b93d 963b bdba 7d7d 3fbd 48fb 53be
00000280: c71f 13be 7671 6a3e 4a9a 86bd 96be 34be
00000290: 4984 10be 529f 2ebc 1464 233c 6179 1d3e
000002a0: 25dc 2c3e fbb8 523d 77a1 c5bd dcd0 003d
000002b0: 7c99 8b3d d572 4d3c f8aa a93d c761 5b3d
000002c0: ccf9 0abe 3acd 803c 98b3 9f3c 2558 cfbd
000002d0: fd23 b93d 38ae 09be c323 0abd adb5 acbd
000002e0: c22b a43d e105 663e af78 223a 7e55 5cbc
000002f0: 8df0 22be 73be bf3b 1aac 5bbd 6d2c 01bd
00000300: 87df 84bc e107 e2bd 8cb8 8f3b f80d 833e
00000310: 7013 e13a dc2e 293e 63fc e23c 34f8 72be
00000320: 43b7 c1bd ebb2 b93d 6436 a53d 7d90 a1bd
00000330: 3c91 273c 0414 da3c 672c 783d b5d0 1dbe
00000340: d4bd 8fbd a063 abbd 5574 08be 456c 20bd
00000350: 2435 7a3d 7064 57be b420 863e af04 91bc
00000360: 5741 5dbe 60be a13b e714 0ebe f665 193e
00000370: 1c10 07be b2b0 efbd 8c45 a6bd 63ac fabd
00000380: 5eee 5aba 0918 783d 3617 7f3d 7e93 9dbd
00000390: 56eb b4bc b5c2 71be 7f5c d83c dce9 103e
000003a0: 58b5 a3bc 0e03 cd3d 0dcf b43b 8016 c53d
000003b0: 213e bb3d bdf5 36be e4d5 e3bc a541 4f3d
000003c0: 8a4a b73d c5d8 1fbe 6c6a 0cbe ccf6 1abc
000003d0: 09fa 103e dda1 473d 0369 393e 1572 8eba
000003e0: 1955 753d 40af 93bd be7a 273e e17d 313e
000003f0: 8961 0d3c 6a67 b83d ab8c 403e b959 d03d
