degradation_transformer_model.safetensors (safetensors, 866672 bytes, 38 tensors)

lm_head.weight f4 [1000, 64]
000000 a1 b6 37 3f a0 96 d7 3e 19 eb af bf e1 45 8c 3e
       0.71763045 0.42107105 -1.3743621 0.27397063
000010 3c 07 01 bf e4 a3 13 bf ae 59 d8 3f 28 17 47 bf
       -0.50401664 -0.5767195 1.6902368 -0.7776971
000020 99 16 16 3e 2f 5a cb 3e ef 68 0c 40 0b 2e f3 3f
       0.14657058 0.39717242 2.1939046 1.8998426
000030 a1 9d c2 3e d2 09 88 3e 97 89 99 bf a9 49 c3 bf
       0.38010886 0.26569992 -1.1995114 -1.5256854
000040 d6 8e 4a be 29 93 e6 bf eb 58 a8 be b7 a7 10 bf
       -0.1978105 -1.801366 -0.3288034 -0.5650591
000050 4d 4a 3a 3f f8 1f 30 3f f0 6c 3f bf 6e 0f 49 bf
       0.72769624 0.6879878 -0.747756 -0.7853917
000060 f0 9e 7e bf 97 e0 6b be ac d8 e0 3f b5 2d aa 3e
       -0.9946127 -0.23034893 1.7566123 0.33237997
000070 ff 62 9d be 84 eb 26 bf 3c d1 4b 3f cb 70 fe be
       -0.3073959 -0.6520312 0.7961614 -0.4969543
000080 43 06 58 bf 9f d3 d3 bf 23 95 6a 3e 60 df ec 3e
       -0.84384555 -1.6548957 0.22908454 0.46264172
000090 fc 4a 85 bf a7 91 00 bf 93 63 55 bf 0a 2c a0 3f
       -1.0413508 -0.5022225 -0.83355063 1.251344
0000a0 16 45 22 be 14 c4 fd bf e1 28 cb be 4b 27 5c 3f
       -0.15846667 -1.9825463 -0.39679626 0.85997456
0000b0 41 6a 0c 40 26 f5 8c bf c1 53 ae 3e 63 e6 f7 bf
       2.1939852 -1.1012313 0.34048274 -1.9367183
0000c0 60 bf e7 3f 73 a7 f4 3e 9a ba a1 be d1 6c 00 3f
       1.8105278 0.47784004 -0.31587678 0.5016604
0000d0 0f 6c e0 bf 19 ba 3b bf 43 ee 92 3f df ed 28 be
       -1.7532977 -0.7333084 1.1478962 -0.1649699
0000e0 e5 88 b9 3f a5 d0 f5 3a ef a7 45 3f 63 82 df bf
       1.4494902 0.0018754198 0.7720937 -1.7461666
0000f0 e5 69 5b bf 3c 18 15 c0 3f b3 90 be 67 cf 97 3e
       -0.8570846 -2.3296041 -0.28261754 0.29650423
000100 8c e5 bb 3f f2 03 ad bd 13 8c 71 3f 3f 5a 17 3f
       1.4679427 -0.08448018 0.9435436 0.5912208
000110 ee 14 6a bf 7b 35 6b 3e 6e de 41 3f 2e a0 06 bf
       -0.91438186 0.2296962 0.75730026 -0.52588165
000120 df 82 cb be b4 1c 90 3f 34 93 ae 3f 7a 08 b9 3e
       -0.39748284 1.125876 1.3638673 0.3613928
000130 78 9e 09 be 67 cf bd bf 7d a6 59 3f 7e 54 1e bf
       -0.13439357 -1.4828919 0.85019666 -0.61847675
000140 e9 96 d5 3d 36 bc 09 3f 75 20 73 bf 9c f6 5a be
       0.104291745 0.5380281 -0.949714 -0.21383137
000150 1d d1 78 bd 49 8b 0a 40 3c fd 69 3e 42 3b 12 bf
       -0.0607463 2.1647513 0.22850507 -0.5712167
000160 9e da 95 bf 6d 7b 4f bf 7b 18 bf 3f 47 82 62 3f
       -1.1707342 -0.8104771 1.4929346 0.8848004
000170 a2 5f 57 3f 56 0d cc bf 81 c2 fa 3e 1f da a1 3e
       0.841303 -1.594157 0.4897652 0.31611726
000180 be 45 04 bf a7 ee 32 bf ab 1c c9 bf 30 f6 e6 be
       -0.5166892 -0.69895405 -1.5711874 -0.451097
000190 8f 5b 8a 3e 42 29 5a 3f 4b 98 d3 bf 7a 82 9e bf
       0.2702298 0.85219204 -1.6530851 -1.2383568
0001a0 42 37 12 3f 0b 13 d0 3d 71 dd f2 3e 21 b8 bd be
       0.57115567 0.10159882 0.4743457 -0.37054542
0001b0 66 c5 8e bf e0 17 61 bf fa eb 8f bf 0c 20 8b 3f
       -1.1153991 -0.87927055 -1.1243889 1.0869155
0001c0 b7 d0 e2 be e2 7e 9a be 63 ba bf 3c cc 57 35 bf
       -0.44299862 -0.3017493 0.023404306 -0.7083709
0001d0 07 4f 6d bf 35 06 7c 3f 93 29 87 3f f0 a3 ab bf
       -0.9269871 0.9844697 1.0559562 -1.3409405
0001e0 02 ea 02 40 8f 65 5f 3f 95 c8 ca 3f 78 78 81 3f
       2.0455327 0.8726434 1.5842463 1.0114889
0001f0 d3 d8 a3 bf 16 3c cd bf f6 4c 23 bf 7c be 70 3f
       -1.2800545 -1.6033962 -0.6378931 0.94040656
000200 14 65 2f 3f 7e 33 fb be 1a 89 4e 3f 5d 00 c1 bf
       0.6851361 -0.49062723 0.8067795 -1.5078236
000210 36 01 9c be 77 a3 66 bf bb e7 f7 3e ee e7 0f 3f
       -0.30469674 -0.9009318 0.48418984 0.5621327
000220 63 e3 31 3f f8 84 07 3e 18 23 c7 3f 5d c6 99 3f
       0.6948759 0.13234317 1.5557585 1.2013661
000230 9b ec f3 3e b9 b3 14 bf 92 2b 4b 3d 4b 5f 46 bf
       0.47641453 -0.58086735 0.0496021 -0.77489156
000240 d0 9e c6 3d 8d 72 b1 bf 43 03 62 3d a2 40 07 3e
       0.0969826 -1.3863083 0.055178892 0.13208249
000250 6d a9 ba be f3 d2 d6 3e 10 e7 88 bf 6b 60 48 bf
       -0.36457387 0.41957816 -1.0695515 -0.7827212
000260 3f 27 23 bf f8 4a 89 bd 16 9b 9f be 79 94 bf be
       -0.6373176 -0.06703752 -0.3117301 -0.37417963
000270 42 33 9c 3d d9 77 a1 bb 27 3b 3c 40 9a 39 2a 3f
       0.07626964 -0.004927617 2.9411104 0.66494143
000280 68 f2 5c be 6a 30 76 3f 49 36 89 3e 28 13 0c 3f
       -0.21576846 0.96167624 0.2679923 0.5471673
000290 df 77 04 3f be 52 13 3f d5 b7 2e 40 91 7e 1a 3d
       0.5174541 0.5754813 2.7299702 0.03771836
0002a0 e5 06 50 3e 59 a6 9a bf 7a 6a 24 bf 60 0d c1 3e
       0.2031513 -1.2082015 -0.6422497 0.37705517
0002b0 3a 6b 20 bf 1a de aa bf fb 13 e1 3f 3f 95 41 bf
       -0.62663615 -1.334903 1.7584223 -0.75618356
0002c0 f7 f7 ca be 1c 0c 6e 3e b6 9d f8 be 92 19 ac bf
       -0.39642307 0.23246807 -0.48557824 -1.3445303
0002d0 a3 f9 03 3f 5f 32 3b 40 86 5d 96 3f b4 d2 98 bc
       0.5155279 2.9249494 1.1747291 -0.018655159
0002e0 42 a3 56 bd ff 19 73 bf 39 4e 88 3f fb 3a b6 3f
       -0.05240179 -0.9496154 1.0648872 1.423675
0002f0 59 7d a3 bf 92 34 8e 3f 77 6a ac 3f 16 94 a1 be
       -1.2772628 1.1109793 1.346999 -0.31558293
000300 81 f7 fd 3f 65 1a 0f 3f f5 4b 83 3f ef b6 6e bf
       1.9841157 0.5589965 1.0257555 -0.93247885
000310 f5 99 86 3f 8a 71 a5 bf 29 33 6b be 18 f2 e9 3d
       1.0515734 -1.2925274 -0.22968735 0.11423129
000320 32 ad 84 3f b5 97 e1 be c0 9f f3 be 98 1e c8 be
       1.0365355 -0.44061056 -0.47582817 -0.3908584
000330 1f 3a 2e bf d0 76 19 bf 31 18 09 40 14 f0 12 3f
       -0.68057436 -0.5994692 2.1421015 0.5739758
000340 0a 53 a1 bf 5b 41 57 be e9 dd 96 3e d6 ab ad 3f
       -1.2603467 -0.21021025 0.2946618 1.3568065
000350 7c 99 8f 3e 8a d7 c8 bf c5 50 bf be 30 95 19 c0
       0.28046787 -1.5690777 -0.3736631 -2.3997307
000360 fd 48 b4 be 74 4c 9a 3f fe ad 58 3e 9f 77 4c be
       -0.35211936 1.2054582 0.21160123 -0.19967507
000370 f6 79 0d bf ac 41 b1 bf 89 92 6a 3e 5f 0d e8 be
       -0.5526422 -1.3848166 0.22907461 -0.453227
000380 fe c3 b3 be 21 c1 f6 3d 35 df 35 bf 10 04 d1 be
       -0.35110468 0.12048555 -0.7104371 -0.40823412
000390 d0 5d 02 3f 35 ea 8e bf 27 f8 a5 3f ad 92 c5 3f
       0.50924397 -1.1165224 1.2966355 1.5435387
0003a0 27 92 6f 3d 3b 87 39 c0 29 9d 2d bf 9c 9d 12 bf
       0.05848899 -2.8988788 -0.6781793 -0.5727174
0003b0 2a 43 03 40 90 e2 51 bf 57 3a 51 3f 15 93 29 3f
       2.0509744 -0.8198633 0.81729645 0.66240054
0003c0 0d bc df bd 9d 98 97 be bd 8e d3 bf 78 91 b5 bf
       -0.1092454 -0.29608622 -1.6527935 -1.4185019
0003d0 d1 5e ad bf de 99 8c 3e 22 24 5c bf e3 fb 6e 3f
       -1.3544561 0.2746114 -0.85992634 0.933531
0003e0 9b 6d 5c bf 8f b8 0c c0 12 0e c7 3f c8 20 a0 3f
       -0.86104745 -2.1987646 1.5551169 1.2510004
0003f0 ba f5 90 bf 4c 10 15 3e 71 b0 ef bf 74 f9 4e 3f
       -1.132499 0.14556998 -1.8725721 0.80849385

tbls_list.0.ff.first_proj.bias f4 [256]
000000 a2 7e e5 bd e1 dc 0a be 43 a3 93 be b6 b0 be bd
       -0.11205794 -0.13560821 -0.28835496 -0.09311049
000010 17 db d6 bd 77 80 21 be 66 47 31 be 60 9c 0f be
       -0.10491007 -0.15771662 -0.17312393 -0.14024496
000020 7d 40 4b be cd 29 90 bd 4f 59 b7 bd d6 27 42 be
       -0.19848819 -0.07039223 -0.08952581 -0.18960509
000030 a2 fa 1a be e3 cd 77 bd 01 b4 d4 bd cd 64 3f be
       -0.15134671 -0.060499083 -0.103858955 -0.18690796
000040 3a 2d e7 bd 59 ff 85 bd a3 d8 44 bd 2e a7 63 bd
       -0.11287923 -0.06542844 -0.048058163 -0.055579357
000050 98 e6 1f bd 9b 8e 38 3c ef 0c 05 3d d6 11 37 be
       -0.03903827 0.011264469 0.032483038 -0.17877898
000060 5b aa 2b be ee 20 4d be 60 4f 13 bd bc c1 81 be
       -0.16764204 -0.20032093 -0.03596437 -0.2534312
000070 08 65 85 bd cf 81 00 be 9b 57 76 be 44 57 45 be
       -0.06513411 -0.12549518 -0.24056856 -0.1927157
000080 30 59 90 be f8 2e d3 bd e4 f6 1a bd fd de 7f be
       -0.28193045 -0.10311693 -0.03783311 -0.24987407
000090 e3 cf 04 be 5c 0a 7f be 82 15 25 bd 5b e0 80 bd
       -0.12969927 -0.24906296 -0.040303715 -0.062927924
0000a0 88 21 4c bd 9a f7 5c be 60 ff 05 be 6e d0 13 be
       -0.049836665 -0.21578828 -0.13085699 -0.14434978
0000b0 56 12 6a be c6 17 1f be c5 f5 80 bd 5b 3c 29 be
       -0.22858557 -0.15536413 -0.06296877 -0.1652693
0000c0 bf 1c 0e be 17 ff 3d be 5d 5d 99 bd 3a c8 1c be
       -0.13878153 -0.1855434 -0.07488511 -0.15310755
0000d0 8d c0 97 be 0c 0b 0c be 3f 59 95 be 61 a6 12 bd
       -0.29639092 -0.13676089 -0.29169652 -0.035803203
0000e0 e7 db 43 bd 8d a3 34 be ca e3 4b be ab 7a 37 bd
       -0.047817137 -0.17640515 -0.19911113 -0.04479472
0000f0 f4 d1 14 be fb 44 3d bd 88 d5 71 be bd 23 45 bd
       -0.14533216 -0.046208363 -0.23616612 -0.048129786
000100 d2 7f a7 bc da e1 d8 bd 43 b1 41 bd 0b 79 a4 bd
       -0.020446692 -0.10589953 -0.04728819 -0.080308996
000110 bf 24 48 be df 44 15 be e3 35 e2 bd 39 d8 b7 3a
       -0.19545268 -0.14577053 -0.11045434 0.0014026231
000120 c1 85 f9 bd bf d0 da bd 21 c0 84 be 2f 00 41 be
       -0.12183715 -0.106843464 -0.25927833 -0.18847726
000130 c6 66 8a be 10 d0 9f bc 80 fe dc bd 86 e0 2d be
       -0.27031535 -0.019508392 -0.107907295 -0.1698018
000140 cc cf a8 bd d6 79 61 be 22 fd 9e bd 06 a7 a5 bc
       -0.08242759 -0.22019133 -0.07763125 -0.020221245
000150 e6 3e 19 be 0f c2 6a be 42 30 51 be be 57 90 be
       -0.149654 -0.2292559 -0.20428565 -0.28191942
000160 9e 7f 78 be 3c 16 8b bd 93 c6 22 3b 8d 52 24 be
       -0.24267432 -0.0679135 0.0024837598 -0.16047116
000170 e0 fd 76 be bd 44 0b be ee ab 6d be 7c 4e 15 be
       -0.24120283 -0.1360044 -0.23210117 -0.1458072
000180 65 23 e8 bd 25 c3 fc bd 8f 7c 43 be 47 b8 ce bd
       -0.11334876 -0.12341908 -0.19090484 -0.10093742
000190 bf 5c a5 bd 5c b9 a6 be d4 49 8f bd 6a 73 a6 bd
       -0.080743305 -0.32563293 -0.069965035 -0.08127482
0001a0 10 d4 c5 bd d9 54 34 be c2 9a ac bd e3 1e 17 be
       -0.09659588 -0.17610492 -0.08427955 -0.14757876
0001b0 ed f6 56 3c 74 bc 11 bd 94 67 a2 bd fb 87 34 be
       0.013120395 -0.035580114 -0.07929912 -0.17629997
0001c0 c9 76 48 be ce 58 f5 bc dd 65 0f be 66 a8 27 bd
       -0.19576563 -0.029949572 -0.14003702 -0.04093208
0001d0 6c d0 71 be f9 51 54 bd 38 9e 89 be 1e 6f 2a be
       -0.23614663 -0.051835988 -0.26878524 -0.1664395
0001e0 e0 84 9f bb bb c9 f1 bd 95 68 fa bd fe 76 1d be
       -0.004868135 -0.11806055 -0.12226979 -0.15377423
0001f0 ed 0d 31 be 81 b3 d2 bd 6e 14 87 be ec 2c 1b be
       -0.17290469 -0.10288144 -0.26382774 -0.15153855
000200 77 e1 09 bd 45 28 95 bd ee 70 72 bd 89 2c 71 bd
       -0.033662286 -0.072830714 -0.05918973 -0.058880363
000210 21 7d 4f 3c b2 a8 0c 3c d0 a5 9c bd c1 e4 10 bd
       0.01266411 0.008585142 -0.07648814 -0.035374407
000220 12 fc b7 bd df dc 06 be 69 c7 47 be 66 b1 a9 bc
       -0.089836255 -0.13170193 -0.19509663 -0.020714473
000230 26 9f 29 be 6a 74 72 bd ec b1 20 be 88 e6 12 be
       -0.16564617 -0.059193052 -0.15692872 -0.14345753
000240 c5 29 ca bd b8 47 53 be a0 07 8d bd 17 f9 c8 bd
       -0.09871248 -0.20632827 -0.0688622 -0.09813135
000250 6c ab 34 be 47 97 f6 bd 8b 05 85 3c c5 f4 7e be
       -0.17643517 -0.120405726 0.016237995 -0.2489806
000260 22 9d e3 bc 54 dc 89 bd b0 84 d7 bd 64 72 22 be
       -0.027784888 -0.067314774 -0.10523355 -0.15863949
000270 d9 e8 af bd c7 4d 48 be c6 bd 7f bd 5c 74 8a bd
       -0.08589334 -0.1956092 -0.06243684 -0.06760475
000280 5a d3 0f be b2 d8 52 be 52 17 3b be d1 0b ff bd
       -0.14045468 -0.20590475 -0.18270615 -0.12453426
000290 f0 51 29 be a3 75 da bd 96 e9 5e be b5 ef ab bd
       -0.16535163 -0.10666969 -0.21768793 -0.0839533
0002a0 24 49 05 be 63 36 4d be b0 59 65 be 8e 41 27 be
       -0.13016182 -0.20040278 -0.22397494 -0.16333601
0002b0 f9 86 57 be be db 76 be 84 c0 2b be 4f 6a b4 3b
       -0.21047582 -0.24107262 -0.16772658 0.005505837
0002c0 cb 32 4b be 71 9d 8c be 1a 15 a5 bc 01 39 61 be
       -0.19843595 -0.27463868 -0.020151664 -0.21994402
0002d0 f7 17 a8 bd 5b 43 e7 bd 38 85 6d be fd d5 4d bd
       -0.08207696 -0.11292144 -0.2319535 -0.050252903
0002e0 62 52 59 be 55 02 b8 bd 47 05 6b be 5c ac 0d be
       -0.21222833 -0.0898482 -0.22951232 -0.13835281
0002f0 db b3 f1 bd ab 4e f5 bd a1 36 b4 bd 85 e5 8a bd
       -0.11801883 -0.11977895 -0.08799482 -0.067820586
000300 b6 4b cf bd 62 af 3b be 50 59 08 be 9a 28 94 bd
       -0.101218626 -0.18328622 -0.1331532 -0.07234307
000310 cb 84 23 be 54 7c 59 be c1 63 30 be f2 e4 03 be
       -0.15968625 -0.21238834 -0.17225553 -0.12880304
000320 ea 8c 92 bd 97 4b 31 be 19 ad 05 be be c7 73 be
       -0.071557835 -0.17313991 -0.13054313 -0.23806664
000330 71 a0 4e be de 6d 42 be 37 ff 75 bc a4 3d 2c be
       -0.20178391 -0.18987224 -0.015014461 -0.16820389
000340 bb ac 02 be a7 73 ef bd dd b0 9f bd da 2c e6 bd
       -0.12761204 -0.11691981 -0.07797406 -0.112390235
000350 84 1b d2 3c d5 a1 86 be 61 b6 82 bd 5b 67 26 be
       0.025647886 -0.26295343 -0.06382442 -0.16250364
000360 d5 90 ff bd f6 f8 22 be d3 b7 88 bd 98 fa 06 be
       -0.124787964 -0.15915284 -0.06675687 -0.13181531
000370 fb 14 1d be 44 9c a9 bd 97 9d 35 be 11 3d f8 bc
       -0.15340035 -0.082817584 -0.17735897 -0.030302556
000380 bb f5 e7 bd 70 2b ce bd 79 20 6f be ef e9 cd bc
       -0.11326166 -0.10066879 -0.23352231 -0.025135962
000390 3e d4 13 be 96 ff eb bd 23 71 76 be 0a 8d 47 3d
       -0.14436433 -0.115233585 -0.24066596 0.04871849
0003a0 5e 7e ee bd 50 bd 48 bc 25 a7 82 be ca c6 a8 bd
       -0.116451964 -0.012252167 -0.25518146 -0.08241041
0003b0 77 71 3d be 66 81 0b be 26 e1 ab bd 86 f6 12 be
       -0.18500315 -0.1362358 -0.08392553 -0.14351854
0003c0 dd 70 37 be 9e cc 27 be e8 67 e2 bd 10 ba 30 be
       -0.17914148 -0.16386649 -0.11054975 -0.17258477
0003d0 c7 09 d4 bd 8f fd 53 be 9f 7c 26 be cd d1 1f be
       -0.103534274 -0.20702194 -0.16258477 -0.15607376
0003e0 9c a3 4c be ae 3c ab bd af 24 2f be cf d2 69 be
       -0.19984287 -0.08361183 -0.17103837 -0.22834323
0003f0 87 22 5a be 54 cc 23 bd 6a 24 87 be c5 bd 5a bd
       -0.21302234 -0.039989784 -0.2639497 -0.053403635

tbls_list.0.ff.first_proj.weight f4 [256, 64]
000000 c6 59 b1 bd 6b 41 f5 bc 7b fc d0 3d c6 68 6e 3d
       -0.08659701 -0.02993842 0.10204407 0.05820539
000010 a1 43 a9 bd 0f be a9 3d 96 a1 3a 3e da c0 98 3d
       -0.08264852 0.08288204 0.18225703 0.074586585
000020 f1 77 87 3d cc bd 44 be b0 2d eb 3d ca ba 27 bd
       0.06614674 -0.19213027 0.114833236 -0.04094962
000030 6a 0c 48 3d 83 94 1d be 52 a1 3f be 81 38 aa bd
       0.048839964 -0.15388684 -0.18713883 -0.083115585
000040 0a 06 3c 3c 96 ea d6 3d f3 d8 00 be 0c e7 05 3e
       0.011476049 0.104939625 -0.1258276 0.13076419
000050 34 c0 9b bd 32 eb 58 3e f4 d3 58 be 71 ab 02 3e
       -0.07605019 0.2118347 -0.21174604 0.12760712
000060 03 fe 13 3e 56 af cf bd 8a 48 c3 3b 50 9a 3c be
       0.14452367 -0.101408646 0.005959575 -0.1841824
000070 cd 19 e8 3d ec 8c 3d bd 31 45 13 be dc fe 33 bc
       0.11333046 -0.04627697 -0.14381863 -0.010986056
000080 de c4 aa bc 44 3b 9a 3d 41 99 02 3e 08 00 53 3b
       -0.020845827 0.07530835 0.12753774 0.0032196064
000090 37 eb 89 3c 12 57 22 3d ac 27 88 3e 77 25 c4 3d
       0.016835792 0.039633818 0.26592767 0.09577458
0000a0 35 5d 9e bc 0d 75 62 3e 87 fc 46 3d 3d 40 d9 bd
       -0.019331554 0.22114964 0.048580673 -0.106079556
0000b0 c6 b3 44 3d 7e 1a 50 3d c0 53 78 3c b4 bd 45 3c
       0.048023008 0.050806515 0.015156686 0.0120691545
0000c0 56 78 32 bb 79 6a 13 be 5b 88 33 be da 0d c1 bd
       -0.002723237 -0.14396085 -0.17532484 -0.0942647
0000d0 4b 6f 3f 3d 32 c1 a7 bc 6f d5 af 3b 56 f7 06 be
       0.046736997 -0.020477865 0.0053660194 -0.13180289
0000e0 24 78 11 bd de a5 90 bb de 48 ac bd a7 f3 0f be
       -0.035514966 -0.004414304 -0.08412336 -0.1405779
0000f0 ac b0 e1 bd 56 92 e7 3d cf dc 16 3e 59 f3 ae 3c
       -0.110200256 0.11307208 0.1473267 0.021356272
000100 f6 2b e8 bb 94 5a 18 3e bd 35 c5 3d a8 ea 2d be
       -0.0070853187 0.14878303 0.096293904 -0.16984046
000110 34 49 3d 3d f0 9e bf 3a 96 68 11 be ca d7 43 3e
       0.04621239 0.0014619511 -0.14200053 0.19125286
000120 b0 73 a4 3c a1 0b 89 3d 4b d2 e3 bd e8 bd 9e 3d
       0.020074695 0.06691671 -0.111240946 0.077510655
000130 d9 ed 43 bd 5a ca 6b 3d 69 a0 26 bc 4a 76 0e 3d
       -0.04783425 0.057566024 -0.010170081 0.034780778
000140 6c d1 09 be ed 5f 69 3e 26 a9 8d 3d 26 b4 54 be
       -0.13458794 0.22790499 0.06917028 -0.20771846
000150 6f 86 13 be 94 42 58 3e d5 77 2d bd dc 35 e0 bd
       -0.14406751 0.21119148 -0.04235061 -0.10947773
000160 a7 9d fa bd a1 c3 08 be 3b 67 2d 3d 4a 94 dd bc
       -0.12237101 -0.13355877 0.042334776 -0.027048249
000170 3e c8 8b 3d cc fb 5c 3e d6 26 0e be e3 3a 0d 3e
       0.068253025 0.21580428 -0.13882002 0.13791995
000180 11 8f c2 bd 57 b9 de 3d 64 1b bd 3d 22 02 24 3d
       -0.09499944 0.108751945 0.0923374 0.040041097
000190 7d 61 0a 3d e6 b0 26 be ef d2 c8 bd 73 33 47 be
       0.03378438 -0.16278419 -0.098058574 -0.1945322
0001a0 19 50 1d 3e ec 58 5f be 10 a9 e5 3d 92 28 8f bd
       0.15362586 -0.21811265 0.11213887 -0.0699016
0001b0 e7 fd 25 3e bc 96 87 bb 6d 29 91 3d 55 28 b4 bd
       0.16210137 -0.004137842 0.070879795 -0.08796755
0001c0 0b 38 07 3e 69 5c 2d 3e ce 58 ed bc b1 59 50 be
       0.13204972 0.16929783 -0.02897301 -0.20346715
0001d0 42 5a 0b bd 67 ee 35 be 83 56 b7 3d 38 5e 0e be
       -0.034021623 -0.17766725 0.08952048 -0.13903129
0001e0 64 96 43 3c 43 77 56 bd f2 25 20 bc 13 48 b3 bb
       0.011937711 -0.05235983 -0.009774672 -0.0054712384
0001f0 53 11 ae 3d d2 c2 e1 bd 9d 3c 2a 3e 1e f8 4e 3c
       0.08499398 -0.11023487 0.16624685 0.012632398
000200 f3 3b ca bd 84 8f 99 be 00 bc 22 3d 5f c1 38 bd
       -0.09874716 -0.29992306 0.039730072 -0.045106288
000210 c1 bc 72 bd 21 cb 1f 3d 02 e6 58 3d 32 65 df 3d
       -0.05926204 0.03901208 0.052953728 0.10907973
000220 23 02 0a bc 51 06 47 bd 4f 7e 94 3b f0 c8 36 3c
       -0.008423361 -0.04859001 0.0045316587 0.011156306
000230 2d 12 e8 bd 6a dc 99 3c 11 40 12 bd ca 91 1a bb
       -0.11331592 0.01878186 -0.03570563 -0.0023585432
000240 e9 61 04 3d 33 89 b9 3d ff 2e e7 3c 98 31 65 bd
       0.032319937 0.09059372 0.028220652 -0.0559555
000250 34 cd b7 3d 3c b8 0b bd ac 88 c4 3d 17 3a 98 bd
       0.08974686 -0.034111246 0.095963806 -0.07432955
000260 26 93 1f 3d 11 d6 78 bd bc 81 38 bd 6e 4e c5 bd
       0.03895869 -0.060751025 -0.0450456 -0.096341
000270 5e 93 51 bd 4d df 1c 3e 7b cd 17 bd 01 cb 22 bc
       -0.05116593 0.15319557 -0.037061196 -0.009936095
000280 a0 6f 71 bc 5e ae 82 bd 76 43 51 bd f9 0f 24 bd
       -0.014736086 -0.06380914 -0.051089726 -0.040054295
000290 fe 1e 41 bd 62 dc 7f 3b 3c 23 b3 3d b8 f2 c9 3d
       -0.047148697 0.003904127 0.08746955 0.09860748
0002a0 66 ab 2e 3d e7 67 7c 3d 04 ee 9f bc c0 da 5c bd
       0.042643927 0.061622526 -0.019522674 -0.053919554
0002b0 3f 03 7e 3d 56 0c 39 bc 6d ae 02 3e 19 4b 12 3e
       0.062014814 -0.011294445 0.1276185 0.1428646
0002c0 f8 4f 8b 3d b4 45 5f bd a2 49 e3 bd b0 77 39 bd
       0.06802362 -0.054509833 -0.11098029 -0.04528016
0002d0 c3 2a 7a bc 40 6d 39 3c 59 56 c1 3d 24 92 90 3d
       -0.015268984 0.011317551 0.09440298 0.07059124
0002e0 8a 4f 68 bd fe 3d 8f bd 0a ff 23 bd fc c1 2d 3d
       -0.05671648 -0.06994246 -0.040038146 0.042421326
0002f0 c8 8f f2 3c bf 0f 7e bd db 43 90 3d 28 98 b3 bd
       0.029609576 -0.062026735 0.070441924 -0.08769256
000300 11 27 ab bc 69 96 c8 3d 9d 4f d7 bd 7b 7f 18 bd
       -0.020892652 0.097943135 -0.10513232 -0.03723095
000310 2a 48 4d 3d 0c 5e 7a 3d 21 c8 c6 bd d9 9f c2 3d
       0.05011765 0.061124846 -0.0970614 0.09503145
000320 bc ae f7 bd 6f ae 2b be fc 81 5d 3d 4b 7a fa 3c
       -0.12093875 -0.1676576 0.05407904 0.030575892
000330 58 54 4f 3c a5 50 23 3c c5 c0 9d 3d eb 63 59 3b
       0.012654386 0.009967958 0.077027835 0.0033171128
000340 3f 0b 3f 3e b6 7e 50 3c 40 1d 58 bd 95 cf 4c bd
       0.18656634 0.012725523 -0.05276227 -0.050002653
000350 1d 1c 8d bd e2 df 82 3d 1a ba ee 3d c2 4e 9d bd
       -0.06890128 0.063903585 0.1165659 -0.076810375
000360 85 f1 ab bd 20 45 5c be 97 36 1c be f1 ab 21 be
       -0.083956756 -0.21510744 -0.152552 -0.15788247
000370 81 e5 f5 3d cb 06 83 bd 3c af 18 bd ba 45 c7 3d
       0.12006665 -0.0639778 -0.03727649 0.09730096
000380 b6 81 31 be f9 e2 1e 3e a9 98 70 3d e9 22 a9 3d
       -0.17334637 0.1551627 0.058739338 0.08258612
000390 0f bc 65 3d f7 9e 65 bc 24 55 84 bc e2 7c 38 bd
       0.05608755 -0.014014951 -0.01615388 -0.045040973
0003a0 8a 72 b5 bd 0a 73 06 3e ea 96 97 bd 08 8e e6 3b
       -0.08859737 0.13129821 -0.074018314 0.0070359744
0003b0 6f a2 d5 bc 58 61 81 bb 26 1c 38 bd 67 33 13 3c
       -0.026078431 -0.003948372 -0.04494872 0.008984423
0003c0 f9 e7 42 bd 90 5b 6e bb 2f d1 87 bd 50 a6 02 be
       -0.047584508 -0.0036370493 -0.066316955 -0.12758756
0003d0 63 a4 36 be 7c 06 50 bd 69 9a e8 3d a4 20 c0 bc
       -0.17836146 -0.050787434 0.113575764 -0.023453064
0003e0 c5 55 ad 3c 4c 9a c2 3d 77 21 5e 3e 4e 6b d9 bc
       0.021159062 0.09502086 0.21692453 -0.026540425
0003f0 74 3d 05 3e 4a 31 a5 3c c5 7e 0b 3e 41 14 b7 3d
       0.13011724 0.020165104 0.13622577 0.0893941

tbls_list.0.ff.layernorm.bias f4 [64]
000000 6f bc 20 bd 3d 24 00 3d a2 83 8f 3c 50 c0 dd bc
       -0.039242204 0.03128456 0.017518822 -0.02706924
000010 46 30 03 bc 6b 93 44 bc cf 6b ed 3c 10 66 4b 3c
       -0.008007115 -0.011998038 0.028982071 0.01241447
000020 d8 da d9 bc 81 a0 0e bd 9e 8b 4b bc 6e f3 10 bc
       -0.02659361 -0.034821037 -0.012423424 -0.008847101
000030 cf 6d 41 bd 8e 5f a3 bc 92 38 2e bc 70 f7 72 bc
       -0.047223862 -0.019943025 -0.010633605 -0.0148295015
000040 5f 86 7a bb ff 5c 54 3d 6e 3b b7 bc 2b 1a 73 3d
       -0.0038227064 0.0518465 -0.022367205 0.059351128
000050 ee 55 4e 3c 80 0b f0 3c 83 c8 24 bd f7 c5 4b bc
       0.012593729 0.029302359 -0.040230285 -0.012437335
000060 58 32 e2 3c 09 4e 84 bc 02 10 da 3b b5 ac 9c 3b
       0.027611896 -0.016150491 0.0066547403 0.0047813305
000070 7e dd ce 3c d4 28 9f bc a5 02 62 bd 84 6a 96 bb
       0.0252521 -0.019428648 -0.055178303 -0.0045903344
000080 96 06 96 bd 4f 72 8c 3a 22 8a b5 bc ff ba 24 bd
       -0.07325475 0.0010715219 -0.022160593 -0.040217396
000090 2b e5 3d 3b e6 a8 e1 bc 80 aa 13 3d c5 fe f1 bb
       0.0028975706 -0.027546357 0.036051273 -0.007385107
0000a0 ca 8a e7 3c 0e 99 c1 3c 64 ef 96 3c 99 23 19 bc
       0.028264422 0.023632552 0.018424697 -0.009346866
0000b0 49 d2 30 3c fa 3d e9 3c c7 21 ba 3c 19 db b8 3b
       0.010792323 0.028471936 0.022721184 0.005641353
0000c0 fe 17 83 3c b8 8f c8 bb f0 3a 94 bb cd e9 65 bc
       0.016002651 -0.0061206482 -0.0045236275 -0.014032793
0000d0 ca 65 c8 bc b0 fb ef bb 32 2a fb bc dc 19 54 3c
       -0.0244626 -0.0073237047 -0.030659769 0.0129456185
0000e0 d5 fb b8 3c 86 b5 7d 3b b0 1f d2 3b 41 90 ca 3c
       0.02258102 0.0038712933 0.006412469 0.024726989
0000f0 90 a6 32 bd 75 4d 8d 3c ac 23 03 3d 11 36 72 3c
       -0.043615878 0.017248848 0.03201644 0.014783398

tbls_list.0.ff.layernorm.weight f4 [64]
000000 80 53 86 3f d6 d2 69 3f 06 7c 82 3f b3 2d 81 3f
       1.0494232 0.91337335 1.0194099 1.0092071
000010 8e f7 83 3f 71 5f 83 3f d0 26 85 3f 74 4a 82 3f
       1.0309923 1.0263501 1.040247 1.0178971
000020 3a 63 7e 3f c4 6c 85 3f 8a ca 85 3f 54 64 79 3f
       0.9937016 1.0423818 1.0452435 0.97418714
000030 f0 87 72 3f 21 7e 87 3f f9 22 78 3f 45 a5 77 3f
       0.94738674 1.0585366 0.96928364 0.96736556
000040 84 0a 82 3f c0 62 7a 3f 05 94 7f 3f 00 3d 86 3f
       1.0159459 0.9780693 0.99835235 1.0487366
000050 b5 ee 84 3f bc 21 83 3f 35 96 75 3f 34 af 80 3f
       1.0385348 1.024467 0.9593232 1.0053468
000060 ac 0b 86 3f f3 cd 85 3f bf e3 74 3f ee 34 8a 3f
       1.0472312 1.0453476 0.9566001 1.0797403
000070 d3 31 8b 3f 10 5b 8a 3f 9c e7 80 3f 6d 5c 78 3f
       1.087458 1.080904 1.0070682 0.9701603
000080 9a 2a 79 3f 8e 29 85 3f ef 0c 7a 3f 06 be 82 3f
       0.9733063 1.0403306 0.97675985 1.021424
000090 e8 a0 80 3f 76 cd 7a 3f 90 a3 84 3f bb 9d 82 3f
       1.0049105 0.9796976 1.0362415 1.0204386
0000a0 8a 6f 83 3f bc e8 75 3f 39 28 84 3f 07 ed 87 3f
       1.0268414 0.9605825 1.0324775 1.061921
0000b0 0b 5e 7b 3f b1 27 89 3f 11 d4 82 3f a4 c2 83 3f
       0.98190373 1.0715238 1.0220968 1.0293775
0000c0 e5 37 82 3f 26 dd 82 3f 71 1e 85 3f 8f d7 84 3f
       1.0173308 1.0223739 1.0399915 1.0378283
0000d0 8f 08 8c 3f e8 3c 77 3f f7 c1 84 3f 96 df 86 3f
       1.0940112 0.9657731 1.0371693 1.0536983
0000e0 6b 44 82 3f 91 67 7e 3f 49 fb 7b 3f c1 99 85 3f
       1.017713 0.9937678 0.98430306 1.0437547
0000f0 be 90 77 3f 35 65 81 3f c4 e7 7d 3f 89 d2 74 3f
       0.96705234 1.0109011 0.9918177 0.9563375

tbls_list.0.ff.second_proj.bias f4 [64]
000000 b8 5a bc bd 78 e9 64 bc 28 27 ce bc f8 7c cf bc
       -0.09196991 -0.013971679 -0.025165156 -0.025328144
000010 68 6e 35 bd 4c cd c8 3c a2 ae 96 3c 29 ed 1c 3d
       -0.044294745 0.024511956 0.018393818 0.03831211
000020 1e e9 e8 bc 09 d9 5d bd 53 27 41 bd f3 58 26 bd
       -0.028431471 -0.05416206 -0.047156643 -0.040612172
000030 5d 14 36 bc 48 8a 9e bc d8 ef 64 3a 59 94 4c 3d
       -0.011113253 -0.019353047 0.0008733249 0.049946163
000040 99 c2 fd 3c 8b 07 5c 3d a6 ab aa bd bd b0 56 3b
       0.03097658 0.05371813 -0.083335206 0.0032759153
000050 41 88 92 3d a6 63 d9 3c 6a 61 8b 3d 3f bf 1a 3d
       0.071548946 0.026536774 0.0680569 0.037780043
000060 43 cb a9 3c 05 1f 1b bd 1b 3b 4c bd bc 68 70 bd
       0.020726806 -0.03787138 -0.049861055 -0.058693632
000070 b8 d2 71 3b 4a eb a8 3d b0 ce d3 bd 9e c7 75 bc
       0.003689928 0.08248003 -0.10342157 -0.015001206
000080 17 60 89 bd dd b2 f5 3c 3d bd 97 bc b9 83 63 bc
       -0.06707781 0.029992515 -0.018522853 -0.013886386
000090 91 ec ea 3c 39 f6 70 bd c1 49 8a 3d fe fb 4d 3c
       0.028677257 -0.058828566 0.06752349 0.012572287
0000a0 28 eb 26 bd 4c 06 94 3d d0 59 47 3d 03 fa 4c 3d
       -0.040751606 0.072277635 0.048669636 0.050043117
0000b0 55 90 fd 3d b0 a1 5f 3d 83 de 29 3c c2 02 03 bd
       0.12381045 0.054597557 0.010367992 -0.031985052
0000c0 b5 97 6a bd 12 ed ca 3d 4e a1 38 bc d2 e0 38 bd
       -0.057273585 0.09908499 -0.011268927 -0.04513628
0000d0 ab 82 04 3c 01 0d 50 bd 1d 6b 23 3d 2e b7 70 3d
       0.008087794 -0.05079365 0.039897073 0.058768444
0000e0 b9 ab 69 bd 5f 61 54 3d de 1d 28 3d 02 04 a8 bc
       -0.057048533 0.051850673 0.04104411 -0.020509724
0000f0 2b ad 5c 3c c5 9f 28 3d 02 0b 14 3d b9 49 1c 3c
       0.013469021 0.041167993 0.03614331 0.009539061

tbls_list.0.ff.second_proj.weight f4 [64, 256]
000000 4e f0 69 bd 62 fa 2f 3d e2 cb 91 3d d2 b7 54 3d
       -0.057113938 0.042963393 0.07118966 0.051933117
000010 e7 65 ac 3b 3c 16 dc 3c 92 c2 5b bc 03 b2 26 3d
       0.005261171 0.02686607 -0.013413088 0.04069711
000020 b2 c9 c7 bd 16 80 9b 3d 8b 23 e3 bc a8 f8 1d bd
       -0.09755267 0.0759279 -0.02772691 -0.038567215
000030 1d 67 05 be d8 c9 ce bd 1b 26 e6 3c 7f d1 88 ba
       -0.13027616 -0.100970924 0.028094342 -0.0010438411
000040 88 27 6b bd d4 65 95 3d bd 26 de bd f4 d3 c1 bd
       -0.057410747 0.07294813 -0.108472325 -0.09464255
000050 8c ef 3f bc 43 f3 aa 3d 19 c9 11 3e cd ea 43 3b
       -0.011714827 0.0834718 0.14236869 0.002989459
000060 32 ac f5 bd 16 5c 93 3d fd f2 6c bd 0e 6a ba 3b
       -0.11995734 0.071952984 -0.05784892 0.0056889122
000070 2a 18 04 be ff 9c a8 3b d0 ef fb bc 02 8b 9a 3d
       -0.12899843 0.0051456685 -0.030754 0.07546045
000080 8c 92 05 3d 16 95 d4 3d 26 d5 34 bd aa c1 72 3c
       0.03261046 0.103799984 -0.044148587 0.014816681
000090 3d 3f 73 3d bc e2 f3 3d c6 61 05 bc fe a7 25 bd
       0.05938648 0.119084805 -0.008140987 -0.040443413
0000a0 7c d7 ac 3d 0d 81 35 3e 27 6a 78 bc eb d1 47 3b
       0.08439538 0.1772501 -0.015162027 0.003049011
0000b0 c7 54 23 bd 22 cf e1 3c 2c 64 9f 3b 63 43 84 3d
       -0.03987577 0.027564589 0.0048642363 0.064581655
0000c0 36 13 86 bd 5e ac 76 bd 34 e3 d7 3d 8d d8 40 bc
       -0.06546633 -0.060222976 0.105413824 -0.01177038
0000d0 ad cc 1e be b2 56 d7 bd 36 8f 31 3d c1 0b 83 3b
       -0.15507765 -0.10514583 0.043349467 0.003999204
0000e0 82 38 23 3a ee a5 22 be 14 1f af ba aa bd a4 bd
       0.0006226377 -0.1588361 -0.0013360702 -0.08043988
0000f0 a3 3f 94 bd b6 80 8e 3c 3c a7 df bd c7 08 bf bd
       -0.072387 0.017395359 -0.10920569 -0.09327846
000100 8c 22 30 3c 6b 77 6c bd 18 08 4b bd b7 98 c0 bb
       0.010750424 -0.057731073 -0.049568266 -0.00587758
000110 18 38 76 3d 37 0f ac bd eb 6a 3f bd 16 9d 7b 3d
       0.06011209 -0.084013395 -0.046732824 0.061429106
000120 32 a2 0d 3e 86 e2 90 3d 54 ba b4 bd c7 3a e1 3d
       0.13831404 0.07074456 -0.08824602 0.10997539
000130 b0 87 d7 3d d2 85 eb 3b 0a 45 14 3e 56 cf 6f 3d
       0.10523927 0.0071875835 0.14479461 0.05854734
000140 32 56 96 3d 1c 9b ed bb f8 75 bd bc 44 2c 30 bb
       0.07340659 -0.0072511565 -0.023127541 -0.0026881853
000150 4f 36 ca 3d cd a0 40 3d 80 a4 12 bd 23 fd ed 3d
       0.0987364 0.04702835 -0.03580141 0.116205476
000160 93 29 94 bd bf f0 c8 3c c4 df 0e 3d 2c 8c c1 bd
       -0.07234492 0.02452886 0.03488137 -0.09450564
000170 66 d3 8f bc f6 0d e7 bd 3a ec 05 3e a0 4b 4a bd
       -0.017556857 -0.1128196 0.13078395 -0.049388528
000180 c2 90 37 3d 56 95 42 bd 7c db 94 3b 1a 8f 04 3d
       0.044815786 -0.0475057 0.004542766 0.032363035
000190 df e1 b2 3a 70 83 9f bd 3c 94 9f bd 3c ac a1 bb
       0.0013647637 -0.077887416 -0.07791945 -0.004933862
0001a0 75 00 56 3d e7 ca bc 3d c3 96 2f 3d be 41 7f 3d
       0.05224653 0.09218388 0.042868387 0.062318556
0001b0 81 2a 85 ba 3e eb 63 3d 57 68 9b bd 78 cb 6d 3d
       -0.0010159762 0.055644266 -0.075882606 0.05805537
0001c0 c7 30 91 3d 2c bc 1f be d9 65 3c bd 33 a9 39 bd
       0.07089382 -0.15599126 -0.045995567 -0.045327377
0001d0 b6 d0 8a bd 75 04 20 bd a0 86 9b 3c 09 83 f2 bd
       -0.0677809 -0.03906675 0.018985093 -0.11841399
0001e0 ee a9 09 3e 45 75 97 bc fe 97 fc 3d 6a 4e 21 bd
       0.1344373 -0.018488536 0.12333678 -0.039381422
0001f0 de 0a d7 bd 30 db e5 bd 95 ac 3a be 9b c7 29 3d
       -0.105001196 -0.11223447 -0.18229897 0.041450124
000200 2b f8 c3 bc 9d d2 8f 3d 24 42 1b 3d 01 a6 2d 3d
       -0.023922047 0.07022593 0.037904873 0.04239464
000210 cc 58 8c 3d 28 ef 04 bd a3 2c 12 be f5 11 e4 3b
       0.06852874 -0.03245464 -0.1427484 0.0069601485
000220 01 8b 2f bd d3 c3 61 3d a8 66 ef 3d 89 f2 3e 3d
       -0.042857174 0.055118393 0.11689502 0.04661802
000230 76 5f 13 bd 28 15 66 bd 3c c4 8d bb e3 b8 90 bc
       -0.03597971 -0.05617252 -0.0043263715 -0.017666286
000240 59 62 04 be fe bb 45 3d 43 bf 22 3d 45 7e 03 3e
       -0.12928142 0.048274986 0.039733183 0.12841137
000250 1c 66 f6 3d c8 ad d6 3d f4 81 6a bc 95 cd 82 bd
       0.120311946 0.10482365 -0.01431321 -0.06386868
000260 c2 b8 84 3d d4 f3 11 3c ec c6 ba 3c 1b 05 de bd
       0.06480552 0.008908231 0.022799931 -0.108408175
000270 4b 99 37 3c 45 34 48 bc c8 dd 2d 3d 97 0b 6e 3c
       0.0112059815 -0.012219493 0.042447835 0.01452913
000280 6d 8f ae bd 44 cd ab 3d 0b 40 62 bd fa 28 6b 3d
       -0.0852345 0.08388761 -0.055236857 0.057412125
000290 b6 3d ce 3c 60 f1 21 3c 22 31 2b bd 8a 19 c7 3d
       0.02517591 0.009884208 -0.041794904 0.09721668
0002a0 c0 9e bb 3d 5b 8e 3a bc 3e 8e f3 bc fb 12 9a bd
       0.091611385 -0.011386479 -0.029730912 -0.075231515
0002b0 d2 cd 01 3d c6 48 51 3b 99 a0 cd 3d 99 46 0a bd
       0.031690426 0.0031934245 0.10040397 -0.033758733
0002c0 b4 42 fc bd fe 59 76 3c bb 09 c1 bb d2 31 ea 3c
       -0.1231741 0.015036104 -0.0058910525 0.02858821
0002d0 b6 97 25 3e 48 27 05 3d 1d 4b ea bd 29 5a 88 3d
       0.16171154 0.032508165 -0.11440108 0.06657822
0002e0 33 88 1c 3e db 6e 14 be 02 76 3d bd ab f0 6b bd
       0.15286331 -0.14495413 -0.04625512 -0.057602566
0002f0 ab 9f 9c 3c 98 ec f3 bc 3e dd 0a 3d 8a a5 27 3d
       0.019119104 -0.029775903 0.0339024 0.040929355
000300 1f a3 e6 bd e2 64 cf bc 3d ed 9a 3c 3e 42 d8 3d
       -0.11261582 -0.02531666 0.018911952 0.1055951
000310 fc ac 1d bd 27 22 1d bd 8c 80 34 be b4 7d 9e bc
       -0.03849505 -0.03836265 -0.17627162 -0.01934705
000320 b3 c4 17 bd 6e a0 05 bd 14 67 99 3d 16 32 02 3d
       -0.03705282 -0.0326237 0.07490364 0.031786047
000330 9c 66 90 3d c3 8b 09 bd b4 2c 17 bb bd c1 2b bc
       0.07050821 -0.033580553 -0.0023067417 -0.0104832025
000340 92 86 70 3d f2 23 a6 3d c6 a4 d1 ba 5e 35 84 bd
       0.058722086 0.08112325 -0.0015994541 -0.064554915
000350 c0 20 07 be 6a 13 24 b9 6e b8 de 3c b7 12 19 3d
       -0.13196087 -0.00015647491 0.027187552 0.037371363
000360 1d 71 c9 3d 1c fa f9 bd ae dc 7a 3b a9 bf 0e 3e
       0.09836028 -0.12205908 0.0038278508 0.139403
000370 3f 0d d1 bd e4 94 f3 3c a8 ff d1 3d 68 09 bf bd
       -0.102076046 0.029734083 0.10253841 -0.09327966
000380 64 22 81 3d 34 47 25 3d f7 69 ea bc 55 9c 42 bd
       0.063053876 0.040351108 -0.028614981 -0.04751237
000390 0e a3 27 be 38 a3 3f 3d 6c 53 0b 3e 27 d7 53 bc
       -0.16370794 0.046786517 0.13606042 -0.012929714
0003a0 78 80 3d bd 03 57 0c be 07 b0 8a 3d 0c 18 a2 bd
       -0.046265095 -0.13705067 0.06771856 -0.07914743
0003b0 ad d0 22 3d 5c 11 68 bd a7 83 d9 bc 8b 6f 04 3e
       0.03974979 -0.05665718 -0.026552035 0.12933175
0003c0 1c 2a cc 3c b6 a6 67 bd 9f 4e da bc 01 0f c3 bd
       0.024922423 -0.056555472 -0.026648818 -0.09524346
0003d0 8b 98 70 ba 92 46 06 bd 7f 99 a5 3d 9d 8d 8d ba
       -0.0009178004 -0.032782145 0.08085918 -0.001079965
0003e0 b2 c8 45 3d ca ba c9 bd b1 5a 7b bd 0d 09 ad 3d
       0.0482871 -0.0985008 -0.061365787 0.08448992
0003f0 ac ea 9a 3c e3 d7 d9 3c bb d0 11 3e 3c ac 59 bd
       0.018910728 0.0265922 0.1423978 -0.05314277

tbls_list.0.mha.kproject.weight f4 [64, 64]
000000 05 be e9 3d 82 2f 9d 3d 7c a1 e8 bc 6a 4a 4f bd
       0.114131965 0.07675077 -0.028397314 -0.050608076
000010 29 fb 0a 3e 46 01 e9 3d b7 af 43 bd e3 d0 5a be
       0.13572372 0.11377196 -0.047774997 -0.21368746
000020 cf 5c 01 3e a6 72 5e bc a2 2a 9e 3d 9a 27 db 3d
       0.1263306 -0.013577139 0.07722975 0.10700913
000030 be fe 13 3e 10 d4 ec bd f2 c6 69 3b ef a7 23 be
       0.14452645 -0.11563885 0.003567156 -0.1598203
000040 7d 82 c4 bd e6 7a 71 be be 90 57 3e bd 1f f9 3c
       -0.09595201 -0.23582038 0.21051309 0.030410642
000050 f0 9b a9 3d f0 4f 43 3e 20 94 e5 3d b0 1a 76 bc
       0.08281696 0.19073462 0.11209893 -0.015021011
000060 07 de fe bd 38 6d 7d 3e 97 e7 6c 3e f2 66 5b bc
       -0.12444692 0.24748695 0.2313522 -0.013391243
000070 df 48 3d 3e ef c1 61 bd 0d 31 cf bd 5d 63 40 bd
       0.1848483 -0.05511659 -0.101167776 -0.04696976
000080 ee ee d3 3d 39 d5 eb 3d 68 87 6a bd 1f e0 d6 bb
       0.103483066 0.11515278 -0.05725804 -0.006557479
000090 45 b2 8b bd da 06 d3 bd fd c5 75 bd fa 4c b5 bd
       -0.068211116 -0.10304041 -0.06000327 -0.08852573
0000a0 c0 db d9 bd 3f cb 3c be 84 6f 13 3e dc 12 d3 bd
       -0.10637617 -0.18436907 0.14398009 -0.103063315
0000b0 aa 00 8c 3d 37 f7 18 bd 22 09 15 3d 9f c2 5e be
       0.06836064 -0.037345137 0.036385663 -0.2175393
0000c0 5f 9b 0c 3d cb 56 aa bd 5b b3 07 bd 0c 73 69 3d
       0.03432786 -0.08317336 -0.03313003 0.056994483
0000d0 ef a1 77 3d cb 23 54 3e 61 e7 33 3e 96 9d 86 bc
       0.060457166 0.20716779 0.17568733 -0.016432565
0000e0 ca ba 06 be 69 ef f8 bc 99 94 e2 bb 86 ff 97 3c
       -0.13157192 -0.030387597 -0.006914687 0.01855446
0000f0 37 9f 02 bd 5f 86 0d be 31 69 5b bd 38 14 a1 3d
       -0.03189012 -0.1382079 -0.053567115 0.078651845
000100 ea 1a 4e 3d 48 6c 17 3d 0f 9d 72 3b 6e d3 bd 3d
       0.050318636 0.0369685 0.0037019884 0.09268843
000110 ff 71 98 3d 73 03 ec bd 21 c7 93 bd bc 19 b7 3c
       0.07443618 -0.115240954 -0.07215715 0.022351138
000120 97 a8 1d be ba 65 bb bd 29 20 3c 3d 99 c8 01 be
       -0.15396343 -0.09150262 0.045929108 -0.12674178
000130 2f 21 0c 3c bb 77 71 bd 9b da ba 3d fb 1a 71 bd
       0.008552833 -0.058952074 0.09123727 -0.05886362
000140 b0 6c 9b 3e 13 63 61 be 83 f2 b0 3c d4 06 96 3d
       0.3035636 -0.2201045 0.021600014 0.07325521
000150 bd 98 96 bd 31 21 b7 3d 41 71 06 3e 86 8c 92 bd
       -0.07353351 0.08941878 0.1312914 -0.07155709
000160 c1 e2 64 3d 56 e6 0e bd 6f 8e 35 3e fc d4 34 3d
       0.055880312 -0.034887634 0.17730115 0.04414843
000170 93 97 46 3e 47 25 1d be 53 d1 0b 3a 1d f8 59 3e
       0.19393758 -0.15346251 0.0005333621 0.21286054
000180 b1 6a 1d 3e 1a 21 1c be 60 f0 1a 3e b2 1e 11 be
       0.15372731 -0.15247002 0.15130758 -0.14171866
000190 f6 40 45 3e aa c9 b7 3d 2a 93 8b 3c ef 8c 3b 3e
       0.19263062 0.08974011 0.017037947 0.1831548
0001a0 62 6c b1 3d 7a 7c 59 bd 30 83 11 bd 59 72 bd 3d
       0.086632505 -0.053097226 -0.0355255 0.09250326
0001b0 50 2e 66 3e ac f6 eb 3c 11 49 23 be 2d ba 7f bd
       0.22478604 0.028804146 -0.15945841 -0.06243341
0001c0 76 d6 04 3e a2 de 9b 3d 9a bc 94 bd 06 af 2b 3e
       0.12972435 0.07610823 -0.072625354 0.16765985
0001d0 4f 30 b1 bc d6 66 59 3e 8d af 4a be d2 fa d1 3d
       -0.02162948 0.21230635 -0.1979353 0.10252918
0001e0 c4 63 a3 bc 0c e9 08 3d d2 ab 2b be e8 75 62 bd
       -0.019945033 0.033425376 -0.16764763 -0.055288225
0001f0 1d e7 02 3e ce 60 fc bd 1f b4 9f 3d 65 11 5d 3c
       0.12783475 -0.123231515 0.07798027 0.013492917
000200 9f 02 da 3d 14 a2 df bd c9 9c 2d 3d 0f ff 84 39
       0.10645031 -0.10919586 0.04238585 0.00025367035
000210 ea 24 af bc b1 08 78 3d c3 57 c2 bc c4 60 ad bd
       -0.021379907 0.060555164 -0.023723489 -0.08465722
000220 1b fe b7 3d 48 3c 1b 3e fa 41 ea bd ab 2d ba 3d
       0.08984014 0.15159714 -0.11438365 0.09090742
000230 04 73 09 be ca 4a 03 be 25 0b 27 3e c7 bb 83 be
       -0.13422781 -0.12821499 0.16312845 -0.257292
000240 39 d6 ed 3d a0 e1 78 bd 4a 7d 10 3e 3c 31 24 3d
       0.11613125 -0.060762048 0.14110294 0.040086016
000250 85 af 10 3e f8 7e 0d be 23 e2 47 bc 66 15 83 bd
       0.14129455 -0.13817966 -0.012199911 -0.06400566
000260 d5 be 7e be af 88 0e 3e 31 05 6f 3d a6 90 fc bd
       -0.24877484 0.13919328 0.05835456 -0.12332277
000270 d0 d1 1d bd d1 cb 25 3e 60 7b 87 3d 16 2f 89 bd
       -0.03853017 0.16191031 0.06615329 -0.06698434
000280 66 d3 35 3d 23 00 85 3d ac 17 0b 3e c1 81 c9 bc
       0.04439106 0.06494167 0.13583249 -0.024598004
000290 07 ec 7e bd d0 94 41 3d 44 c1 f2 bd af 19 a8 bd
       -0.062236812 0.04726106 -0.11853269 -0.08208024
0002a0 38 5e 03 be 54 29 0a 3d 32 20 92 bb 39 36 39 bb
       -0.1282891 0.03373082 -0.0044594044 -0.002826108
0002b0 de 69 84 3e b8 62 ef 3c af 1e 3e 3e 61 52 21 be
       0.2586202 0.029221877 0.18566392 -0.15754081
0002c0 30 1e db 3c 58 2b 41 3e e5 01 83 3b 35 c9 85 bd
       0.026747793 0.1886419 0.0039980286 -0.06532518
0002d0 73 08 ee bc 85 6d 86 3b 68 a6 10 3e 78 a5 99 bd
       -0.029056763 0.004102411 0.14125979 -0.07502264
0002e0 2f a5 e6 3b c1 07 41 3d 30 6b 86 3d fe bc 37 3e
       0.0070387344 0.047126535 0.06563413 0.17943189
0002f0 f0 d7 20 be 16 62 2f 3e 28 46 12 3e 18 d5 88 3e
       -0.15707374 0.1712726 0.14284575 0.26725078
000300 e9 df b8 bc f5 ed 82 3d db 9a 01 be c0 b6 17 3e
       -0.022567706 0.06393043 -0.12656729 0.14815807
000310 46 16 10 be da 90 76 be 2b 32 9c 3d a0 f0 ee bc
       -0.14070997 -0.24078694 0.07626756 -0.029167473
000320 c2 a5 a2 bd 4b c5 c3 3d d7 e3 84 3d 2d 83 4c bd
       -0.07941772 0.09559115 0.064887695 -0.049929786
000330 ed 3e bf bd 02 e0 ce 3d b1 fa c9 3c b1 40 04 be
       -0.09338174 0.1010132 0.024655672 -0.12915303
000340 a6 3b 4f 3d ee 36 11 be 5c 12 12 be e4 53 20 3e
       0.050593995 -0.1418111 -0.14264816 0.15657002
000350 cc 2b 67 3d 83 a7 8e bd e0 6a 0c bd f9 35 dc 3c
       0.056438252 -0.06965544 -0.03428161 0.026881205
000360 e7 26 e2 bd 70 17 53 3e 33 e6 80 ba f5 8d 4a 3e
       -0.11042576 0.2061441 -0.000983423 0.19780715
000370 e3 5d d5 bc e7 9d c0 bd 10 09 ef bd ec 7e 63 3e
       -0.026045745 -0.094051175 -0.116716504 0.22216386
000380 b8 b7 8c 3d c3 de b2 bc b0 99 8d 3c ec ed 07 bc
       0.06870979 -0.021834737 0.017285198 -0.008296471
000390 05 21 48 bd f4 e5 f9 bd 53 f1 41 bd 72 83 6a 3e
       -0.048859615 -0.12202063 -0.047349285 0.22901705
0003a0 66 29 ff bd 04 da 5b 3d fb 64 0a bd 28 d7 da 3b
       -0.12459068 0.053674713 -0.03378771 0.0066784807
0003b0 22 58 43 3e 68 38 c3 3d b1 9c 42 be 37 80 f2 3c
       0.19076589 0.09532243 -0.19005086 0.029602153
0003c0 5e 9c d7 bc bd e2 56 bd c2 39 be bd d8 7b 89 3c
       -0.026319679 -0.05246233 -0.0928836 0.016782686
0003d0 f7 84 d3 3d e7 71 40 3e cc 19 ab bd 80 b2 cc bd
       0.103280954 0.1879345 -0.0835453 -0.09994984
0003e0 fa 56 ce bc 78 1d 9e 3d 27 e1 53 be 63 4a d4 bd
       -0.025187958 0.077204645 -0.20691358 -0.10365751
0003f0 3c 82 a6 3c 93 db 96 bd 06 d0 95 bd 5d db e7 3d
       0.020325772 -0.07366099 -0.07315068 0.11321137

tbls_list.0.mha.layernorm.bias f4 [64]
000000 b4 09 eb 3d 8f 55 52 3b 96 64 29 3d c0 fe 84 3d
       0.1147646 0.0032094454 0.04135569 0.06493902
000010 d5 3b d4 bc d3 0a 05 be b0 b7 61 bd d7 18 c1 bd
       -0.025907436 -0.1299241 -0.05510682 -0.09428566
000020 43 1a 14 3e a2 aa 06 3e 72 5c 5c 3d 52 41 04 3d
       0.14463143 0.13151029 0.0537991 0.032288857
000030 be 10 0d 3e 8e 73 9e bc fb ec d1 3d cc 1b fd bc
       0.13775918 -0.01934221 0.102502786 -0.030897044
000040 0c fd 8c b9 df 7a da bd fc 66 7c 3d 85 9a ad 37
       -0.00026891415 -0.10667967 0.06162165 2.069516e-05
000050 fc f6 07 bd 51 64 c1 bd 19 2f bb bc 5b 14 15 3e
       -0.033194527 -0.09442962 -0.022849606 0.14558546
000060 c4 88 20 3c 50 b5 a3 3d 2a 16 8c 3c 57 c7 fa 3d
       0.0097982325 0.07993567 0.017100412 0.12245052
000070 51 67 98 3c d2 2b bd bd be 23 99 3d 37 6e cd 3d
       0.018603953 -0.09236874 0.074775204 0.100307874
000080 9c fc 82 3d c6 dc b6 3d 78 97 a1 3d 14 86 f8 bc
       0.06395838 0.08928828 0.078902185 -0.030337371
000090 01 8a 9c bd 58 bf af 3d c3 5d a2 bd aa 1e c1 bd
       -0.0764351 0.08581418 -0.0792804 -0.09429677
0000a0 a2 c0 ad bd 74 f9 98 bd 92 fa 61 bc 89 16 65 3d
       -0.084840074 -0.074694544 -0.013792651 0.055929694
0000b0 59 d4 24 be a6 3f 29 bd 66 64 88 bd d2 c2 0e bc
       -0.16096629 -0.041320466 -0.066597745 -0.008713441
0000c0 9d 5d e4 3c 46 ae 54 3c 69 21 99 3c 0e c4 50 3d
       0.02787667 0.012981003 0.018692689 0.050968222
0000d0 b2 87 e7 3d 46 db 23 3e e2 1a d4 3a cb e5 03 3d
       0.11305179 0.16001615 0.0016182328 0.03220157
0000e0 6d 7c f3 bd a2 00 5f 3e 0b bf c6 bd ab de 5e bd
       -0.11888967 0.21777585 -0.09704407 -0.05441157
0000f0 ee d8 47 bd d4 62 d1 bc 42 98 60 bd 34 d5 6a bd
       -0.048790865 -0.02555982 -0.054832704 -0.057332233

tbls_list.0.mha.layernorm.weight f4 [64]
000000 aa 39 83 3f 6c b6 7a 3f cb 21 83 3f fb 07 78 3f
       1.0251973 0.97934604 1.0244688 0.9688718
000010 b1 57 7e 3f ef 89 81 3f 4b 15 84 3f e3 43 81 3f
       0.99352556 1.0120219 1.0318998 1.0098842
000020 7a cb 7e 3f e4 9c 80 3f 48 fd 7c 3f 36 04 7b 3f
       0.9952923 1.0047879 0.98823977 0.980533
000030 df 12 75 3f fa 5e 78 3f cf b4 6d 3f 53 a0 7e 3f
       0.9573192 0.9701992 0.92854017 0.99463385
000040 7a ea 7f 3f da d6 81 3f ce a9 79 3f 6f 0d 87 3f
       0.9996716 1.0143692 0.97524726 1.0550975
000050 46 0f 83 3f c2 1e 83 3f 89 41 6e 3f 54 5c 7a 3f
       1.0239036 1.0243762 0.9306875 0.9779713
000060 58 e6 81 3f 21 dd 85 3f 83 f3 84 3f 12 88 83 3f
       1.014842 1.0458108 1.0386814 1.02759
000070 75 f2 86 3f d2 e1 8a 3f 2a f8 72 3f b8 83 74 3f
       1.0542742 1.0850165 0.9490992 0.95513487
000080 2b f6 80 3f ee c9 7e 3f ae 67 7d 3f 6e e4 7a 3f
       1.0075125 0.9952687 0.9898633 0.98004806
000090 0e 94 83 3f 1d 52 6c 3f 7b 57 80 3f b9 04 85 3f
       1.0279558 0.92312795 1.0026697 1.0392066
0000a0 26 83 83 3f 2f c7 6e 3f 08 94 85 3f 94 70 82 3f
       1.0274398 0.9327268 1.04358 1.0190606
0000b0 27 43 85 3f ad a0 89 3f 32 78 83 3f 69 ba 84 3f
       1.0411118 1.0752159 1.0271056 1.0369388
0000c0 87 c1 7a 3f d9 1f 72 3f 5f ba 83 3f 21 c0 88 3f
       0.9795155 0.94579846 1.0291251 1.0683633
0000d0 e9 cf 81 3f b7 33 80 3f 96 2c 7e 3f 27 b0 85 3f
       1.0141574 1.0015782 0.9928678 1.0444382
0000e0 8e 91 7f 3f 96 49 7a 3f f7 2d 81 3f 0b 03 86 3f
       0.99831474 0.97768533 1.0092152 1.0469679
0000f0 4c e0 79 3f 21 46 80 3f 0b a0 7d 3f 5f fb 67 3f
       0.97607875 1.0021402 0.9907233 0.90617937
