degradation_transformer_model.safetensors (safetensors, 866672 bytes, 38 tensors)

lm_head.weight f4 [1000, 64]
000000 be 06 11 40 af 87 8f bf 7a fd f1 be 07 a5 be be
       2.2660365 -1.1213282 -0.472637 -0.3723528
000010 41 60 99 3e 9e 60 b8 be 85 87 9a 3f 2f 33 03 c0
       0.29956248 -0.36011213 1.2072607 -2.049999
000020 8c 31 28 be 22 5c 38 40 7f 04 9f be 5b b6 09 3f
       -0.1642515 2.8806233 -0.31058118 0.5379388
000030 36 0d 89 bf 04 de 3a 3e 6c ea c1 bc 11 59 9d bf
       -1.0707157 0.18248755 -0.023671351 -1.2292806
000040 41 03 fa 3d 37 1d cf 3e cd 48 9b bf c8 ba 90 3e
       0.12207652 0.40451977 -1.2131592 0.28267503
000050 10 ca 41 bd ea fc 6f be 76 08 cb 3d dc e4 57 bf
       -0.047311842 -0.23436323 0.09913723 -0.84333587
000060 47 2d 32 3f 0c 62 ad bf 31 91 c1 be 20 f8 56 bf
       0.6960034 -1.3545547 -0.37806085 -0.8397236
000070 ef be 7d 3f 33 fe 8b bf 97 96 88 3f 57 94 11 be
       0.99119467 -1.093695 1.0670956 -0.14216743
000080 c9 a3 f9 3f 21 ff dc 3e 24 35 c2 ba 93 35 a5 bf
       1.9503108 0.43163398 -0.0014816863 -1.2906975
000090 92 03 a5 bf 96 10 e9 bf 3e e3 b8 bd 19 58 d6 bf
       -1.2891715 -1.8208187 -0.09027718 -1.6745635
0000a0 78 9e 8a 3f 26 ca fd bc 5e 6a ae bc 20 d1 b2 bf
       1.0829611 -0.030980181 -0.021290954 -1.397007
0000b0 db a3 40 3e 64 79 0b be c8 a8 59 bf de ab 81 bf
       0.18812506 -0.13620526 -0.85023165 -1.0130575
0000c0 30 a0 07 be d7 18 b7 3f ae 5f 70 bf 7d 5a b0 3f
       -0.132447 1.4304456 -0.93895996 1.3777615
0000d0 07 73 d5 3e d3 5b 9f be 7a 37 8e bf ad b9 1f bf
       0.4168932 -0.31124744 -1.111068 -0.62392694
0000e0 34 93 56 be 7d e8 e3 be 22 1a 17 3f 6f 65 a0 3e
       -0.20954591 -0.44513312 0.5902425 0.31327388
0000f0 be f9 6d bd 00 59 14 40 c2 f5 03 c0 8b 0e da be
       -0.0580995 2.3179321 -2.0618749 -0.4258922
000100 d6 70 79 be c8 6a 56 40 c0 71 7b be 0c b7 85 3d
       -0.2435945 3.3502674 -0.24555111 0.06529054
000110 be 1f 8e 3e 56 1a 50 3f eb d4 9b 3f 7f 41 e4 3d
       0.27758592 0.81290185 1.2174352 0.11145305
000120 ad 75 16 bf 1f 69 82 3f f5 4c 9d bf 39 79 bd bf
       -0.5877331 1.018833 -1.228911 -1.4802619
000130 58 8d fd bf bb 72 de bf 76 ba ad 3f dc 50 6e 3f
       -1.980876 -1.7378763 1.3572528 0.9309213
000140 e1 c8 c0 3f c4 ba 45 bc 41 0f 6e 3f 3a 7a b5 bf
       1.5061303 -0.012068454 0.92992026 -1.4177926
000150 80 6b 81 be fd 62 5b 3f d1 54 fa bd 25 9d 32 c0
       -0.25277328 0.8569792 -0.12223209 -2.7908413
000160 cf 5d af 3f e0 a8 e9 3f 36 5f 1d 40 81 66 20 3f
       1.3700503 1.8254662 2.4589362 0.6265641
000170 c6 b0 70 be d8 d3 99 3f 5e 4b 86 3f a9 a5 92 be
       -0.23504934 1.2017775 1.049175 -0.28642014
000180 ce 81 45 3f 21 25 fb bd f5 a4 1b c0 94 59 ef 3f
       0.7715119 -0.12262941 -2.4319432 1.8699212
000190 62 44 9c 3f f8 75 8f 3e b2 c2 63 3f b4 ef 87 3f
       1.2208369 0.2801969 0.88968956 1.0620027
0001a0 25 4d b0 3f ba 65 4a bf f7 3b d5 bb f7 68 d7 bf
       1.3773543 -0.7906147 -0.0065073925 -1.6828908
0001b0 b5 cc db 3e 4a 9e c1 3e 9d e5 98 bf 46 8e d7 3e
       0.42929617 0.37816077 -1.1945072 0.42100734
0001c0 e8 2a 4d bf 7c 49 1e 3f 54 14 ae 3e 05 6b 74 3f
       -0.80143595 0.6183088 0.33999884 0.954758
0001d0 e0 5e 95 3f b7 f2 59 3f ab ea 2c bf 4f ee 44 bf
       1.1669579 0.8513598 -0.67545575 -0.7692613
0001e0 de 16 23 bf f5 b5 08 40 70 2e 87 bf 73 a7 21 3f
       -0.6370677 2.1361058 -1.0561047 0.6314613
0001f0 d8 11 ea bf f6 63 d8 bf e2 d0 16 c0 4c dd 74 3e
       -1.8286695 -1.6905506 -2.3564992 0.23912543
000200 06 c0 4b bf 9b 14 a8 bf b4 71 e3 3f 62 84 ba bf
       -0.7958988 -1.3131288 1.7769074 -1.457165
000210 c6 a5 84 3e 3e 14 64 3e f9 ea d9 be 1c 47 95 bc
       0.25907725 0.22273347 -0.42562082 -0.018222384
000220 f2 a0 94 3f d4 62 60 3f 14 21 90 3f a9 cf c6 be
       1.1611617 0.876508 1.1260095 -0.38830307
000230 a6 28 00 c0 34 67 18 bf 25 11 c5 bd 5e 74 ab bf
       -2.002481 -0.59532475 -0.09622411 -1.3394887
000240 70 64 b9 3f 47 7d 54 3f 3e 2a 1f bf 38 98 d4 bf
       1.4483776 0.8300366 -0.6217383 -1.6608953
000250 18 03 ec 3f 90 2e aa be 6e 22 21 bf ea 54 70 bf
       1.8438444 -0.3323865 -0.6294316 -0.9387957
000260 83 b5 24 3d a9 63 9c be 8f 75 c4 3f 57 db 01 be
       0.040212166 -0.30544785 1.5348376 -0.12681328
000270 84 9b ee be 5c cf 13 c0 8a 83 69 3e 5a fe 69 3f
       -0.46603024 -2.3095312 0.22804084 0.91403735
000280 af 11 b0 bd 81 18 a0 3e 82 11 28 3f 91 fc 05 40
       -0.08597123 0.31268695 0.65651715 2.0935404
000290 fa f2 78 bf 70 b7 38 3f e0 a5 09 bf 61 58 4a 3f
       -0.9724575 0.72154903 -0.5376873 0.79041106
0002a0 b8 ab 82 bf 89 de 2b 3f f6 f2 96 bf d1 35 44 bf
       -1.0208654 0.67136437 -1.1792896 -0.7664462
0002b0 44 3d 5d bf 74 c6 8c 3f 2a d3 67 bf f2 e9 8a 3f
       -0.8642161 1.0998063 -0.90556586 1.0852644
0002c0 3b 9c 8f 3f 71 56 87 bf 16 6d 61 be b7 45 0c c0
       1.1219553 -1.0573255 -0.22014269 -2.191755
0002d0 38 4b f2 be 7e 04 45 3f 90 78 d2 3e 45 52 b9 3e
       -0.47323012 0.7695998 0.41107607 0.3619558
0002e0 2d a0 51 3f 5a 58 95 3f fc eb d8 3f 5c dc 9e 3e
       0.81885034 1.1667588 1.6947017 0.31027496
0002f0 ed f9 55 3f d7 b2 8b bf 23 25 aa 3e 03 a2 48 be
       0.8358448 -1.0913953 0.33231458 -0.19593053
000300 01 bc 7a be 49 6d 26 3f e0 32 a1 3e a3 2d 33 bf
       -0.2448578 0.65010506 0.31484127 -0.6999151
000310 dc 31 16 3f 2b ae 33 3f 74 f2 47 bf 81 aa 26 bf
       0.5866983 0.70187634 -0.7810433 -0.6510392
000320 b0 c0 8c 3e cf 78 80 3f 8f f7 09 3f 32 9f cf 3b
       0.2749076 1.0036868 0.5389337 0.006336116
000330 66 8d 5c 3e 09 15 15 3f fa da 48 3f e9 74 bc be
       0.21538314 0.5823522 0.7845913 -0.36807945
000340 49 6f 81 3f 47 c5 1e bf fa 8e 15 40 09 99 0b be
       1.0112087 -0.6201977 2.3368516 -0.13632597
000350 b5 27 3c 3e b2 4e 91 3e 13 dc 61 be 42 e2 0f bd
       0.18374522 0.28380352 -0.22056608 -0.035127886
000360 41 7a 6c bf 2c 6c 0a bf 03 5f 9e bf b4 ec 41 bf
       -0.92374045 -0.5407131 -1.2372745 -0.75751805
000370 ea bf 8e 3d fd 3e 66 3d dc 01 2b 3f d9 a0 35 bf
       0.069701985 0.056212414 0.6679971 -0.7094856
000380 33 a0 8b be ab da db 3f c4 05 0a 3f c1 41 89 bf
       -0.2727066 1.7176107 0.5391505 -1.0723191
000390 30 ae a2 be c4 57 ef 3c 6a 1c 92 3f d4 15 9a 3e
       -0.3177352 0.029216655 1.1414921 0.3009478
0003a0 c6 f6 35 be 20 17 03 bf 02 ba 93 3f 03 17 d2 bf
       -0.17769918 -0.5120716 1.154114 -1.6413273
0003b0 34 a4 02 3f 5f 57 ab 3f 41 a6 97 bf 55 18 22 40
       0.51031804 1.3386039 -1.1847612 2.532735
0003c0 5f 67 8c 3f a3 56 d3 be 1f 2b 42 3f f9 9d 93 3f
       1.0969046 -0.41277036 0.7584705 1.1532584
0003d0 3a b8 73 3f 7b 95 af 3f 5f 8c 2b be a5 c5 98 3e
       0.9520298 1.3717493 -0.16752766 0.2983829
0003e0 c9 5e 51 3f a0 67 cf 3e 59 06 48 bf e5 bf e3 be
       0.81785256 0.40508747 -0.78134686 -0.4448234
0003f0 85 4e 60 bf c9 01 26 bd 1a 50 9d 3f 3a 52 0f 3f
       -0.8761981 -0.040529046 1.229007 0.5598484

tbls_list.0.ff.first_proj.bias f4 [256]
000000 c3 d9 5d be 85 ab 8b bd b0 b8 1c be d3 47 92 bd
       -0.21665101 -0.06819824 -0.15304828 -0.07142606
000010 77 62 53 be c2 08 00 be 3e 36 fb bc ff 55 a0 bd
       -0.2064303 -0.12503341 -0.030665513 -0.078289025
000020 ff 72 c2 bc 28 f4 17 bd 87 e6 57 be 43 d9 10 be
       -0.023736475 -0.03709808 -0.21084033 -0.14145379
000030 a0 12 84 bd e7 a5 30 be f5 4d 2e bd 78 8e 03 be
       -0.06448865 -0.17250787 -0.042554814 -0.12847316
000040 14 77 8b be d0 ed a5 bd 20 9b a9 bd 29 36 1f be
       -0.27239287 -0.08102 -0.08281541 -0.15548004
000050 b8 11 4a be 76 0b 5c be b6 4f 49 bd ba 27 67 be
       -0.19733322 -0.21488747 -0.049148284 -0.22573748
000060 df 74 ac bd e0 f4 8d be 83 23 11 be 43 90 ec bd
       -0.08420729 -0.27725887 -0.14173703 -0.11550953
000070 ac ac 4f be 11 c6 31 be f8 fc 89 bd cc 85 f1 bd
       -0.20280713 -0.17360713 -0.06737703 -0.11793098
000080 71 39 05 be 52 46 53 bc 53 06 2a be b1 29 0b be
       -0.13010193 -0.012895184 -0.16603975 -0.13590123
000090 b7 84 b4 bd 12 f2 0a be a3 5f cf bd c1 c4 29 bd
       -0.08814376 -0.13568905 -0.10125663 -0.041447405
0000a0 c5 90 da bc 64 ee 09 be 10 c9 53 be 32 05 fe bd
       -0.02668036 -0.13469845 -0.20682168 -0.12403335
0000b0 a1 d2 36 bd 12 fd 34 be d8 15 5b be e8 d6 6c be
       -0.044634465 -0.17674664 -0.21395051 -0.23128855
0000c0 30 5b 30 be 6b 62 b5 bd 95 1b 28 be e6 ab 39 be
       -0.17222285 -0.08856662 -0.16416772 -0.1813198
0000d0 d2 97 06 b9 5e 57 65 bd 50 f2 1c be 32 2e d2 bd
       -0.00012835793 -0.055991523 -0.1532681 -0.10262717
0000e0 04 88 25 be aa d8 c3 bd 8a 36 84 bd d4 68 c9 bd
       -0.16165167 -0.0956281 -0.06455715 -0.098344475
0000f0 43 f4 44 be fd b6 8a be d6 34 56 bd 8d fd 77 be
       -0.19233803 -0.27092734 -0.052296482 -0.24217816
000100 be 9e 6e be d2 16 dd bc 91 99 22 be fb ef 0d be
       -0.23302743 -0.02698842 -0.15878893 -0.13861077
000110 f5 43 20 be 00 86 4f be 8e fe 02 bd a4 8b 52 be
       -0.15650924 -0.2026596 -0.031981044 -0.20561081
000120 00 7f af bc 68 e0 3d be 77 d8 b1 bd 75 e4 90 bd
       -0.021422863 -0.18542635 -0.086838655 -0.07074825
000130 70 24 64 be f3 5a df bd be 15 4e be 89 f5 8b bd
       -0.22279525 -0.10906019 -0.20125481 -0.068339415
000140 b6 d5 f5 bd 88 0c 42 be fc 3d 6a be 3b 72 0c be
       -0.12003653 -0.18950093 -0.22875208 -0.1371545
000150 25 ab 28 be d1 91 81 bd 23 d4 c3 bd ea 30 e5 bd
       -0.16471536 -0.063266404 -0.09561946 -0.1119097
000160 18 4a 62 bd 94 56 e3 bd d7 8e 70 be d9 90 8b bd
       -0.055246443 -0.11100498 -0.23491989 -0.06814737
000170 bf 85 df bc 51 90 90 bc 57 d5 77 be 78 54 32 bd
       -0.027285455 -0.01764694 -0.24202476 -0.043537587
000180 e2 44 31 be 8d 93 45 be 67 06 eb bd 88 76 10 be
       -0.17311433 -0.19294567 -0.114758305 -0.14107716
000190 a7 0a 27 bd 45 e5 e4 bc dd 2f c2 bd ce 44 37 be
       -0.040781643 -0.027941355 -0.094817854 -0.1789734
0001a0 0d 07 8b be f7 4a 1c be ef ce 4b be 8f 01 11 be
       -0.27153817 -0.15262972 -0.19903158 -0.14160751
0001b0 7c 99 e6 bd 1e a8 77 be f7 33 75 be 88 76 c5 bd
       -0.112597436 -0.24185225 -0.23945604 -0.09641749
0001c0 1b 24 64 be 8f 76 0f be e8 d5 92 bd 08 79 f5 bd
       -0.22279398 -0.1401007 -0.07169706 -0.119859755
0001d0 dd 53 bf bd 4a 39 82 bd de 51 6a be cb 84 01 be
       -0.093421675 -0.06358583 -0.22882792 -0.12648313
0001e0 1b e0 1b be 96 68 78 be 0d 9a 28 be 9e d1 4f bd
       -0.15222208 -0.24258646 -0.16465016 -0.050737016
0001f0 c4 05 87 be 93 bf 1a be fb 7d 18 be 50 83 23 be
       -0.26371586 -0.15112142 -0.14891808 -0.1596806
000200 69 ae 46 be 7d 5f ef bd d0 68 06 be 02 8e 3f bd
       -0.1940247 -0.11688135 -0.1312592 -0.04676629
000210 34 b8 32 be 3e ab 84 be e5 49 89 bd e5 8d 2a be
       -0.1745308 -0.25911897 -0.067035474 -0.16655691
000220 cf c7 86 be ae 7c aa bd b2 5f 78 be 2d 2b 11 be
       -0.26324317 -0.08324562 -0.24255255 -0.14176627
000230 6d 6a 6d be 54 cf dd bc 68 03 ee bd b3 25 89 bc
       -0.2318513 -0.0270764 -0.116217434 -0.01674161
000240 f2 fc 63 be 0e 15 8f bd da 4f 83 be 9e 0c 22 be
       -0.2226446 -0.06986438 -0.2564686 -0.15825126
000250 d6 d5 db bd 93 38 79 bd 49 b2 5e be ec 46 32 be
       -0.10734145 -0.06084497 -0.21747698 -0.17409867
000260 e4 43 f6 bc 0e b2 32 be ca 63 83 3c a7 5e 30 be
       -0.03006167 -0.17450735 0.016038794 -0.17223607
000270 22 b6 0f be 30 06 32 be a6 15 65 be 90 a0 48 be
       -0.14034322 -0.17385173 -0.2237154 -0.195925
000280 29 dc cc bd b5 cb a4 be df ba d2 bd cc cc 69 be
       -0.1000293 -0.32186666 -0.10289549 -0.2283203
000290 1c c0 02 be 9a 7d 4c be c7 06 03 be ab 7e 55 be
       -0.12768596 -0.19969788 -0.12795554 -0.20849101
0002a0 e3 38 93 bd 43 bd 76 be 2a 56 a2 bd 94 5e 7a bd
       -0.07188585 -0.24095635 -0.07926591 -0.061125353
0002b0 0a 1b c7 bd 1a 3a 20 3d 1c 7a 65 be 98 09 8c be
       -0.09721954 0.03911791 -0.22409862 -0.2735107
0002c0 96 44 77 be 80 86 55 be 36 c5 fc bd a1 c2 4d be
       -0.24147257 -0.20852089 -0.123423025 -0.20093776
0002d0 80 a8 6d bd 34 70 ff bd 5a 4a 65 be 25 0a 7a bd
       -0.058022022 -0.12472573 -0.22391644 -0.06104483
0002e0 8c 92 11 be 9d 6c 0c bd 88 67 08 be 1c d6 d5 bd
       -0.1421606 -0.03428327 -0.13320744 -0.10441229
0002f0 8a ae 71 be ff 81 a2 bd b4 1d d7 bd a6 ed 39 be
       -0.23601738 -0.07934951 -0.10503712 -0.18157062
000300 02 4c 06 be 18 47 11 be 75 6a 5f be 77 da 0f be
       -0.13114932 -0.14187276 -0.21817954 -0.14048181
000310 50 13 5c be 10 06 9b bd 4e 72 97 be 04 64 74 be
       -0.21491742 -0.07569516 -0.29579395 -0.23866278
000320 0b a6 a1 bc b9 af 71 be 02 5c 8b bd 70 8d 72 bd
       -0.019732496 -0.23602189 -0.068046585 -0.059216917
000330 cc 6e dd bd a1 3c 0f be 1f df 41 be d6 c9 39 be
       -0.108121485 -0.13987972 -0.1893277 -0.181434
000340 76 c5 30 be 45 38 5f bd 8d d0 65 bd 73 c5 91 be
       -0.17262825 -0.054497022 -0.056107093 -0.28470954
000350 c4 80 08 be bd 60 e1 bd 3e ce e7 bc f5 07 a0 bb
       -0.1333037 -0.110047795 -0.028296586 -0.004883761
000360 ed 68 2a be f2 3b 45 be 34 f7 21 be 47 20 15 bc
       -0.16641589 -0.19261149 -0.15816957 -0.009101934
000370 3b b3 43 be 9a 6f dc bc 1e 16 1b be d3 e3 1d 3c
       -0.1911134 -0.026908685 -0.15145156 0.009636837
000380 0f 71 d0 bd 21 ec 42 be 1c 97 32 bc 59 85 27 be
       -0.10177814 -0.19035389 -0.010900285 -0.16359462
000390 3a 2e 71 be f0 c3 a0 bd b2 7c cb bd e3 db 79 bd
       -0.2355279 -0.07849872 -0.09935893 -0.061000716
0003a0 32 4d 8b be cf d4 15 be fa 4f 1d be de 81 50 be
       -0.27207333 -0.14631961 -0.1536254 -0.2036204
0003b0 1b 1e 3d bd 23 d2 4e be 93 1b 0c be b7 68 2a be
       -0.04617129 -0.20197348 -0.13682394 -0.16641508
0003c0 7d de 03 be 8a 2a 65 be 10 47 4f be 57 a5 a6 bd
       -0.12877841 -0.22379509 -0.20241952 -0.08137005
0003d0 16 7f 89 bd e0 76 8a bd 29 5e 97 bd d7 3e 05 bd
       -0.06713693 -0.06760955 -0.073910065 -0.032530632
0003e0 ef b1 18 3d e0 78 91 bc 09 e6 04 be 8a 90 f4 bd
       0.037279066 -0.017757833 -0.12978376 -0.11941631
0003f0 60 41 5a bd 51 a3 6f be a7 6c 41 be 03 62 87 be
       -0.053285003 -0.23402144 -0.18889104 -0.26441965

tbls_list.0.ff.first_proj.weight f4 [256, 64]
000000 1e 7a 44 3e 34 a8 98 bd 11 0a 98 3d f9 60 ca bb
       0.19187209 -0.07453957 0.07423795 -0.006176111
000010 2a 7d 8a bd 20 cf a8 bd d7 64 1c be 46 c8 2a bd
       -0.067621544 -0.08242631 -0.15272842 -0.041694902
000020 1c 2f 3a bc 0a 68 82 3d 2c 14 56 3b 39 30 9c bd
       -0.011363771 0.063675 0.0032665832 -0.07626385
000030 06 7d 19 be 74 fa a7 bc 5c 53 6b 3c c1 55 35 3e
       -0.14989099 -0.020505168 0.014363136 0.17708494
000040 c5 cd 7e 3c d6 70 52 be c9 6a f5 3c f1 53 25 3d
       0.015551989 -0.20550856 0.029958146 0.040363256
000050 fe ff 4b bc 27 38 1d 3e e0 d4 6e bd e5 cb 9d 3d
       -0.01245117 0.15353452 -0.058308482 0.077049054
000060 d6 a3 39 bd 98 79 a2 bc d7 3a 11 be 6e 9a 16 be
       -0.04532226 -0.019833371 -0.14182602 -0.14707348
000070 2e 9d 60 bd 01 dc dd 3d 94 a7 62 3d 9a 1f ec 3c
       -0.0548374 0.10832978 0.055335596 0.028823663
000080 e4 c0 1c 3c 96 6a 48 3e ec 34 05 3e 5f f5 4a 3e
       0.009567473 0.1957191 0.1300847 0.19820164
000090 82 2d 82 bd 60 fd 60 bc f3 a4 ac bd 24 3d 1c 3e
       -0.06356336 -0.013732284 -0.08429899 0.15257698
0000a0 e9 a5 07 be 96 44 86 3e d8 be f7 3d ca 7f 5c bd
       -0.13246883 0.26224202 0.120969474 -0.053832807
0000b0 f4 15 c7 3c 0c 92 1a 3e d3 28 eb 3d 88 19 34 3c
       0.02430246 0.15094775 0.11482396 0.010992415
0000c0 54 6d 7d bd db 54 a3 3d 8d 9b 1f 3e ae e1 15 bd
       -0.06187184 0.07975169 0.15586682 -0.036592178
0000d0 1e 46 5d be 06 96 47 3d 26 ff fd 3d aa a0 40 bd
       -0.21608779 0.048727058 0.12402181 -0.04702822
0000e0 e1 39 36 be fa f0 13 3e 10 52 a9 3c e9 55 59 bc
       -0.17795517 0.14447394 0.020669013 -0.0132651115
0000f0 f9 c5 94 bb e7 40 da bd a1 bf a0 bd 9c f4 39 be
       -0.0045402017 -0.106569104 -0.0784905 -0.18159717
000100 a4 53 cb 3d 5d eb a3 3d ce 12 eb bd 5a 96 a7 3d
       0.099280626 0.08003876 -0.11478196 0.08182974
000110 77 b3 48 bd ea b4 85 bd dc c1 b2 3c 8f ab b1 3d
       -0.048999276 -0.06528647 0.021820955 0.086753
000120 cb 97 48 bb 2c 97 83 3e 2b 23 0c be e9 93 2b 3e
       -0.0030608054 0.25701272 -0.1368529 0.16755642
000130 53 bc 22 bd e0 d5 e2 3d d9 0a 06 3e 7d 4b 14 be
       -0.03973038 0.1107595 0.13090076 -0.14481921
000140 81 0d 50 3d 0a 78 4a bc 2a 00 7b be 37 94 cd 3c
       0.05079413 -0.012357721 -0.24511781 0.025095088
000150 76 99 b5 bd 44 18 36 bd 24 81 8a bb 8e 7a 6e bd
       -0.08867161 -0.044456735 -0.0042268205 -0.058222346
000160 46 53 c2 3d 62 63 e9 3c a9 47 1b be 81 b5 d0 3d
       0.094885394 0.028489772 -0.15164055 0.10190869
000170 9f c1 34 3d c6 eb 00 3e cd 21 ea bd 32 3f cf 3d
       0.044129964 0.1258994 -0.11432228 0.101194754
000180 5f 56 44 bd e5 49 09 3e c0 b3 fb 3c d2 39 66 bd
       -0.047933932 0.13407095 0.03072536 -0.056207485
000190 87 15 f7 bd f9 7b 67 be 1e 7b 0f 3c 79 5a 23 3d
       -0.12064653 -0.22605886 0.008757381 0.039881203
0001a0 54 85 18 bd d5 a2 7a bd 8a 25 8e 3d b4 83 56 bd
       -0.037236527 -0.061190445 0.06940754 -0.052371696
0001b0 1e df bc 3d cd 81 d6 3c 17 da 0c 3e a5 aa 57 3e
       0.09222244 0.02618494 0.1375507 0.2106119
0001c0 6c 97 7d ba 0e ca 10 bd fc d3 09 3e a0 44 e0 3c
       -0.00096737477 -0.035348944 0.13459772 0.027376473
0001d0 00 36 68 3d 02 a2 09 bd ae 67 41 3d 3a 00 46 3d
       0.056692123 -0.03360177 0.047218017 0.04834006
0001e0 2f b6 25 bd 80 65 f8 3d 2f 6b ec bd b9 eb 50 3d
       -0.040456947 0.121287346 -0.11543881 0.051006053
0001f0 e0 5b 1f 3e cf 18 a9 be 66 b3 be bc b6 f3 e7 bc
       0.15562391 -0.3302674 -0.023278903 -0.028314453
000200 59 81 22 3d fe aa 01 bd e9 10 87 be 60 60 47 bd
       0.039674137 -0.03165721 -0.2638009 -0.048675895
000210 7e 4e 18 bc 3f 6b 26 3d 37 35 c4 3d a2 1a 6f 3e
       -0.009296058 0.04062962 0.095804624 0.23350003
000220 8c f8 dc 3d c6 35 fb bb 16 f6 9f bd 9d b0 97 3c
       0.10789594 -0.0076663224 -0.07810609 0.018516833
000230 98 b1 77 3d 9c 4d 12 bd 3f e7 1f 3d 09 9a 1a be
       0.0604721 -0.035718545 0.039038893 -0.15097822
000240 6c 8d f2 bc f6 9d e8 bd da 9e 11 be 78 37 4d 3d
       -0.02960845 -0.11358254 -0.14220753 0.050101727
000250 5b 12 a1 3d d8 05 f1 3d 17 c8 19 bd d7 59 af 3c
       0.07864829 0.11768693 -0.037544336 0.021405144
000260 8d 53 5b bd cb 23 26 3d e5 e1 cf bd 16 8c 1c be
       -0.053546477 0.04056148 -0.10150508 -0.15287814
000270 b1 5b 63 bd ad 4b 34 ba 71 11 02 3e d6 54 9d bd
       -0.055507366 -0.00068777316 0.12701966 -0.07682197
000280 19 84 b7 3d 73 2d 2d bd 98 dd ac bc 3f 7b c2 3d
       0.089607425 -0.042279672 -0.021101758 0.094961636
000290 c4 56 11 bd 9a 6b 55 3d 28 5f cd bd 7f 0f 21 3e
       -0.035483137 0.05210457 -0.10027915 0.15728568
0002a0 d3 d5 aa bc ca 5f ab 3d 8f 9e 16 be 7e be 1e bd
       -0.020853912 0.0836788 -0.14708923 -0.038755886
0002b0 70 34 8b 3d ca 9b cd 3c ce 7d cd bd f9 06 5c 3d
       0.06797111 0.0250987 -0.10033761 0.053717587
0002c0 d4 81 4c 3e 79 64 97 3d a9 8d 44 be 4c cd 05 3d
       0.199714 0.073922105 -0.19194664 0.03266649
0002d0 24 e4 52 be 29 32 d6 bd 7d 18 11 bd 74 d9 99 3d
       -0.20594841 -0.10458786 -0.035423744 0.07512179
0002e0 0c 99 77 bd 35 12 75 3e 4a ea 4a bd 46 3d 89 3e
       -0.06044869 0.23932727 -0.04953984 0.2680456
0002f0 15 29 50 3d 33 56 9e 3d ca 83 23 bd f3 f1 90 bd
       0.05082043 0.07731285 -0.039920606 -0.07077398
000300 fb a4 cb bd 3a a2 25 be 43 eb 18 be e0 b7 84 3d
       -0.09943577 -0.16175166 -0.14933495 0.06480384
000310 0f cf 89 bd 21 bd a6 bc b6 5b d8 3d f8 e7 f7 bd
       -0.067289464 -0.020353856 0.105643675 -0.121047914
000320 f6 e0 d0 bc a1 3e 41 bc 30 da 0a 3d b2 36 47 3d
       -0.025497895 -0.011794717 0.033899486 0.048636146
000330 c6 4c 3b 3d dc c1 20 bc 20 75 06 be cd 6f 9e bd
       0.045727514 -0.009811845 -0.13130617 -0.07736168
000340 1f 7c 74 3c dd 18 00 3e 2e ce dd bd e6 56 e4 bd
       0.014922171 0.12509485 -0.10830341 -0.11149387
000350 85 5f b5 3e c2 0d fd bd 30 15 9c bd 5c 29 90 bd
       0.35424438 -0.1235614 -0.07621229 -0.07039139
000360 cd 88 fd bc 4d a0 0b be b5 36 41 bd b2 91 d9 3d
       -0.03094902 -0.13635369 -0.047171313 0.10623492
000370 5b 59 9c 3c 22 c3 ba bd a3 f8 27 be 72 5c 4c 3d
       0.019085577 -0.0911925 -0.16403441 0.04989285
000380 23 72 93 3d cd 5d 40 3d 09 2c 0f be da a8 da bd
       0.07199504 0.046964455 -0.13981642 -0.10676737
000390 26 c7 f4 bd 7e ae 8d 3d 21 a5 0c bd eb 6c e9 3c
       -0.11952047 0.06918047 -0.034337167 0.028494319
0003a0 ee e5 80 bd c8 ce 65 3e 01 3f f1 bb 20 ce 02 3d
       -0.062938556 0.22442162 -0.007362247 0.031934857
0003b0 50 1f 2a 3e bb 4e 6f 3b 1b a3 16 bd 88 d5 47 3e
       0.16613507 0.0036515433 -0.036776643 0.1951505
0003c0 9f 60 01 3a a9 c5 92 bd e3 fa 32 bc 6f 59 05 3d
       0.0004935357 -0.07166607 -0.010924074 0.032555994
0003d0 e5 db 7f 3d de 29 fa bd 0f e8 84 be 7f 6a 66 3d
       0.062465567 -0.12215017 -0.25958297 0.056253906
0003e0 97 cd a5 3d fa d7 56 3e 06 0c f1 3d 69 9a 4d bd
       0.08095854 0.20980826 0.117698714 -0.050196085
0003f0 29 a2 7b bd dc ff bb 3c dd b0 3e bc e9 05 52 3d
       -0.061433945 0.022949152 -0.011638847 0.051275168

tbls_list.0.ff.layernorm.bias f4 [64]
000000 10 e9 2c 3d 96 d6 87 bb bf 10 72 bc d9 e1 1f bc
       0.042214453 -0.0041454537 -0.0147745 -0.009758436
000010 33 d5 86 bd 23 a4 74 bd c2 a6 1e 3d c3 a5 c7 bb
       -0.06583633 -0.059726845 0.03873325 -0.0060927584
000020 1a e3 8f bc 69 f5 72 3d 28 40 5c 3c 90 5b b2 3d
       -0.017564345 0.059316073 0.01344303 0.087088704
000030 8e 54 4e bd 3b d6 d1 3c 14 45 24 bd 2b c7 a7 bc
       -0.050373606 0.025614848 -0.04010494 -0.020480713
000040 0c cf ba 3a f3 0f 30 bc 95 1b bc bc da 66 54 3c
       0.0014252379 -0.01074599 -0.02296237 0.012963975
000050 78 a4 7b 3d 78 86 21 3d 81 69 77 3d 58 05 5d 3d
       0.061436146 0.03943488 0.06040335 0.053960174
000060 8c 09 0a 3c 03 50 92 3b a0 5f fe bc de 8b 89 3c
       0.008425128 0.0044651045 -0.031051457 0.016790327
000070 95 be 2e bd 31 aa 98 bb 30 28 39 bc e9 a8 4b 3c
       -0.042662222 -0.0046589603 -0.011301085 0.012430408
000080 f5 e6 79 bd 25 1e 43 3d 4e d2 6a 3c f0 41 85 bc
       -0.061011273 0.04763617 0.014332367 -0.016266793
000090 d6 d9 71 3c fc 94 82 bd e2 f7 20 3d 3e 36 04 3d
       0.014761409 -0.06376073 0.0392989 0.032278292
0000a0 68 40 0b bd 3c 68 50 bc 6c c5 6c bb 43 ee bc bb
       -0.03399697 -0.012720164 -0.0036128415 -0.0057657077
0000b0 a0 77 32 bc a0 95 18 bd 12 5a 51 3c 5f b1 b5 3b
       -0.010892779 -0.03725207 0.012777822 0.005544826
0000c0 4b b9 f5 bc 86 a1 91 bb 2a ac 0c 3d 19 f7 cc 3c
       -0.029995581 -0.004444304 0.034343876 0.02502017
0000d0 ca 08 bd bb 24 2d 01 bd c4 88 6b bc 32 c1 37 bc
       -0.00576887 -0.03153719 -0.014375869 -0.011215495
0000e0 51 01 0c bd a6 be 4d bb ee 4e d6 3c be 50 99 3d
       -0.034180943 -0.0031394153 0.026160683 0.074861035
0000f0 8b d6 9f bc 16 dc 26 bd f8 9b 19 bc e9 6b 23 bc
       -0.019511482 -0.040737234 -0.009375565 -0.009974458

tbls_list.0.ff.layernorm.weight f4 [64]
000000 c8 80 7f 3f 8b 4d 81 3f 20 5e 7d 3f 5f 12 80 3f
       0.9980588 1.0101789 0.9897175 1.0005606
000010 ee 6b 7d 3f 46 29 7d 3f 5d 97 81 3f 41 05 7b 3f
       0.9899281 0.98891103 1.0124317 0.9805489
000020 1c 88 7b 3f 6f d1 78 3f 7d 71 82 3f 62 82 81 3f
       0.9825456 0.9719457 1.0190884 1.0117915
000030 13 c2 87 3f 4f 8d 81 3f 80 a6 81 3f 48 d5 7b 3f
       1.0606102 1.0121249 1.0128937 0.98372316
000040 3c f5 84 3f 8e a2 83 3f 5a a8 83 3f b6 f7 76 3f
       1.038734 1.0283983 1.0285752 0.96471727
000050 76 78 84 3f 6c 32 84 3f 2d c8 71 3f 4d 26 7b 3f
       1.0349262 1.0327888 0.9444607 0.9810532
000060 88 4b 81 3f 5a 94 80 3f 53 3b 79 3f 0a 43 82 3f
       1.0101175 1.0045273 0.97356147 1.0176709
000070 da 94 82 3f be 87 7f 3f 02 1b 7c 3f 9d 3b 82 3f
       1.0201676 0.998165 0.9847871 1.0174443
000080 d1 c8 7c 3f 42 82 7e 3f d8 bb 7e 3f 48 64 85 3f
       0.9874392 0.9941751 0.99505377 1.0421228
000090 6c 23 80 3f 0b ac 81 3f 84 22 7a 3f e3 0d 85 3f
       1.001081 1.0130628 0.97708917 1.0394863
0000a0 bd a9 7b 3f 3b 3d 83 3f 00 f1 82 3f 02 0c 89 3f
       0.98305875 1.0253061 1.0229797 1.070679
0000b0 d7 86 7d 3f 02 1f 86 3f 1e f3 82 3f ce 0b 85 3f
       0.99033874 1.0478213 1.0230443 1.0394228
0000c0 66 4a 7e 3f dd 8b 7d 3f 1b 6f 81 3f 7e 12 80 3f
       0.99332273 0.9904154 1.0112032 1.0005643
0000d0 e3 c7 84 3f 09 9a 85 3f c3 88 72 3f 0b 3e 7d 3f
       1.03735 1.0437633 0.9473993 0.98922795
0000e0 d6 ec 87 3f 9b ce 78 3f 9e db 7c 3f d2 27 7f 3f
       1.0619152 0.97190255 0.9877261 0.99670136
0000f0 02 2b 89 3f 87 23 81 3f b1 2f 83 3f a7 fd 82 3f
       1.071625 1.0088967 1.0248929 1.0233659

tbls_list.0.ff.second_proj.bias f4 [64]
000000 34 e8 88 3d ea b8 58 bd a2 1e 79 bd 5f 2a 47 3d
       0.06684914 -0.052910723 -0.06082023 0.048624393
000010 9f 6d 77 bd f9 5a a2 bc 59 19 05 3d 4a 67 81 3d
       -0.060407277 -0.01981877 0.032494877 0.06318529
000020 20 f1 5b bd 81 8d fe 3b 38 69 9f bc e4 b4 18 3e
       -0.05369675 0.0077683334 -0.019459352 0.14912754
000030 a5 8b 31 bd a6 80 9b bc 97 e8 63 bd 42 e1 67 3c
       -0.043346066 -0.018982243 -0.055641737 0.014152827
000040 18 e3 b5 3c 28 97 de bc 0b d5 50 3c 13 ca 29 3b
       0.022203013 -0.027171686 0.012746106 0.00259078
000050 b4 a0 95 3d 37 c3 ef ba 2a 23 34 bd ce 89 30 bd
       0.07306042 -0.0018292431 -0.043978848 -0.04310017
000060 14 5b a3 bd f2 ba 0e 3d e4 82 3b bd 08 61 95 3c
       -0.07976356 0.034846254 -0.045779124 0.018234745
000070 a8 31 fe bc 97 7b 23 bd 1e ff 65 bc 79 52 94 bc
       -0.031029537 -0.039912786 -0.014037875 -0.018105732
000080 1b 01 f5 ba c5 fe 35 3d ec a2 ca 3c 69 68 2f 3d
       -0.0018692346 0.04443242 0.02473589 0.042824183
000090 cd 63 65 3c 05 21 13 bd 0f fd bc bc ee 0c d8 3d
       0.014000845 -0.03592016 -0.023069886 0.10549341
0000a0 8f 92 e1 bc 0b c5 13 bd 58 14 1c bd 9d cc fc 3c
       -0.027535705 -0.036076587 -0.03810534 0.030859286
0000b0 65 e0 e4 bc 8b c2 24 bd 20 0d 39 3b ed bd 63 3b
       -0.02793903 -0.040224593 0.0028236583 0.0034750656
0000c0 30 17 8f bd d5 c6 b6 bc 85 ff 8e 3d d6 5b 21 3d
       -0.069868445 -0.022311607 0.0698233 0.039394222
0000d0 32 c1 7c bc 8a 7e 50 bd 07 56 08 bd 0c af 23 bd
       -0.015426921 -0.050901927 -0.033285167 -0.03996186
0000e0 bc b7 48 bd 7e 7a 98 3d 72 2c 8f 3c 7d 2b 81 3d
       -0.049003348 0.074452385 0.017477248 0.06307123
0000f0 4a b0 51 3d 0f 11 9f bd 82 bd 35 bd 7e 7b 1d bd
       0.051193513 -0.077669255 -0.04437018 -0.03844785

tbls_list.0.ff.second_proj.weight f4 [64, 256]
000000 84 e8 f1 bb f6 de bc 3c 94 ea 5e 3d 61 79 2d bd
       -0.0073824544 0.023055535 0.05442293 -0.042352084
000010 4e a5 fe 3d 99 4c 94 3d 3d d3 50 bd 55 72 e5 bc
       0.12433873 0.07241172 -0.050982703 -0.02800862
000020 7d b7 66 3b 6d 81 12 bc 36 84 88 3d 4e 37 94 3c
       0.0035204582 -0.00894199 0.06665842 0.018092778
000030 c0 87 a5 3c 5f ef 6c bd 9a 41 26 3e 68 67 b3 bc
       0.020206332 -0.05784547 0.16235963 -0.021899894
000040 b6 ff 0c 3e af c3 85 bd ee 92 d3 3b 9a ab 37 3e
       0.13769421 -0.06531464 0.0064567244 0.17936555
000050 09 af 8f bd d8 ed 2a 3c bc 19 d6 bd 67 d8 17 3c
       -0.07015807 0.010432683 -0.10454127 0.009267903
000060 5f 23 98 3d 98 63 7f bc f3 98 01 3d ed 90 06 3b
       0.074286215 -0.01558771 0.031640004 0.002053316
000070 20 b7 9a bd 70 25 60 bd 38 6b 89 bc d7 2c 70 bc
       -0.075544596 -0.054723203 -0.016774759 -0.014659128
000080 dd b7 12 3d ae 56 b1 3d 1a f3 91 3d 2a bb 0b 3e
       0.035819877 0.08659111 0.07126446 0.13645616
000090 98 53 92 3d 3a 63 07 3e 72 bc 2f 3b 76 7f ed bb
       0.071448505 0.13221446 0.0026815203 -0.0072478605
0000a0 a5 32 01 bd be e8 cd 3d d3 18 60 3d e0 9b 0b 3c
       -0.03154244 0.10054158 0.054711174 0.00852105
0000b0 66 9f a8 bc 5b 49 6e 3d 10 4f d7 3d ef 41 a5 3d
       -0.02058382 0.058175426 0.10513127 0.080692165
0000c0 f2 29 2b 3e cd 3b bd 3d 8f b9 cc 3c f9 8f aa bc
       0.1671522 0.09239922 0.024990825 -0.020820605
0000d0 7c 45 ca 3d 06 45 53 3e 08 09 00 3d 82 9c 9e bc
       0.09876534 0.20631799 0.031258613 -0.019361738
0000e0 8e ce d2 bd 35 5d 7e 3d b4 7a e3 3d 2b d1 2f 3d
       -0.102933034 0.062100608 0.11107388 0.042924087
0000f0 6a 83 44 3c 4c 56 e9 3d ac 42 82 bd 08 55 14 bd
       0.011994222 0.11393413 -0.06360373 -0.036213905
000100 7f 5d aa bd 72 e8 9e bc e6 70 f6 3d 72 3e a4 bc
       -0.08318614 -0.019397948 0.120332524 -0.020049307
000110 a2 d3 00 bd 7b 93 c2 3d c1 96 4f bd 0a be 52 bd
       -0.03145183 0.09500786 -0.05068088 -0.051450767
000120 24 fe e4 ba 7e 6d 8a 3d f4 0a d5 bd 8e ff 89 3c
       -0.0017470759 0.06759165 -0.1040248 0.01684549
000130 05 08 66 3d 15 28 04 3d 01 31 25 3d 02 f6 7d bd
       0.05615999 0.032264788 0.040329937 -0.06200219
000140 ab 7d 6e 3c b0 35 d2 3d 4c 77 d2 bd c3 33 52 3e
       0.014556329 0.10264146 -0.1027666 0.20527558
000150 3b 68 f5 3d 57 3b 0a be 7c 18 3b 3e dc a5 75 3c
       0.11982771 -0.13499199 0.18271059 0.014993157
000160 19 e5 f5 bd a4 42 0b 3d 49 1e 3e 3c 38 5c 34 bc
       -0.120065875 0.0339991 0.0116039 -0.011008315
000170 90 c8 ec 3d db 15 3d bd 3a 9b 17 3d 41 8b 95 bc
       0.11561692 -0.04616342 0.03701327 -0.018254878
000180 72 7e 95 3d 79 fd 01 3e 00 a8 4f 3b 3e 3d 5c 3c
       0.07299508 0.12694348 0.003168583 0.013442336
000190 79 ae 2d 3d 41 5a 84 bc 65 43 a3 3d f1 8d d8 bd
       0.04240272 -0.016156318 0.07971839 -0.10573948
0001a0 37 b6 c8 bd 92 b7 89 b9 d8 0b ba 3c 2c 77 1f 3d
       -0.0980038 -0.00026267447 0.022710726 0.03893201
0001b0 68 3e 76 bd da 48 32 3d a1 8b 70 bd fa b2 87 bc
       -0.06011811 0.043526508 -0.05872691 -0.016564835
0001c0 5e 1e a3 3d 87 73 03 bd c5 d2 81 bd e6 cb 9b bd
       0.079647765 -0.032092597 -0.06339029 -0.0760725
0001d0 e8 54 70 bd 45 99 a8 3d 4e be 7f bd 5a 91 93 3d
       -0.058674723 0.08232359 -0.062437348 0.07205458
0001e0 15 c1 8b 3d ca 48 c7 3d 68 52 1c 3d 58 21 12 3b
       0.06823937 0.0973068 0.038164526 0.0022297706
0001f0 82 bf c3 3d f8 28 e5 3d 92 90 53 3d eb cf 57 3d
       0.095580116 0.11189455 0.051651545 0.05268852
000200 a3 04 24 3d 74 20 09 bd f7 a2 9d 3c b6 b1 4a bc
       0.040043484 -0.033478215 0.019242747 -0.012371471
000210 f1 a6 33 3d 0b b5 83 3c b8 9e 15 be 9d 2f 72 3d
       0.04386038 0.016077539 -0.14611328 0.05912744
000220 4e 6e d0 bc c5 a9 82 bd c3 54 6f 3c f9 a8 c3 3a
       -0.025443222 -0.06380037 0.014607611 0.0014927677
000230 4e 3b a6 3d 25 31 69 3d 53 f2 14 3d 18 bd 89 3d
       0.0811678 0.056931634 0.03636391 0.0672552
000240 56 f2 78 bd e3 d3 81 3d 50 67 d4 bc 76 78 96 bc
       -0.060777985 0.06339242 -0.02592817 -0.018367987
000250 23 df 32 3c ac 3d 82 3d 8d d5 b5 3c 30 6d 8a 3d
       0.010917458 0.06359419 0.022196556 0.06759107
000260 8e 13 47 bd 90 0e 71 3d 06 ba 3f bc 08 05 94 bc
       -0.048602633 0.05885178 -0.011702066 -0.018068805
000270 4c ab d8 bc f5 67 a1 3d 12 64 de bd e3 a5 71 3d
       -0.026448868 0.07881156 -0.10858931 0.058996093
000280 23 c0 bb bd 79 39 0f 3e 81 94 76 3c 21 d1 2e bd
       -0.091675065 0.13986768 0.0150500545 -0.04267991
000290 5b 9a d8 3d 1d d6 ee 3c 4f 97 39 3d ec e1 0a be
       0.10576316 0.029154832 0.045310315 -0.13562745
0002a0 3f c2 04 3d 39 aa 46 3e 74 a6 6e bc 55 ff f1 bd
       0.03241181 0.19400872 -0.014566053 -0.11816279
0002b0 3b f7 23 bc f9 38 a5 3d bf 4c 15 bd 99 56 a3 3d
       -0.010007675 0.08067507 -0.036450144 0.079755016
0002c0 ac e9 0e 3d 90 56 4d bd 01 3f 96 bd af 31 07 bd
       0.034890816 -0.05013138 -0.07336236 -0.033006366
0002d0 2c b4 3c 3e 3f 70 86 bd 46 50 8a 3d 14 2a be 3c
       0.18428105 -0.06564378 0.06753592 0.023213424
0002e0 c3 b8 83 bb 56 69 dd 3c 08 c2 b6 3c 69 3d bb bd
       -0.004019828 0.027027767 0.022309318 -0.091425724
0002f0 a0 ca 26 3d 70 fe a0 3d 09 a3 8f bd 0d 12 18 bd
       0.040720582 0.0786103 -0.07013518 -0.03712659
000300 7b 53 41 bd f8 9f 1a bb e4 f4 f0 3d 1d ae b8 3d
       -0.047198754 -0.0023593884 0.11765459 0.090175845
000310 52 d5 67 3e 4a ee e6 3d b0 f2 fd bd 23 3d ac bd
       0.22639969 0.11275919 -0.123998046 -0.084100984
000320 da 32 2d bc cc 38 5d bd 3a 8f 89 3d f8 dc 85 3d
       -0.010571206 -0.054009244 0.067167714 0.06536287
000330 5a dc 46 3d 42 4b 8a bd ee d8 cd bd 6c aa 95 bd
       0.048549987 -0.067526355 -0.10051142 -0.07307896
000340 8e b6 d1 bc 8e 22 1e 3b 5c c4 d6 3c 26 53 c0 3c
       -0.025599744 0.0024129483 0.026216678 0.023477148
000350 88 8d 08 3d f8 7a 05 3e c5 c9 4e 3e 06 46 7a 3c
       0.0333381 0.1303519 0.20194156 0.015275484
000360 60 b3 c9 3c e5 ef 62 3e 4f 49 a1 3d 3a 23 f6 3d
       0.024621665 0.22161825 0.07875311 0.12018438
000370 bf aa 1e 3d f5 35 27 bd 15 43 98 bd e4 53 00 3e
       0.038737055 -0.04082294 -0.0743467 0.12532002
000380 fc e6 22 be b4 2f 0a 3e b4 13 8d 3d c0 66 9d 3d
       -0.15908426 0.1349476 0.06888524 0.07685614
000390 aa 67 21 be d3 18 48 bd 26 a7 68 3d 33 b1 94 bd
       -0.15762201 -0.0488518 0.05680003 -0.072603606
0003a0 97 75 b1 3d 4b 56 ac bd 0a a8 39 bd fc 72 a1 bd
       0.086650066 -0.084148966 -0.04532627 -0.0788326
0003b0 52 e5 e0 3d 7b 69 2e 3d 18 42 7b 3c 29 18 94 bd
       0.109812394 0.042581063 0.015335582 -0.07231171
0003c0 32 5f a5 bd f8 92 fb 3c 7e 0c 1f 3d 0e 38 f8 3d
       -0.08074798 0.030709729 0.038830273 0.121200666
0003d0 64 8b 37 bd 3f aa 9a 3d 61 de e4 3d 05 52 a7 3d
       -0.044810668 0.07552003 0.11175228 0.08169941
0003e0 b5 5f c2 bd e7 0f 41 3c dd d0 12 bd af ea 30 3c
       -0.09490911 0.011783577 -0.03584372 0.01079814
0003f0 71 1e 9a 3c 12 db bd bd 64 ba ae 3d 8b db 51 bb
       0.018813344 -0.092703 0.08531645 -0.0032021727

tbls_list.0.mha.kproject.weight f4 [64, 64]
000000 e8 2b 08 3e 20 88 cc bd 7f cc db 3c 7a 0b aa 3c
       0.13297999 -0.09986901 0.02683091 0.020757426
000010 e2 72 00 3e 07 1a 3e 3e e6 78 23 3e 3a 7f 6a be
       0.12543824 0.18564616 0.15964088 -0.22900096
000020 75 02 d9 3c be bf 36 3d 13 07 0f be de 57 13 3e
       0.02649043 0.044616453 -0.13967542 0.14388987
000030 40 41 a6 3d 91 2d 0c 3e 97 17 04 bc e7 a8 05 be
       0.08117914 0.13689257 -0.008062265 -0.13052712
000040 b8 79 53 bd ce c4 9e bd 39 f5 d9 bc 4d 3b c8 3d
       -0.051629752 -0.07752381 -0.02660619 0.09776936
000050 b6 1a 3b be e8 62 2d bd ac cf 78 3d 78 fe ea 3d
       -0.18271908 -0.042330652 0.060744926 0.11474317
000060 e8 dd e8 3c b1 1d 45 3e 34 df 9d bd c9 ea 1e 3e
       0.028426126 0.19249608 -0.07708588 0.15519251
000070 24 28 0b 3d f8 d2 ac bd 36 38 93 bd 61 14 0c be
       0.033973828 -0.084386766 -0.07188456 -0.13679649
000080 1c 92 70 bc e5 af 13 be e7 4a 81 3c 54 b8 51 be
       -0.014683273 -0.14422567 0.015782787 -0.20480472
000090 e4 de 27 be 7c 3f 81 bd 38 4d d8 3d b8 6b 58 bd
       -0.1639362 -0.06310937 0.10561603 -0.052837104
0000a0 d8 5f 14 be c5 2e 09 bd 4a e1 25 be a0 8b 0b 3a
       -0.14489686 -0.03349187 -0.16199222 0.0005323235
0000b0 7e 3b 0e 3e e6 1c 38 3e 91 de 87 3d 49 7b d3 3c
       0.13889882 0.17979774 0.06634248 0.025815623
0000c0 a7 73 45 3d f5 25 b0 3d 6c 38 2b be 7d 33 d1 3c
       0.048205998 0.0860099 -0.16720742 0.025537247
0000d0 c2 2a 30 be 39 fa 4d 3c 7c 0e f1 3d 7f 39 0d 3e
       -0.17203811 0.012571865 0.11770341 0.13791464
0000e0 a2 6e 5e bd 5b 8d 27 3e 3a 84 10 be c8 b4 11 be
       -0.054304726 0.16362517 -0.1411294 -0.14229119
0000f0 04 0a a0 bd d9 83 7e 3e 60 8d 25 bd 06 40 af 3d
       -0.0781441 0.24854983 -0.04041803 0.085571334
000100 fc 67 c2 bd 4b 02 dd 3d a1 b7 3a 3e 33 03 99 bd
       -0.0949249 0.10791453 0.18234111 -0.07471313
000110 8d 1e 38 be f4 fb 8e bd 0e 83 5a 3d d5 26 81 3b
       -0.17980404 -0.0698165 0.05334764 0.0039413967
000120 f2 66 77 bd 80 ce 4e 3e 5b 84 51 be b5 30 f1 bd
       -0.06040091 0.20195961 -0.20460646 -0.11776868
000130 2d 86 96 bd ea 59 50 bd 98 26 43 3d bd 90 53 3d
       -0.07349811 -0.050867 0.047644228 0.051651705
000140 f4 02 c5 bd ae 8f 16 3e 88 d1 94 3c 34 69 86 bd
       -0.09619704 0.14703247 0.018166319 -0.06563035
000150 5d fe 76 bd 42 a2 20 bd 61 cd 0a bd 7d 2c 38 be
       -0.060301173 -0.03921724 -0.03388727 -0.17985721
000160 d8 e2 b4 bd 81 b5 a7 bd 93 db 44 3e f8 22 77 3d
       -0.088323295 -0.08188916 0.19224386 0.060336083
000170 64 27 20 bd ba b4 ca 3d 8b 09 63 be ac 48 14 be
       -0.039100066 0.09897752 -0.22171609 -0.14480847
000180 de 27 09 3e 67 cb 1f bd 51 3a 6c bd dc 53 70 3e
       0.13394114 -0.03901234 -0.057672802 0.2346949
000190 33 b9 3f be 48 a0 b1 3d 62 28 97 be ed 48 eb 3c
       -0.18722992 0.08673149 -0.29522997 0.028721297
0001a0 8c 37 86 3e d7 b0 c7 bb db d2 85 3c 7b 2a a4 3d
       0.26214254 -0.006094079 0.016335895 0.08015915
0001b0 26 b1 96 bd 28 a0 0d 3e c9 9a 03 bd 4e 4a 30 3e
       -0.07358007 0.13830626 -0.032130037 0.17215845
0001c0 0f 58 83 3d c4 70 18 3e c9 14 ba bd 78 74 34 bd
       0.0641328 0.14886767 -0.09085996 -0.044056386
0001d0 8b f2 6b bd 31 02 6c 3d 4b e6 b4 3d 58 10 50 3e
       -0.057604354 0.057619277 0.088329874 0.20318735
0001e0 79 50 21 3e 47 bc 52 bd 3f 91 fc 3c 4a 57 fd 3d
       0.15753354 -0.051449087 0.030830977 0.12370165
0001f0 a0 36 21 3d 83 49 88 be c2 16 fe bd b0 9e d6 bd
       0.039358735 -0.26618585 -0.124066845 -0.10479486
000200 48 66 24 3e 8c b4 a0 3c 5a fe c7 bd c8 ba 0b be
       0.16054642 0.019617341 -0.097653106 -0.1364547
000210 7f 09 25 3e d2 e8 c7 3b 0e 6d f6 3d e1 33 1b be
       0.16116904 0.0061007524 0.12032519 -0.15156509
000220 ce 30 2e 3e e3 84 f6 3c d7 77 f3 3b 19 ad fa bd
       0.17010805 0.030092662 0.0074300575 -0.12240047
000230 24 d7 53 3e 1e b6 fe 3c ac 9b 2d bd 10 0e 6e 3e
       0.20687538 0.0310927 -0.04238479 0.23247552
000240 a8 65 09 3e 45 a2 32 3e 27 84 cb bc 78 05 81 3d
       0.13417685 0.17444713 -0.024843289 0.06299871
000250 e2 20 90 3d 71 94 d4 bd e2 aa 3c 3d c1 6d 31 3d
       0.07037522 -0.103798755 0.046061404 0.04331756
000260 d2 9a 31 3e bd ea 17 3e d9 bc 1b be 93 b5 14 be
       0.17344216 0.1483564 -0.15208758 -0.1452239
000270 3c b7 21 3e 35 14 fd 3d c9 fc 68 bd 87 5a 00 be
       0.15792555 0.1235737 -0.0568817 -0.12534533
000280 58 7f ad 3d a8 26 f8 3c 95 09 96 be 32 a2 31 be
       0.084715545 0.03029187 -0.29304186 -0.17347029
000290 be 08 90 be 8b 9e ca 3d 4f 15 7e 3d 19 20 5c be
       -0.2813167 0.09893521 0.06203204 -0.2149662
0002a0 4b 42 58 be 31 8a d3 3c 3b 9a 8f 3b fc ff 08 3e
       -0.21119039 0.02582273 0.0043823994 0.133789
0002b0 ed ae 05 3e c6 c8 0d 3e ff 61 02 be d0 14 25 3d
       0.1305501 0.1384612 -0.12732695 0.04030305
0002c0 e3 25 c2 bd fe 92 80 bd 25 9c 88 bd dc 5c 7d bc
       -0.094798826 -0.062780365 -0.06670407 -0.015464034
0002d0 68 f6 a6 bb ce da 52 bd cd 23 61 be 31 a4 2a 3c
       -0.005095292 -0.0514782 -0.21986313 0.010415123
0002e0 cf e6 85 bd 42 7b 55 3d 01 92 49 3d c8 23 34 be
       -0.06538164 0.0521195 0.049211506 -0.17591774
0002f0 f7 e2 56 bd 4b a9 98 3d 72 6b ab 3d 85 67 ad 3d
       -0.052462544 0.07454165 0.08370103 0.084670104
000300 3e 1b 91 b9 de 62 5d bd 3a 90 90 bd 8e 52 10 be
       -0.00027676852 -0.054049365 -0.07058759 -0.14093992
000310 c1 c1 1c bd 0a 81 ab bd 5e da 2d be c0 f1 e1 bc
       -0.038270716 -0.083742216 -0.16977832 -0.027581096
000320 a0 cb 35 be 55 8f 5e 3d 5c 24 e9 3d 5e 27 16 3c
       -0.17753458 0.05433591 0.11383888 0.009164659
000330 58 5e 4d be 89 e6 f9 bd b3 86 86 3d 2a 0b 8e bd
       -0.2005552 -0.12202174 0.065686606 -0.06935723
000340 89 6a e3 3d d4 62 c1 3c f8 db ef bd 9b 75 c7 bd
       0.11104304 0.023606695 -0.117118776 -0.09739228
000350 41 cb 94 3d b7 52 ff 3d 23 ae 35 3c 31 f3 be 3b
       0.0726533 0.124669485 0.011088881 0.0058273305
000360 4d b4 18 3d fc f1 d5 bc 53 30 db 3d 12 52 0e 3e
       0.037281323 -0.026116364 0.107025765 0.13898495
000370 89 e2 24 be 49 79 70 bd 29 6d 14 3d 1b 6f 8c bd
       -0.16102041 -0.058709417 0.036236916 -0.06857129
000380 8f 7f d8 bd 34 e0 7b 3d 47 a4 1f 3d be bd d0 bc
       -0.10571205 0.061493114 0.038975026 -0.025481101
000390 b8 bc e2 3d 54 be 3d 3e 4b 5a de bd eb aa 89 be
       0.110711515 0.18529636 -0.10857066 -0.26888213
0003a0 3d 85 29 3e 04 33 05 be b9 07 6c be 00 c9 15 bd
       0.16554733 -0.13007742 -0.23049821 -0.03656864
0003b0 df 90 8d 3b c5 3e 17 bc 9e dc 26 3e 61 0f fd bd
       0.0043202485 -0.009231274 0.16295096 -0.12356449
0003c0 5c 18 08 3d f7 60 78 3e dc 66 d8 3d ae f8 36 be
       0.033226356 0.24255739 0.10566494 -0.17868301
0003d0 4a 18 11 3e 84 e1 06 be 11 3e 7a 3e 73 8a 76 3e
       0.14169422 -0.13171965 0.24437739 0.24076252
0003e0 2b 35 a9 3e b5 11 f6 bd 07 64 09 bd f5 3b e9 3d
       0.33048376 -0.12015096 -0.03354266 0.11388389
0003f0 dd b6 f9 3b 2d a5 2d bd 6a 75 9f bc bc 1f 7a be
       0.007620676 -0.042393852 -0.019465167 -0.24426168

tbls_list.0.mha.layernorm.bias f4 [64]
000000 ae c0 d6 bd 83 14 b9 bd 85 3a dc 3d 7f 07 57 3d
       -0.104859695 -0.090371154 0.10753349 0.052497383
000010 a6 82 b1 3d 10 b2 dc 3d 84 b1 31 3a 80 1c 89 bd
       0.08667497 0.1077615 0.0006778466 -0.06694889
000020 b5 f6 c4 bc 74 01 ee bd c7 7a 32 bd 0a 65 db bd
       -0.02404342 -0.11621371 -0.04357412 -0.10712631
000030 cb 20 4b 3c 98 65 72 bc cc 73 da bc c6 a0 31 bd
       0.012397955 -0.01479473 -0.026666544 -0.043366216
000040 84 53 8b bc 7a be b6 3d 51 50 bc 3d c6 af 1e 3d
       -0.017007597 0.08923049 0.09195007 0.03874185
000050 6f b4 a4 bd 4d db 9f bd 90 7f 70 3d 2c 17 05 3c
       -0.080422275 -0.078055 0.058715403 0.0081232
000060 a1 5d 71 3d 25 55 af 3d 29 d2 e8 3d db 61 4f 3d
       0.058927182 0.08561162 0.1136821 0.05063043
000070 d9 bd 56 3b 8f 03 c5 bc 4a 4e 69 bb 32 ec 10 bd
       0.0032766967 -0.024049548 -0.0035599642 -0.035381503
000080 22 f7 2f bd 94 63 1e be f9 a1 ff 3a 82 55 14 3d
       -0.042960294 -0.15467674 0.0019503228 0.03621436
000090 d5 95 04 bd 8a bd a5 3d 27 e0 8f bd 72 ed fd bc
       -0.032369453 0.08092792 -0.070251755 -0.030997012
0000a0 9f 1f 70 3d 5d 11 37 bc 66 ab fa 3d b1 af 8e 3d
       0.058623906 -0.011173573 0.12239723 0.06967104
0000b0 f0 3d fc 3c 8b c6 17 be 5d 4a 93 3c aa 4e a2 bd
       0.030791253 -0.14821832 0.017979795 -0.0792516
0000c0 46 12 8c bc ca d7 9d 3d df 98 7a 3d 53 d0 94 bd
       -0.017098557 0.07707174 0.061180945 -0.07266297
0000d0 6f 7c 1e 3c b3 f6 af 3d 4d 68 20 3d a9 96 d0 3d
       0.009673222 0.08591976 0.03916197 0.10184986
0000e0 2d b5 08 3e b8 51 65 bd 54 00 c8 bc 9f d0 dc bd
       0.13350363 -0.055986136 -0.024414219 -0.10781979
0000f0 c0 9b 3b 3d 72 8b aa 3d dc 0a ee bc 00 83 e7 3d
       0.04580283 0.08327378 -0.029057913 0.11304283

tbls_list.0.mha.layernorm.weight f4 [64]
000000 e3 5d 86 3f 0e 03 80 3f 5f e2 88 3f 01 c1 84 3f
       1.0497402 1.0000932 1.0694083 1.03714
000010 c9 5a 6e 3f ee ef 6b 3f d5 6e 82 3f a4 0f 7d 3f
       0.9310728 0.9216298 1.0190073 0.9885199
000020 45 6c 76 3f 44 7c 81 3f fc fe 82 3f 6c e3 83 3f
       0.96258956 1.0116048 1.0234065 1.0303779
000030 97 15 8b 3f 34 aa 79 3f 62 1b 7e 3f 4a 2f 6f 3f
       1.0865964 0.97525334 0.9926053 0.9343153
000040 6f e3 81 3f c5 f9 8a 3f ec 96 64 3f a2 2e 7e 3f
       1.0147532 1.0857474 0.8929279 0.99289906
000050 20 06 7b 3f c3 95 76 3f 28 f2 6e 3f 81 24 7b 3f
       0.9805622 0.9632227 0.9333825 0.98102576
000060 11 e7 80 3f 83 ff 80 3f 7a 81 89 3f 23 75 76 3f
       1.0070516 1.0077976 1.0742638 0.96272486
000070 2a aa 7f 3f b6 e6 69 3f b5 75 6b 3f 50 05 81 3f
       0.99869025 0.9136766 0.9197648 1.0079746
000080 36 b1 81 3f f6 9f 81 3f 67 e1 7f 3f a7 d1 80 3f
       1.0132205 1.0126941 0.9995331 1.0063981
000090 45 37 75 3f 32 3f 83 3f 9e 69 67 3f c3 c9 85 3f
       0.9578746 1.0253661 0.90395534 1.0452198
0000a0 c0 e9 7d 3f e3 86 80 3f 53 7a 81 3f 84 46 81 3f
       0.991848 1.0041164 1.0115455 1.0099645
0000b0 2e e4 76 3f 86 0f 88 3f 1f 05 84 3f ab e7 83 3f
       0.96441925 1.0629737 1.0314063 1.0305074
0000c0 ef 31 81 3f d9 f7 7f 3f 0b 5e 7e 3f 0b 62 74 3f
       1.0093364 0.9998756 0.9936225 0.954621
0000d0 16 7e 80 3f 57 fd 72 3f 4b 10 79 3f e3 d7 6f 3f
       1.0038478 0.94917816 0.97290486 0.9368879
0000e0 9c 37 8f 3f 2b f2 85 3f 42 68 7f 3f d2 f1 88 3f
       1.1188846 1.0464529 0.9976846 1.0698798
0000f0 53 9d 89 3f 39 41 81 3f 0d 16 6c 3f 0e 29 86 3f
       1.0751137 1.0098029 0.92221147 1.0481279
