degradation_transformer_model.safetensors (safetensors, 738672 bytes, 38 tensors)

lm_head.weight f4 [500, 64]
00000000: e0fc bcbf c0c2 89bf 11e7 e5bd 4e9b f93f
00000010: 5dd7 223f 3d9d cebf e36c de3d 6214 05c0
00000020: c7ba d8be d990 50bf 631b 48bf ebf9 b4be
00000030: c170 553f 390e b73e eb11 063e 5fa0 77bf
00000040: 8d86 88bf 55ba ebbf 3344 053c 0fb3 99bf
00000050: 0884 2dbf 370a 773f a289 3e3f 6927 6b3e
00000060: b9be 403f 047b 11be d7b0 a83e c923 ec3e
00000070: 828b e23e 1b8b d4be a0d8 873e 22b3 d5be
00000080: 39aa 05bc 6285 003f 7b0d 8dbf 0c2b fb3f
00000090: 13e0 c23f 8456 f8be 668f 203f aa0a ac3e
000000a0: b52f 923f f2bb 5840 b8e7 123e 0590 3ebd
000000b0: 33e5 f3be 41ea a1be 0505 a23f 81b1 d1be
000000c0: fa28 683f cdf3 af3e 9a66 0c3f 412a c03f
000000d0: a194 5ebf 41fb 76bf d486 60be d404 303f
000000e0: 10fd 62bf 5e89 7a3f 4edc 56bf ed45 8b3f
000000f0: 6988 98bf fa3c a2bf 9f64 523e e473 9bbf
00000100: 96c3 eabd bdb2 3440 6b89 a23f 5207 c3bd
00000110: 3611 9ebf d14d c13d 0518 0fbf c2ea 853f
00000120: 3d73 a73e b48a 093e 115a 05bf 8950 943e
00000130: ca29 6c3f db3c 09c0 01b9 7ebf 3d35 fd3f
00000140: 4e28 c33e a51e 9b3e c3a5 a9be 0df5 953f
00000150: e724 37bf ebb5 0d40 8f9a 8e3f 0ecb 64be
00000160: 4931 c73f 99a4 33bf 21e0 fdbf 86b6 f43e
00000170: 36b3 95bf e20a 653d 4012 efbf c28c 5d3f
00000180: f752 c73f 24e5 abbf 4111 4ec0 7da0 e13e
00000190: 83cc efbe 5589 d3bf ed10 963c d331 243f
000001a0: a62f 663f eac3 ff3f 1128 ae3f e590 f1bf
000001b0: acad 1bc0 c5c9 cc3d 007f 52bf 105f a33e
000001c0: 0670 5abf fb99 5a3f 35b8 9c3d 932f d03e
000001d0: c9d3 c9bf aab6 13bf 6414 8dbf d32d 28bf
000001e0: 25fc bebe bdd0 313f e7ee 3ebf 2167 db3f
000001f0: b43a 8a3f 1442 4dbf 75aa ce3f e0f8 2c40
00000200: 559c bfbe 3e58 1ebf d61c 233f 757d df3f
00000210: 9114 39bf dd4c 673f 536c 313f ee4d aa3e
00000220: 6d6d cc3f 8a28 0cc0 c824 713f 9edf 23be
00000230: a2f5 9fbf 8fde f7bf a0b8 aa3e 8a74 adbe
00000240: 4df6 c93e 07a2 3dbe 837e ad3f e855 143e
00000250: 6e60 583d 1779 0840 2f4b f0bc b414 1bc0
00000260: b6b7 c23f fbd9 3bbf 0f8b bc3f 3d3d 4cbf
00000270: 9570 093f 6b13 863d fa25 c9bf 7467 7fbf
00000280: e979 52be d431 76be 2816 f63f 2f4d a8bf
00000290: d871 033d 2f7c 0fc0 4a40 1b3f b696 783f
000002a0: aa6b 89bf 209c 863f bc3b 453f 3bd3 143e
000002b0: ab17 3e3f b23a 1140 1101 0c40 2c62 a03f
000002c0: 6c74 9ebd 3037 6e3f c0e6 993f cf1b 8abe
000002d0: f995 933f 29bb 21bf 2685 6ebd 9e90 cf3f
000002e0: 9fe3 bd3f 82df b63e 1d01 a9bf 8e19 cd3e
000002f0: b976 aa3e a2d8 353f cc56 4cbf d119 d23f
00000300: d38e 5c3f b8b9 72bd c3d6 e73f 3d48 f23e
00000310: 81c0 35bf 3676 f0be 1f91 003f 08d7 06bf
00000320: e5a0 8dbe ce3b a4be 11d1 bcbf 7e4f 613f
00000330: f52e d3bf 9633 cd3f eff5 d53e ebbf 20bf
00000340: 7672 b5bf 496b 08bf 751b af3f 7055 c53f
00000350: 9519 753e 1563 953f dfdd fcbe e76e 433f
00000360: 9dee e2bf 73e0 7c3f 3ab1 8cbf 5976 7e3f
00000370: f5ae 3d40 e7ac 42bd d94d 543f 7454 fcbf
00000380: c8ef 49bf c000 d738 4d37 e0bf 83f3 0d3f
00000390: ef1a fcbf 5628 27bf d017 1f3f 4572 1e3f
000003a0: f40c 803e 205f 963e 518a 28bc 1ed9 793f
000003b0: bcd8 4d3f 6d11 ecbf 9e56 153f 49bd d03c
000003c0: 0aff ae3f 8627 24c0 d1ba 86be 53a1 c73e
000003d0: 7efe cdbe af13 0cbd 66bb 9dbe 3211 81bf
000003e0: d78f a2bf ba3c 103f f44e fcbf 401d 06c0
000003f0: ff20 88bf 38e9 003f 46fb 913f b15a d2bf
-1.4764671 -1.0762558 -0.11225713 1.950052 0.6360987 -1.6141735 0.10860612 -2.079369
-0.4233 -0.8147102 -0.7816679 -0.35346922 0.83375174 0.3575304 0.13092773 -0.9672908
-1.0666062 -1.8416239 0.008133936 -1.2007769 -0.6777959 0.9649996 0.7442876 0.22964253
0.7529102 -0.14207083 0.32947418 0.46121052 0.4424706 -0.4151238 0.2653246 -0.4173823
-0.00815826 0.50203526 -1.1019739 1.9622512 1.5224632 -0.48503506 0.6271881 0.33601886
1.1420809 3.3864713 0.14346206 -0.046524066 -0.47635803 -0.31624034 1.2657782 -0.40955737
0.90687525 0.34365693 0.5484406 1.5012895 -0.8694554 -0.96477133 -0.21926433 0.6875737
-0.8866739 0.97865856 -0.8392991 1.0880715 -1.1916629 -1.2674859 0.20546196 -1.2144742
-0.11463086 2.8234093 1.2698187 -0.095228806 -1.2349002 0.094386704 -0.55896026 1.0462267
0.32705107 0.13431817 -0.52090555 0.28967693 0.92251265 -2.1443393 -0.99501044 1.9781872
0.38116688 0.30296817 -0.3313428 1.1715409 -0.71540684 2.2142284 1.1140918 -0.22343084
1.5561916 -0.7017303 -1.9834024 0.47795504 -1.1695316 0.05591858 -1.8677444 0.86542904
1.5572194 -1.3429303 -3.219803 0.44067755 -0.46835718 -1.6526285 0.018318618 0.64138526
0.89916456 1.9981663 1.3605977 -1.8872343 -2.432475 0.09999422 -0.82225037 0.31908464
-0.85327184 0.85391206 0.07652322 0.40661296 -1.5767757 -0.577006 -1.1021848 -0.6569492
-0.37301746 0.69459134 -0.74583286 1.7140847 1.0799165 -0.8017895 1.6145769 2.7026901
-0.3742396 -0.61853397 0.63715875 1.7460161 -0.72297007 0.9035166 0.69305915 0.3326258
1.5970894 -2.1899743 0.9419675 -0.16003272 -1.2496836 -1.9364794 0.33343983 -0.33877975
0.39445725 -0.1851884 1.3554233 0.14485896 0.052826338 2.1323907 -0.029332725 -2.4231386
1.5212314 -0.73379487 1.4729937 -0.7978094 0.5368741 0.065466724 -1.5714715 -0.9976723
-0.20554318 -0.24042445 1.9225512 -1.3148555 0.03209099 -2.2419546 0.6064497 0.97104967
-1.0735981 1.0516396 0.7704427 0.14533703 0.74254864 2.2692075 2.187565 1.252996
-0.077370495 0.9305296 1.2023544 -0.2697434 1.1530143 -0.6317621 -0.05823245 1.6216009
1.483509 0.35717398 -1.3203465 0.4005856 0.33293703 0.7103368 -0.7981994 1.6414129
0.8615543 -0.059259146 1.8112415 0.47320738 -0.7099686 -0.46965188 0.5022144 -0.5267186
-0.27661815 -0.32076877 -1.4751302 0.8801192 -1.6498705 1.6031368 0.41789195 -0.62792844
-1.4175556 -0.53288704 1.3680254 1.5416698 0.2393554 1.1670862 -0.49388024 0.763411
-1.7729069 0.9877998 -1.0991585 0.99399334 2.9638035 -0.047528174 0.82931286 -1.9713273
-0.788815 0.000102521386 -1.7516876 0.55449694 -1.969572 -0.6529592 0.6214571 0.6189311
0.25009882 0.2936945 -0.010286883 0.9759692 0.80408835 -1.8442818 0.5833529 0.025480883
1.3671582 -2.5649123 -0.26314405 0.38990268 -0.40233225 -0.03419846 -0.30807036 -1.0083373
-1.2700146 0.5634266 -1.9711595 -2.0955353 -1.063507 0.50355864 1.1404808 -1.6433927

tbls_list.0.ff.first_proj.bias f4 [256]
00000000: cc44 e8bd 6bbc 24be 339b a3be 3881 69be
00000010: b953 87be b990 e9bd e93b 34be f522 68be
00000020: 8d4d 2ebe 5eb7 8bbd 8044 5cbe 2381 04bf
00000030: 3851 74be ec50 1bbe 937c 0abe 086d 9c3c
00000040: 6d9d 9f3c dbeb 6cbd d3d6 c4be 8758 61be
00000050: 5e75 46be 6344 18be 6c4c ddbd 8171 a3bd
00000060: 5d54 5ebe abde 32be 7e6b afbe 3713 45be
00000070: 34e8 1ebe 2bd7 25bc bcd4 f6bd 623a 803c
00000080: 809d 0c3c 70ff 81be 55d7 17be b664 b7be
00000090: 6208 47bd c813 44be 5496 ecbe 86ac 17be
000000a0: caca a1be 1a63 d8bd 3c42 87bc 807d a9bd
000000b0: ce5b 12bd 3756 7dbd efaa 34be 4ca0 23be
000000c0: ad38 33be 175a 2abe 09c0 a4bd 8eb2 17be
000000d0: 4c31 a8be be28 23be 942f 24be 7548 51be
000000e0: f63b 5bbe 59f4 a4be eff6 e03c d0da 74be
000000f0: ec17 70bd d000 9cbc ad4a 4bbe 3f24 5dbe
00000100: d832 3abe e833 553d 82b6 03be 11a0 b9bd
00000110: 0c31 92be e8b3 50be 4a91 a8bd 5ae0 b9bc
00000120: 4639 dabd c2f1 90be 21fb d7bc f84c 21be
00000130: a97d 88be da2c a6be cf18 91be 7605 94be
00000140: 300e 0cbe 1a48 17be 8ebd 9fbd 4760 44bd
00000150: 1dca 83be a7f6 51be 83ca d8bd 846a e0be
00000160: caba 66bc ea79 aebd c0f1 64be 9397 9cbd
00000170: 243c 0ebe 13cd adbe 4c4d bdbd 9d59 59be
00000180: 51d0 8dbe b355 05be d55d adbd bee8 f0bd
00000190: 725d c8be dd4b 66be f5b9 77be 342f 80be
000001a0: e247 43be 6abc 6fbd 6a19 45be 31a0 02be
000001b0: 0a59 29be 2a97 00be ee5b 5cbe eaa9 a1be
000001c0: acf6 a7be 79ca 0ebe 72d0 19be 1af8 7fbe
000001d0: 5db2 2ebe caee 8bbe 1e75 8fbe 7a39 65be
000001e0: 11b4 88be 9768 e83a d4b5 6fbe e814 b8be
000001f0: 2751 babd e002 7fbe abcf 69be b6d1 3fbe
00000200: 1ea6 cdbd b670 b2bc 138e 85be 787a dbbd
00000210: 3efd 10be c428 c1be b05f 5cbe 268d 73bc
00000220: ed8b a33d 76a4 2fbe c717 83bd 61df 0ebd
00000230: cbdb 9dbd 5100 92bd 90d8 5e3d b4ee 49be
00000240: 0b05 2cbe c0a1 18bd c88e 54bd aeea a83c
00000250: 1244 963c a639 26bd 8a7a 15bd a325 22be
00000260: d8e3 6ebe 9d95 c53b 2e03 75bd 6842 61be
00000270: fa6a f8be 7505 24be 10fd 74bd 2d50 93be
00000280: 852a 79be f8cb 7bbe c5c6 72be fa0a 7ebe
00000290: 9229 02bd d0db 80be 2e8a 19be 53e9 5bbe
000002a0: 395f a5be a9a3 7dbe d9f5 8b3d b677 133b
000002b0: 49c6 0fbe 8f73 ebbe fd05 85be baa0 96be
000002c0: d635 94be 3f7f 663d 9f69 23bd 5db4 a6be
000002d0: dc7e 23be 8bb2 2abe ca3c 88be cc8e bbbd
000002e0: 3093 503d f0e7 77bc 315c 58be ebab 33be
000002f0: 1297 0fbe 4829 13be b48f 37be 7286 e9bd
00000300: 1ff1 45bd 3752 d9bd f09f 02bd 8118 97be
00000310: 674d 8dbe 81cc 91be ce89 20be 94f6 83be
00000320: a266 95be 38a2 40bd 5d2d 6bbe c958 afbe
00000330: 7437 87be c1bc 95bd d370 5dbe 50fd 8cbe
00000340: 369b 5bbd 55c1 b1bd a917 35be 264c 18be
00000350: 1fe5 31bd 20c2 8bbd dc6d efbd b5a3 c7be
00000360: a3fd cdbe eb51 87be 6742 4dbe f1e9 613c
00000370: 4e80 b6bd f6c0 98be 4705 9d3b 839b 99bd
00000380: 6d3b 36bc 6f40 6cbe c3e4 1cbe c312 0abe
00000390: 35c2 4dbd 9ce3 04be dd8c 48bd 9180 a3be
000003a0: e659 c2bd a7c9 b9bd 147c 9bbe 20f1 60bd
000003b0: 63a0 5bbe 9837 0ebe 3a61 9dbd 1a07 18be
000003c0: c0ba 7bbe 47ef 69be c035 c0bd cf05 63bd
000003d0: 7619 eabd e9fe 023d 544e c4bd d711 73be
000003e0: 43e7 4ebd 0d18 a1be 5d5a 66bd 869e 07be
000003f0: bf2d 55be 6f60 babd ad14 adbd ecee 5e3d
-0.11341247 -0.16087501 -0.31954345 -0.228032 -0.26431063 -0.11404557 -0.17600979 -0.22669585
-0.17021771 -0.06822084 -0.21510506 -0.51759547 -0.23859107 -0.15167588 -0.13524084 0.019094959
0.019484246 -0.057842117 -0.38445148 -0.22006427 -0.1938071 -0.14869837 -0.10805592 -0.079806335
-0.2171187 -0.17467754 -0.34261698 -0.19245611 -0.15518266 -0.010122101 -0.120522946 0.01565284
0.008582473 -0.25390196 -0.14828236 -0.35819024 -0.04859198 -0.19148171 -0.4620844 -0.14811906
-0.31600028 -0.10565777 -0.016511075 -0.0827589 -0.035732083 -0.0618498 -0.17643331 -0.15979117
-0.17502089 -0.16635929 -0.0804444 -0.14814207 -0.3285011 -0.1593351 -0.16033775 -0.20437796
-0.21409592 -0.32217672 0.027461497 -0.23911595 -0.058616564 -0.019043356 -0.19852705 -0.21595858
-0.18183458 0.052051455 -0.1286259 -0.09063733 -0.28553045 -0.20381129 -0.08230837 -0.022689987
-0.10655455 -0.28309447 -0.026364865 -0.15752017 -0.2665837 -0.32456094 -0.2833924 -0.28910416
-0.13677287 -0.14773598 -0.077998266 -0.04794338 -0.25740138 -0.20504247 -0.10585501 -0.43831265
-0.01408262 -0.08519347 -0.22357845 -0.07646098 -0.1389013 -0.33945522 -0.09243259 -0.21225591
-0.27697995 -0.13020973 -0.08465163 -0.11763142 -0.39133793 -0.22489877 -0.2419203 -0.25036013
-0.1907039 -0.058529295 -0.19247976 -0.1275642 -0.16537872 -0.12557665 -0.21519443 -0.31574947
-0.32805383 -0.13944425 -0.15020922 -0.24996987 -0.17060228 -0.2733062 -0.2801904 -0.22385207
-0.2669988 0.0017731366 -0.23409206 -0.3595345 -0.0909751 -0.2490344 -0.22833125 -0.18732342
-0.1004145 -0.02178226 -0.26084957 -0.107167184 -0.14159104 -0.37726414 -0.21520877 -0.014865195
0.07985673 -0.1715258 -0.064010195 -0.034881 -0.07707938 -0.071289666 0.05440575 -0.19719964
-0.16798799 -0.03726363 -0.05189398 0.020619716 0.018343005 -0.04058232 -0.036493815 -0.1583467
-0.23329103 0.006029798 -0.059817486 -0.21997988 -0.48519117 -0.16017707 -0.05981165 -0.28772107
-0.24332626 -0.24589527 -0.23708637 -0.24808875 -0.031777926 -0.25167704 -0.14994118 -0.21475725
-0.32299212 -0.24769463 0.06834001 0.0022501773 -0.14040484 -0.45986602 -0.2598113 -0.294195
-0.28947324 0.056273695 -0.03989565 -0.3255948 -0.15966362 -0.16669671 -0.26608878 -0.09158096
0.05092162 -0.015130982 -0.21128918 -0.1754605 -0.14022473 -0.14371216 -0.17925912 -0.114025965
-0.048325654 -0.10611384 -0.03189081 -0.29510882 -0.27598116 -0.28476337 -0.15677568 -0.25774062
-0.29179865 -0.047029704 -0.22966523 -0.34247425 -0.26409495 -0.073113926 -0.2162507 -0.27537012
-0.053614818 -0.08679453 -0.17684807 -0.14872798 -0.043431398 -0.06824136 -0.11690876 -0.38992086
-0.40232572 -0.26429686 -0.20044862 0.013788686 -0.08911191 -0.29834718 0.004791889 -0.07500365
-0.011122567 -0.23071454 -0.1532164 -0.1348372 -0.05023404 -0.12977451 -0.048962463 -0.31934026
-0.09489803 -0.09071665 -0.30368102 -0.054917455 -0.21447901 -0.13888395 -0.0768456 -0.14846459
-0.24582958 -0.22845183 -0.09385252 -0.05542546 -0.114306375 0.031981383 -0.095852524 -0.23737274
-0.050513517 -0.31463662 -0.05623852 -0.13244066 -0.20818232 -0.091004245 -0.08451209 0.054427072

tbls_list.0.ff.first_proj.weight f4 [256, 64]
00000000: 1227 eb3d c08e 8f3b 0ad1 873e f86b 8e3e
00000010: a7a2 623c 3177 debd 7bba 91be f962 243e
00000020: e164 18bc d1ed cb3d 9ef3 82bd 00fc eabb
00000030: 9220 48bd aaeb 8e3e aa5e a33d dc57 58bc
00000040: 9b0d 89bd 649a 30be 5fd9 053e 5232 79be
00000050: c0c6 203d ae83 253d e4e8 6cbe 8de5 853d
00000060: 323f 42be dfbc 5ebe cd06 dd3d 87e3 d5bd
00000070: 100a 523c 5234 18be 5aa0 f6be 0c59 f73d
00000080: a638 a1bd cad9 263d ee98 6b3d c360 c8bd
00000090: 6a5d 243e 66a6 8e3c 304e acb9 6055 b2bd
000000a0: bd3f 54be 6eef a53d ff39 6dbc cea4 debd
000000b0: c99b 063e 53af 2a3d ad32 7fbe 2705 093e
000000c0: aad3 8d3d 49d5 0d3e 47ce 1b3e 8f79 693e
000000d0: dfbe 903e d769 803c d7f7 53bd 939a 0cbd
000000e0: b000 68bc 676f 443e a02c 8dbd ffbc 51be
000000f0: 19dd 643e c01a afbd b46f 353e ed5c 9d3d
00000100: 3d37 073c f1e5 8fbc 9781 12be f378 3d3e
00000110: 6020 d03d 4de6 41bd efdf c83d c516 5b3e
00000120: 3d16 e6bd 931a 7fbd 5d58 13be 26ff fd3d
00000130: f057 6d3d e3f7 2b3d ac35 0b3e ccc9 d43d
00000140: 3a63 15be 1f72 77be 2d4b 2dbd 4351 e7bd
00000150: 0cd6 213e db8c ce3d 0751 8e3d 4f05 a2bd
00000160: 356b 213d 5c4a 0e3e 175c d6bc f80d 8c3d
00000170: fb48 94be b8a5 43bd fd34 d3bd b5f4 80bd
00000180: 70af d13d e0c1 87bd efc0 f63d 4a1c 513e
00000190: a01f f3bc 4c8f 893c c329 f13c 1fdf 4a3e
000001a0: 032e 6e3c e2e8 a1bc 8ca1 0c3d d3b8 f3bd
000001b0: 49cf e7bd 161b 78bd f686 f2bd ad20 183e
000001c0: 0306 f1bb b554 a0be a864 a6bd e50c 8e3c
000001d0: 6ded 1a3e c328 f8bd 0fe0 47be 3724 853d
000001e0: f542 c13b 0d20 cfbd c189 ad3c 90d3 6e3d
000001f0: 658d 823d 2d69 32be 3a2a 983d 6782 fb3d
00000200: 8c70 0d3e 313a d63c 1073 8c3e f13f b53d
00000210: 6875 85be e4d4 263c 3af9 33be 4b12 023e
00000220: 38e4 543e 3823 52be 6391 5ebe c3ee e63d
00000230: 291a 593e d4b1 49bc 73f5 09bd 2ef2 2f3f
00000240: ee83 b0be 3f7d 27be 5c5b 2c3d 2ccd 433d
00000250: c543 003e 12ed b33e 36ac bcbc 85ff 7fbc
00000260: 7f2d 1a3e 17cf c8be d92c e43d 0851 093e
00000270: c29d 263c 6a27 9ebe 8574 f9be dbde 533e
00000280: 4a7b e73e 63de 44be 25e8 b4be b0e5 cabb
00000290: 3a7c e6b9 19be b6be 8b0e e7bc 321e 213e
000002a0: 2982 033e 317f 073e 9c24 623e 2aa6 0bbe
000002b0: 687b 2ebd 36d8 e3bc 5209 15be fe19 293d
000002c0: 9e02 25be 9aa0 6e3c d313 553e dc84 183e
000002d0: d206 f1bd 52e2 4fbe 8b04 89be da04 36bd
000002e0: b996 ee3c a7c1 c63e b13c 383c 597a 623c
000002f0: a1bb 383e 8cd8 7abe 0060 cfb9 aa2d b23d
00000300: 2f51 5abe d47e fabd d4f3 c43d f6d5 d23d
00000310: fffa b73c 1738 8bbe 8d95 14be 48e7 1fbe
00000320: 7264 a23d c8b0 fc3d 7276 01be 11fd 93bd
00000330: febc 083e f70b 5ebc 815e 0fbe bb6a 6e3e
00000340: c569 dabd b7cb 09be 6c08 543e 6906 363d
00000350: e20c a1bc 81fa a63d 1498 48bd c384 283d
00000360: af61 a8bd f6cd 783d b3b3 5a3d d5e9 13be
00000370: 5dcf 7bbe 2b9c 86be 603b 46be f554 0f3b
00000380: b031 64bc 2644 a9bd 4570 703e 1b8b 69be
00000390: 51e3 8fbc caac 11be effc 1bbd c0f9 cdbd
000003a0: 5f62 38be e3c5 f8bd 99b0 743e 17b9 4dbc
000003b0: 197c 55bd 57d2 603d f648 05be 04d0 c83e
000003c0: d834 b5bd c262 24bc 1552 bbbd d760 c9bd
000003d0: a421 643e a13d 96bd fe6c 2b3e e86e c1bd
000003e0: 804c 943d 7565 293e 2704 a83b b80f 5a3e
000003f0: e324 573d a3b6 adbe b6e2 1f3e f9a9 abbd
0.114820614 0.004381031 0.26526672 0.2781675 0.013832725 -0.10862578 -0.28462586 0.1605338
-0.009301395 0.09957469 -0.063941225 -0.007171154 -0.048859186 0.27914172 0.0797704 -0.013204541
-0.06692048 -0.17246395 0.13071202 -0.24335602 0.039252043 0.040408783 -0.23135716 0.06537924
-0.1896942 -0.21751736 0.10792313 -0.10443788 0.012819782 -0.14863709 -0.48169214 0.12077531
-0.07872133 0.040735044 0.057518892 -0.09784081 0.1605126 0.01741333 -0.0003286465 -0.0870769
-0.20727439 0.08102308 -0.014479159 -0.10871278 0.13145365 0.04167111 -0.24921675 0.13380872
0.06925137 0.13850893 0.15215407 0.22800277 0.28270623 0.015675468 -0.05175003 -0.0343271
-0.01416032 0.19183122 -0.06893277 -0.20482253 0.22349967 -0.08550024 0.17718393 0.0768374
0.008252916 -0.0175657 -0.14307247 0.1850317 0.10162425 -0.047338773 0.09808337 0.21395405
-0.1123471 -0.062281203 -0.14389177 0.12402181 0.05794519 0.04198445 0.13594693 0.10390052
-0.14588633 -0.24164627 -0.04230802 -0.11294796 0.15804309 0.1008546 0.069490485 -0.07911169
0.03940888 0.13895553 -0.026166959 0.06838602 -0.2896193 -0.047765464 -0.10312841 -0.06296674
0.1023854 -0.066287756 0.12048518 0.20420948 -0.029678166 0.016791962 0.029438859 0.19811676
0.014537337 -0.019764367 0.03433375 -0.11900487 -0.113188334 -0.060572706 -0.11842148 0.14856215
-0.007355453 -0.31314626 -0.081246674 0.017340133 0.15129633 -0.1211715 -0.19519065 0.06501048
0.0058978745 -0.10113535 0.02118385 0.05830723 0.06374625 -0.17422934 0.07429929 0.12280732
0.13812464 0.026150795 0.27431536 0.088500865 -0.26066136 0.010182593 -0.17575541 0.1270229
0.20790184 -0.20521247 -0.21735148 0.11276009 0.21201386 -0.012310464 -0.033681344 0.6872891
-0.34475654 -0.16356371 0.042079315 0.04780309 0.12525852 0.35141808 -0.023031335 -0.015624885
0.15056418 -0.39220497 0.111413665 0.13409817 0.010169448 -0.30889446 -0.4872171 0.20690481
0.4521125 -0.19225459 -0.35333362 -0.0061919317 -0.00043961575 -0.35691908 -0.028205177 0.15734175
0.12842621 0.13232113 0.22084278 -0.13637605 -0.042598158 -0.027813058 -0.14554337 0.041284554
-0.1611428 0.014564658 0.20808344 0.14894432 -0.11768879 -0.20301178 -0.2676128 -0.04443822
0.029124605 0.3881962 0.011244939 0.013823115 0.18040325 -0.24496669 -0.00039553642 0.08700116
-0.21320032 -0.12231222 0.09616819 0.10294716 0.022458551 -0.2719123 -0.14510174 -0.1561557
0.07929315 0.12338406 -0.1264284 -0.07226003 0.13353345 -0.013552657 -0.14000894 0.23282902
-0.10664705 -0.13456617 0.20706338 0.044439707 -0.019659463 0.081532486 -0.048973158 0.041142236
-0.08221757 0.060743295 0.05339403 -0.14444669 -0.24590822 -0.26291022 -0.19358587 0.0021870707
-0.013927862 -0.082649514 0.23480327 -0.22806971 -0.017564448 -0.1422607 -0.038083013 -0.10057402
-0.18006276 -0.12147119 0.23895492 -0.012556336 -0.052120302 0.054888096 -0.13016114 0.39221203
-0.0884797 -0.010033311 -0.09146515 -0.09832924 0.22278458 -0.073359735 0.16740796 -0.09444982
0.07241154 0.16542609 0.005127448 0.21295059 0.052525412 -0.33928403 0.15613827 -0.08382029

tbls_list.0.ff.layernorm.bias f4 [64]
00000000: 8f8f 25bd 7688 c6bd 2da3 b53d 4c19 343d
00000010: d511 aebb 7c6d 813d 20fb 46bc 697a e93d
00000020: 4629 663d 46ef 48bd ec9e 9dbd febe 8ebb
00000030: b513 da3d 5a20 e73d e5bf ac3d 8683 093e
00000040: f2db 0a3d 65d1 09be 0c6b 81bd 95cd 83bd
00000050: 0d49 38bd c500 98bc e960 0f3c 6b6f 723c
00000060: 9fe0 6d3b f336 2d3d 7847 293d ed88 1c3c
00000070: 6ad3 53bd d5e1 51be cd0f a6bc 35ff 80bd
00000080: 76e2 063e 45ea c8bc c16c 8c3d 449c 0a3c
00000090: 2a76 573d 0da1 023d ab00 3b3c c3b3 cebc
000000a0: fded febc e365 00bd f2d8 19bd 5757 823d
000000b0: def0 c8b9 d3ce 763d ac0f 4cbe ee96 2d3d
000000c0: c50b 67bd 6b51 8e3c cbcc b8bd f062 273c
000000d0: 7e98 38bd d1d0 bebc 93a5 c13c c8d0 533d
000000e0: 1ff4 993d af43 3b3d c472 e6bc 106a a93d
000000f0: 2dbc 27bc a076 89bd f1a8 71bc c9a1 83bd
-0.04042011 -0.096939966 0.08869014 0.043969437 -0.0053121843 0.063197106 -0.012144834 0.11400301
0.056191705 -0.049056314 -0.076963276 -0.004356264 0.1064829 0.112854674 0.084350385 0.13429078
0.033901162 -0.13458784 -0.06319246 -0.06435696 -0.04499154 -0.018555054 0.0087511325 0.014797072
0.0036297215 0.04228873 0.041327924 0.00955413 -0.051715292 -0.20496304 -0.020271206 -0.06298677
0.13172325 -0.02452577 0.06856681 0.008460108 0.052602924 0.03189187 0.0114137335 -0.025232201
-0.031119341 -0.031347167 -0.03756041 0.06364315 -0.00038326433 0.060255837 -0.19927853 0.042380266
-0.05640771 0.017372807 -0.09023436 0.01021646 -0.045067303 -0.02329293 0.023638522 0.05171278
0.075172655 0.045718845 -0.028130896 0.08272183 -0.010237736 -0.06712079 -0.014749751 -0.064273424

tbls_list.0.ff.layernorm.weight f4 [64]
00000000: 8735 743f 3150 813f 239a 4c3f 7796 4d3f
00000010: 0b91 543f deff 613f fb72 753f 73f1 573f
00000020: 891a 753f 519a 643f b86f 6c3f d812 913f
00000030: 3340 6f3f 291e 573f 13e8 5f3f 4948 733f
00000040: f321 803f 1a88 893f 82eb 843f bb9c 623f
00000050: 0a00 813f be91 803f a00d 783f 38c3 6d3f
00000060: 4b75 843f dcf9 6b3f 65ba 593f 3a75 793f
00000070: 0af1 833f 1422 223f fef6 7b3f 95be 813f
00000080: b04d 673f 56cb 6d3f db7c 863f 61dc 4d3f
00000090: ae30 793f 0a0b 843f 36b2 793f f640 573f
000000a0: c41e 513f 4c4e 843f 6bcf 5a3f 99ac 643f
000000b0: cc2b 793f ebfb 7d3f 25df 583f 73b5 843f
000000c0: 63c5 7e3f 11f0 713f fb9a 7a3f b1d8 803f
000000d0: a017 863f c699 633f eb06 863f fcc3 883f
000000e0: 7285 753f beff 5a3f ee84 723f 4048 173f
000000f0: 8c2f 613f dd64 603f f9f9 843f 0c3c 3a3f
0.95394176 1.0102597 0.79922694 0.80307716 0.8303382 0.8828105 0.9587857 0.843528
0.95743614 0.8929797 0.9235797 1.1333876 0.93457335 0.84030396 0.8746349 0.95032173
1.001036 1.074466 1.0384371 0.885204 1.0078137 1.0044477 0.9689579 0.92876005
1.0348295 0.9217813 0.8505004 0.974445 1.0307934 0.6333325 0.98423755 1.0136286
0.90352917 0.9288839 1.0506853 0.80414397 0.97339904 1.0315869 0.97537553 0.840835
0.8168757 1.0336394 0.85472745 0.89325863 0.97332454 0.9921252 0.8471549 1.0367874
0.9951994 0.9450694 0.9789273 1.0066129 1.047596 0.88906515 1.0470861 1.068481
0.95906746 0.8554648 0.94734085 0.5909462 0.87963176 0.87653905 1.0388786 0.72747874

tbls_list.0.ff.second_proj.bias f4 [64]
00000000: e99d b5bc e4ad e9bd 091d ae3c 8bac 133c
00000010: 6e7d 8cbd 3cf3 cd3b 46da d9bd c02c a63d
00000020: 9c85 ab3c cc78 7abd 2f2a d5bd 6c61 a1bd
00000030: 74c7 ba3d 0a75 1b3e cd4a f73d d8e0 303e
00000040: a1a7 f7bb 1a05 38be 70f5 84bd 159c 8cbd
00000050: a7b3 a03d 172f e53b 7705 91bd cd72 093c
00000060: 1c42 babd 8644 8fbd cbd9 183d b5c3 71bd
00000070: 7575 393e e3a9 46be d9eb 0fbd 677c 3dbd
00000080: 4089 203e 6ac9 a1bd f61c 243d c8a4 85bd
00000090: dc5a be3d 0393 a7bc 2c26 923c af36 bdbd
000000a0: 8cc9 e5bc a46e 2a3d f1aa 15bc a9b1 cebc
000000b0: 7fb9 d13d 0595 d33d bad3 35be d8ed eb3d
000000c0: 095b 18bd 90ea b93b c337 793c 7643 bd3d
000000d0: 1899 2b3d 134f 1cbe d9ea 3d3d 9acb fc3d
000000e0: 2ddd 313d 6022 eb3d 6d62 97bd d3b6 033e
000000f0: 846a d4bd de9f 1ebe bd00 51bd 63fa a43c
-0.022170024 -0.1141012 0.02125408 0.009013305 -0.06859861 0.0062850993 -0.106373355 0.08114004
0.020937733 -0.061150357 -0.104084365 -0.0787991 0.09120074 0.15181366 0.12074814 0.17273271
-0.0075578247 -0.17970696 -0.06492126 -0.06865708 0.07846766 0.006994139 -0.070811205 0.008389187
-0.090946406 -0.06995492 0.03731708 -0.05902453 0.18111213 -0.19400744 -0.03513703 -0.046261217
0.15677357 -0.07899745 0.04006668 -0.0652557 0.09294674 -0.020455843 0.017840467 -0.09238946
-0.028050207 0.04160942 -0.009134994 -0.0252312 0.10240459 0.103311576 -0.17756549 0.115199745
-0.037196193 0.005673714 0.015211049 0.09241383 0.04189405 -0.1526454 0.046366546 0.123435214
0.04342382 0.11481166 -0.0739182 0.1286271 -0.10371879 -0.15490672 -0.051026095 0.020138925

tbls_list.0.ff.second_proj.weight f4 [64, 256]
00000000: f612 2f3d a50a 7f3d 4d5c 6bbe f9a3 4a3e
00000010: b97a 84bc 0333 453d 98df 27bd 0ec1 e63b
00000020: c6a8 97bb 95d1 ebbd a946 873d ded4 e43d
00000030: b68e e13d 15d3 46bd c040 cc3d 9818 833c
00000040: cca6 89bc 14d5 d3b8 41cd 8d3e ed4b 9fbc
00000050: 8d9c dc3d b978 1e3e be96 b03d 030f 113e
00000060: 80ba 253d f61c fd3b 014d 143d 47af 0d3d
00000070: 3442 073c c625 2a3e e52e 033c be62 41bb
00000080: deb1 ab3b c668 273d 57fb b33c ba7d 1d3e
00000090: d37d 8b3d eb18 d33d 7e8c 10bc 2568 0abe
000000a0: 80fa 15bd 3496 64bd 9d1d 973d 496f ac3c
000000b0: 24f0 753d a1a1 ed3d f734 dfbd 87d8 8fbd
000000c0: 1120 2b3d 1ca2 9c3a 131a ca3d 353e 193b
000000d0: f2f2 9dbd a418 223c 26c9 3cbc e78a 243d
000000e0: c37f 9abd ef15 cabd 6285 90bd 66ca 8a3d
000000f0: 5bcc e53d fefb 35bd 5d11 41bd 890d 4dbc
00000100: b232 563e 125e 1b3d 904f baba deec 2abd
00000110: eaa6 9b3d de61 4ebc 7a26 753d 0f20 2e3c
00000120: fdf0 97bd deec f83d 1424 743e 3ea1 003d
00000130: b2bd 36be 0352 c5bd 5c62 b3bd bfcc e43d
00000140: 0a23 fe3d 3b8e 453e 072d 333b 8d46 d33c
00000150: cb88 cbbd 5443 7a3e 8023 f33d 9783 25bd
00000160: 57be 923d 3ac3 1cbe 62c0 20be 3ab8 11be
00000170: 003a eb3d ca1f c8bd 046b 83bd 62f2 d1bd
00000180: 35aa 833b c18a 383e 48cb d0bc 38ea 4d3e
00000190: 96d8 c13d 1689 72bd b0f5 95bd 1442 0a3d
000001a0: b599 be3d f0a4 803d 0919 7fbd 440b a6ba
000001b0: 61d2 d13c be5a 093e 2d87 853d 74a3 a13d
000001c0: 9530 9ebc 8c63 fbbd 8b83 da3c 93d7 cc3d
000001d0: b9f2 f93c be65 aa3d 5ccc f2bc ecb2 5bbe
000001e0: ba58 4e3d c5f1 bfbb fcbf 143d 9f79 8fbd
000001f0: 3dc3 1e3d e0d1 283e 6323 f83d f27f 3dbe
00000200: 66cd 963d ea3a bf3d 8ad1 7a3e 1f4f f4bd
00000210: ca62 17bd 3425 343e b33d 7bbd b69c 5a3c
00000220: ddca 173d 2ec0 f33d 609d 37bd 9b70 023e
00000230: 7ef8 1a3d a565 8ebd 206a 493d e84f c43d
00000240: 5f52 743d 428f 82bc e049 edbc 6c8f 7ebd
00000250: f355 09be 198a 6bbb 3615 903c 4278 073d
00000260: e3af b5bc cd32 6c3d 5f82 333e 85e3 8c3c
00000270: 46ce d4bd 0dec 673c 8178 be3d fa16 503d
00000280: fb0b 043e 96d9 113d 179c b73c 3222 103e
00000290: 46eb b7bb a7d2 a83d b25c 75bd d018 783c
000002a0: e275 d1bc 139d b4bc 6a75 39be 09b0 7ebb
000002b0: b09d 58bc e3bb 1dbd d372 bfbd 82f7 0f3e
000002c0: 8765 2dbd 80a3 673c 83e5 a83c 5fdf b2bc
000002d0: 6702 c9bc cc0f 613d 76c9 713e 4c53 523d
000002e0: 01c7 18be 6c9e c23d f72b d4bc dab3 40bd
000002f0: aa24 d2bd 6d9f 5c3d c258 5b3c e267 993d
00000300: eb3d 053d 5d3d 78bd e81b 14bc 5f4a b7bd
00000310: 4d3c a03d 7e3c e33d 9224 aa3c ca4d 39bc
00000320: 52cb c0bd 13a3 0cbd 2abf d5bc 852c 723d
00000330: c00b f83d c5a1 cdbc 4db4 9e3d d897 223e
00000340: 5890 a53c 07c3 863d e433 823d 54fd 75bc
00000350: e17f e4bd 8705 ed3c 21ad 4fbc d3e1 e63c
00000360: b037 c23c 7b88 283d 31b2 823d 1a9e c43c
00000370: 5585 80bc 7775 9cbb 8016 f83b a20a 81bd
00000380: b929 113d dd03 00bc 23c9 1e3d f244 29bd
00000390: f680 81bd 8b09 25bd 659a 093d aac6 ecbd
000003a0: 2ab6 673c d60c 953c 0152 64be 0ccd a93d
000003b0: c22f f53d 6940 3dbd 8020 8c3d c9af 0e3d
000003c0: dcec 03be ad27 9cbd 8ee2 f03c 57fd 193e
000003d0: 0415 cb3a 9460 833c 569d 53bd 7252 673c
000003e0: a128 193d 1939 5cbd 8761 2a3d aa79 7d3d
000003f0: e58e dabc 2558 bf3c 5adb 013c baef 353e
0.042742692 0.06226601 -0.22984429 0.19789113 -0.0161718 0.04814435 -0.04098472 0.007042057
-0.0046282737 -0.11514584 0.06605274 0.11173414 0.11013548 -0.048541147 0.099732876 0.016002938
-0.016803168 -0.00010100953 0.2769566 -0.019445384 0.10772047 0.1547574 0.08622502 0.14165883
0.040461063 0.0077243997 0.03620625 0.034590986 0.00825553 0.16615972 0.008006786 -0.0029508318
0.0052397093 0.040871404 0.021970434 0.15379992 0.068111084 0.10307487 -0.008822558 -0.1351629
-0.03661585 -0.055807307 0.07378695 0.021049159 0.06004347 0.11603094 -0.10898774 -0.07023721
0.041778628 0.0011950168 0.098682545 0.0023383026 -0.07712354 0.00989357 -0.011522567 0.04017153
-0.075439 -0.09867465 -0.07056691 0.06776886 0.11220618 -0.04442977 -0.0471357 -0.012515434
0.20917776 0.03793151 -0.0014214385 -0.0417298 0.07600196 -0.012596576 0.059851147 0.010627761
-0.07419012 0.12154554 0.23841888 0.031403773 -0.178458 -0.09634783 -0.08758995 0.11171865
0.12409027 0.19292538 0.002734007 0.025790477 -0.099382006 0.24439746 0.118720055 -0.040408697
0.07165211 -0.15308848 -0.15698388 -0.14230433 0.11485672 -0.09771688 -0.06416896 -0.10251309
0.004018093 0.1802168 -0.025487557 0.20108879 0.094651386 -0.059212767 -0.07322252 0.033754423
0.09306661 0.06281459 -0.062279735 -0.0012668152 0.025613012 0.13413522 0.06519923 0.07892504
-0.019310275 -0.122748464 0.026674053 0.10002055 0.030511247 0.08320187 -0.029638462 -0.21454972
0.050377585 -0.0058576786 0.036315903 -0.07005619 0.038760412 0.16486311 0.121161245 -0.18505839
0.073633954 0.09337409 0.24493995 -0.11929154 -0.036959447 0.17592317 -0.061338138 0.013343027
0.0370587 0.1190189 -0.04482782 0.12738268 0.037834637 -0.06952981 0.049173474 0.095855534
0.059648868 -0.015937451 -0.02896589 -0.062148497 -0.13411693 -0.0035940467 0.01758824 0.03307367
-0.022178596 0.057665635 0.17530201 0.017198334 -0.10390906 0.0141554 0.09300328 0.050803162
0.12895195 0.035607897 0.022413297 0.14075544 -0.0056127636 0.08243304 -0.059902854 0.0151426345
-0.025568906 -0.022047555 -0.18111196 -0.003886225 -0.013221189 -0.03850926 -0.09348073 0.1405926
-0.042333152 0.0141381025 0.020617252 -0.021835027 -0.024537278 0.054946706 0.23612007 0.05134897
-0.14919664 0.09502873 -0.02589987 -0.04704652 -0.10260899 0.053862978 0.013387861 0.07490517
0.032529753 -0.060605396 -0.0090398565 -0.08949732 0.078240015 0.11095522 0.020769391 -0.01131005
-0.0941378 -0.034335207 -0.02609213 0.05912449 0.12111616 -0.025101552 0.077492334 0.15878236
0.02021043 0.06580167 0.063575536 -0.015014011 -0.111572035 0.0289333 -0.0126755545 0.028183853
0.023708194 0.041145783 0.063816436 0.02400117 -0.015688578 -0.004774745 0.0075710416 -0.06300856
0.03544018 -0.007813421 0.038766038 -0.041325517 -0.063234255 -0.040292304 0.033594508 -0.1156133
0.014142552 0.018194597 -0.22296907 0.08291063 0.11972 -0.046204004 0.068421364 0.03483561
-0.12883323 -0.07624755 0.029404905 0.15038048 0.0015493934 0.016037263 -0.05166372 0.014118778
0.037392262 -0.05376539 0.041596916 0.061883606 -0.026679466 0.02335746 0.007925833 0.1776723

tbls_list.0.mha.kproject.weight f4 [64, 64]
00000000: 41cc 4fbe 2181 a4bd f4e8 4bbe 5cb8 443e
00000010: 03d6 19bc 5633 5c3e bf12 b33d dd00 973e
00000020: ca90 fabe 7b5a 8ebd 4140 8fbc 5f06 a73d
00000030: afed b73e 2069 a93e 6213 b5bb ee05 63be
00000040: e6fe a63e 3401 e03d 7f72 60be d9af 983d
00000050: a5c1 443e b431 0cbd 45b9 2f3e d4f1 fe3e
00000060: 9d24 363d d32e bb3d 377d 1fbd ab0b a2bb
00000070: d49a 3fbe 57df 103e 9495 5a3e 5ef7 a63c
00000080: e849 c23d bb90 843e 29bc 8bbd a273 983d
00000090: 6cce e03c 743b 87be cc0b a13d fcd4 9abd
000000a0: a819 aebd f143 86bd c385 b6bd 341d de3d
000000b0: 7917 c9bd 29a2 8a3e a449 ddbe 3d14 613e
000000c0: 1e8e 3cbe 902d 97be ce5a 47bd 96fe bd3e
000000d0: c833 84be b6a6 afbd 7355 17be ff13 10be
000000e0: 9697 d43d 66cc 8e3d 781d 433e c258 dc3c
000000f0: c943 9fbe e4da e43d 5133 11be 70c8 46be
00000100: 140f 4d3e c767 313e 6cb8 96be 0bc6 c13d
00000110: ea68 8fbe fa22 9a3d 4256 a2be 8a1e bf3c
00000120: 2a0d 103e 99d7 c43b 3d8a b43e 0e0a e73d
00000130: 0b5f 07bf f7fa bebd 962c 4e3d 1022 7e3d
00000140: ac6b abbe 7ada 00be ba47 1a3e 0e81 0c3e
00000150: 9619 ca3c 150c 203d 0afe 5ebe 52b5 153e
00000160: c5ba 653d 691a 30be 85ef c53d 053e 593e
00000170: ae63 2d3b ba11 edbe 43ba 47be 4042 30be
00000180: 4eca 03be b842 4dbe 7fe5 c53d 7b8b b7be
00000190: 219d a1bd f058 21bd 1847 913c 41e7 8f3e
000001a0: 3853 123e c56b 1ebe f237 babd 9bb7 063d
000001b0: d19d 553c a85f 1dbe 6924 d0bd 2131 643e
000001c0: 3150 513b 5b17 6dbe 5b49 f03c c4d3 8fbe
000001d0: 75a2 513e 2f66 363e cbc5 26be 289c 023e
000001e0: 917b c73c 0714 433d db4c 57bc d978 e4bc
000001f0: febc bc3e 6b3b 4fbc dc27 e0bc 595d 483e
00000200: 0cb5 76be 0376 2dbe dab1 e63c 1032 443e
00000210: 3113 083e 57c9 913e e3c3 a33c 2dba 30be
00000220: 3a43 86be a7a8 1f3d 5a6c d93d f007 963e
00000230: 7616 0a3e 14d7 b63d c2bc 0c3d 0918 683c
00000240: fa68 cf3d b621 47be 812f 35be a04a e4bd
00000250: 2516 be3e a628 d5bd 3e50 023e 6e6a 523e
00000260: 02cc 22be 99c4 c03d 33bd f0bd 3c8c 14be
00000270: 5713 553d 9155 bd3e 5930 d63e 9e68 40bd
00000280: 1dee 823e 0428 61bd d1c1 16bc 2503 e4bd
00000290: da70 a23d 265f 44bc e648 de3c 871a b3be
000002a0: e99d aabd f13d d6bd b8a2 a4bc f9b0 a7bc
000002b0: 7091 da3c 0378 523e 5c8b 8b3d 7b3a 2d3d
000002c0: cd34 1f3e 1299 aebd d377 01bc 6e44 883c
000002d0: a964 18be 14f3 133e 348b edbd 8b34 5dbd
000002e0: 56c8 a1bc 28a4 f53d ca35 e9bd edc6 1d3e
000002f0: fef3 7cbe 73d1 6dbe 693b 5dbe 788e 98bd
00000300: 3954 3bbe 8672 d0bd 45db 853d 4b47 5dbe
00000310: 624b 6d3e 9452 f53d cf55 e13e 6046 e3bc
00000320: bd6c 8ebc 2394 703d fa8b 643e 5981 ac3e
00000330: ae21 84be 5dd9 85be e116 17be 02fe 3ebe
00000340: 52c2 973e 3982 1bbe 9e9c 70be 6051 233e
00000350: d945 963e bcce 12be 7199 6e3e f0e7 9ebc
00000360: a170 a1be 74d5 943c 7db2 a2be caef 4fbe
00000370: ab16 033e ef54 203f 9d2e 903e 6949 14be
00000380: ad3d 513e 4b5a 243e 7a5d 513d 76c3 383e
00000390: 8c6d e33d 819a c53d b08c c1bd 7d33 fcbe
000003a0: 17bc 54be 6582 bfbd 9122 c4bd b20f 42be
000003b0: 557b 233e dcb0 d23e eefa 7b3d 4803 8cbc
000003c0: ec3e 8dbe 81dc 10be 8c4a 36bd 7dc4 05be
000003d0: 2688 8b3d 6a91 c13d ebb7 00be e5f5 f2be
000003e0: 082b 5a3d 32ac 863d 8a7f 27be 19c7 88bd
000003f0: 4f86 a9bd d332 9a3d b3fd bebe 3816 1ebd
-0.2029276 -0.08032442 -0.19913083 0.19210953 -0.009389403 0.21503958 0.0874381 0.29492846
-0.4893859 -0.069508515 -0.017486693 0.08155512 0.35923526 0.33088017 -0.0055259923 -0.22170231
0.32616347 0.109377295 -0.21918677 0.07455415 0.19214495 -0.034227088 0.17160518 0.49793875
0.04446851 0.091397904 -0.038937774 -0.0049452386 -0.18711406 0.14147697 0.21346122 0.020381626
0.09486753 0.2589167 -0.06822998 0.0744393 0.02744218 -0.26412547 0.07863578 -0.07560155
-0.08500987 -0.065559275 -0.08912232 0.10845414 -0.0981893 0.27076843 -0.43220246 0.21980377
-0.18413588 -0.2952695 -0.048670582 0.37108296 -0.25820756 -0.085767195 -0.1477869 -0.14070128
0.10380475 0.0697258 0.1905421 0.026897792 -0.31106403 0.111745626 -0.14179732 -0.19412398
0.20025283 0.17324744 -0.29437578 0.09461602 -0.2800973 0.075262025 -0.31706434 0.023329992
0.14067522 0.0060071466 0.35261717 0.11281215 -0.528794 -0.093252115 0.05033549 0.062044203
-0.33480585 -0.12583342 0.15066424 0.13721105 0.024670403 0.039074022 -0.21776596 0.1461995
0.05608632 -0.17197575 0.09664825 0.21215065 0.0026457119 -0.46302587 -0.19504647 -0.17212772
-0.12870142 -0.20044982 0.096629135 -0.35848603 -0.07891298 -0.039391458 0.017734095 0.2810612
0.14289558 -0.15470798 -0.09092702 0.032889944 0.013038115 -0.15368521 -0.10163195 0.22284366
0.0031938667 -0.2315344 0.029331854 -0.28091252 0.20472129 0.17812417 -0.1628639 0.12754881
0.024350913 0.04762652 -0.013140882 -0.027889656 0.3686294 -0.012648444 -0.027362756 0.1956686
-0.24092501 -0.16939549 0.028160978 0.19159722 0.13288571 0.28473923 0.019990867 -0.1725852
-0.26223165 0.0389792 0.106163695 0.2930293 0.1348513 0.08927742 0.0343597 0.014165887
0.101274446 -0.19446453 -0.17693903 -0.11147046 0.3712627 -0.10408144 0.12725922 0.20548412
-0.15898135 0.09412498 -0.11754837 -0.1450662 0.052020397 0.36979344 0.4183376 -0.04697477
0.2557229 -0.054969802 -0.009201483 -0.11133412 0.07931681 -0.011985576 0.02713437 -0.34981176
-0.083309 -0.10461033 -0.020097122 -0.02047013 0.026680678 0.20553593 0.0681369 0.0422921
0.15547486 -0.085252896 -0.0079021035 0.016634192 -0.14882149 0.14448196 -0.115988165 -0.054005187
-0.019748848 0.11994201 -0.113872126 0.15407915 -0.2470245 -0.2322443 -0.21604694 -0.07449049
-0.18293847 -0.101780936 0.06535963 -0.21609227 0.23173288 0.11978641 0.4401078 -0.027743518
-0.017385835 0.058735024 0.22319022 0.33692434 -0.25806946 -0.26142398 -0.14754821 -0.18651584
0.29640442 -0.15186395 -0.23497245 0.15949011 0.29350165 -0.14336675 0.23300721 -0.019397706
-0.31531242 0.018168189 -0.317768 -0.20306316 0.12801616 0.626296 0.28160563 -0.14481129
0.20433684 0.16050069 0.051114537 0.18043312 0.11104879 0.0964861 -0.09450662 -0.49258032
-0.20774876 -0.09351043 -0.095769055 -0.189513 0.15965016 0.41150558 0.061518602 -0.017091408
-0.27587068 -0.14146616 -0.044504687 -0.13063236 0.06813078 0.09451564 -0.12570159 -0.47453228
0.053263694 0.065758124 -0.16357246 -0.066786 -0.082775705 0.07529225 -0.37302932 -0.03859541

tbls_list.0.mha.layernorm.bias f4 [64]
00000000: 7ee5 273d 63df a03c 8d70 98bd 0e57 26be
00000010: 9b82 ebbc 0c43 a53c ddd6 8e3d df78 26be
00000020: 21ab 953d b748 dd3d a30b 253e a972 443b
00000030: be4d 2bbc 6853 25be 5e88 f5bd cd0f 03be
00000040: 3caf dd3d 9a87 6e3e 688a 903b a0e9 613d
00000050: 6783 aabd 3934 c4bd 8bf3 2c3e 1c67 efbd
00000060: 8d3b 983c 707d 033d fb60 7cbe 9146 213e
00000070: 1429 333c 4a07 ad3e d430 983d 66fe 87bd
00000080: 772b b2bc 7ca9 033d 0484 003d 62eb e13b
00000090: 2ac8 b2bd 35be 2cbd d004 f63c 2d9b 4e3d
000000a0: 3748 233e 5eda 2bbd e478 ee3b b666 03be
000000b0: 658c 21be 0177 16bd f3f4 c63d 621d 3dbe
000000c0: 588f 043d ccb3 ffbb 3c02 413d c24c 37bd
000000d0: 69a7 8bbd 893c bc3d cb50 c03d d9d7 0b3e
000000e0: 87d0 a6bd a46c f9bd dd52 ad3c 9ccb a6bd
000000f0: a024 1b3d 399a f63d bc2a b3bd 5329 0b3e
0.040990345 0.01963777 -0.07443342 -0.16244146 -0.028748801 0.020173572 0.06974576 -0.16257046
0.07308031 0.10804885 0.1611772 0.002997557 -0.010455547 -0.16145098 -0.119889006 -0.12798996
0.10824439 0.23293915 0.0044110306 0.055154443 -0.08325844 -0.09580273 0.1688978 -0.116895884
0.018583084 0.03210205 -0.2464637 0.15749575 0.010935087 0.33794624 0.07431188 -0.066403195
-0.021749241 0.032144055 0.0313759 0.006894515 -0.087295845 -0.042173583 0.030031592 0.050440956
0.15945517 -0.041956298 0.007277595 -0.1283215 -0.15776213 -0.036734585 0.09714689 -0.1846824
0.032363266 -0.007803416 0.04712127 -0.044750936 -0.0681904 0.09191234 0.0939041 0.13656558
-0.08145242 -0.12178925 0.021157676 -0.08144304 0.037876725 0.120411344 -0.08748385 0.13589983

tbls_list.0.mha.layernorm.weight f4 [64]
00000000: 497c 813f d9be 793f 9ab6 633f 3266 7d3f
00000010: fa78 533f 4a60 773f 6727 8e3f 42ea 513f
00000020: 2508 803f b98b 823f 8691 8f3f 8635 833f
00000030: e6c2 783f b5eb 8c3f 3830 533f 9fae 933f
00000040: 0733 8c3f 3ece 943f 3205 7e3f b18d 6c3f
00000050: 5e8d 863f b634 803f 7f4d 7e3f 8944 693f
00000060: eec9 733f 0c91 6f3f 30ef 973f 9cfc 803f
00000070: 4ce6 9c3f a377 9a3f 5d78 843f 0c46 773f
00000080: 8d32 853f 1b5d 4b3f 84cf 8d3f dd72 463f
00000090: b178 823f 1825 703f 6b88 613f 26f6 4d3f
000000a0: fec4 733f 0021 823f d368 733f 96a7 7e3f
000000b0: 81aa 8b3f 2811 8f3f 39d2 6b3f 9824 973f
000000c0: ec71 863f ea17 613f 54c8 8d3f 159a 783f
000000d0: 8b50 813f 756b 703f f926 4f3f 9ae6 7a3f
000000e0: 9436 833f 2526 6b3f 040c 813f a673 5a3f
000000f0: bfaf 703f 7628 833f 557d 743f 0092 5b3f
1.0116054 0.97556835 0.889505 0.9898406 0.8260647 0.966313 1.1105775 0.81998074
1.0002486 1.019889 1.1216285 1.0250709 0.9717239 1.1009432 0.8249545 1.1537665
1.0953072 1.162544 0.9922668 0.92403704 1.0511892 1.0016086 0.99337 0.911202
0.95229995 0.935807 1.1869869 1.007709 1.2257781 1.206776 1.0349232 0.9659126
1.0406052 0.7943894 1.1078954 0.7751902 1.0193082 0.938066 0.8809878 0.8045372
0.9522246 1.0166321 0.95081824 0.99474466 1.0911409 1.1177111 0.9211765 1.1808043
1.0503516 0.87927115 1.107676 0.9711011 1.0102705 0.93913966 0.8091884 0.9800812
1.0251031 0.9185508 1.0081792 0.85332716 0.9401817 1.0246723 0.9550374 0.85769653

tbls_list.0.mha.out_project.weight f4 [64, 64]
00000000: aaa4 103e 6bd6 eb3d 525c ff3c 2b27 48bc
00000010: 0aa6 c3bd b82a ddbc e498 663e 9ce5 5ebc
00000020: 5c8a eb3d f4a8 233c b593 f6bd 9ddc 18be
00000030: 8ef5 4e3d c352 ab3b acae 8bbd 544c 9c3c
00000040: 64a1 6bbe 35f8 11bc c6cb 59be 4a3d 663e
00000050: 681c b0bc 2400 493e 861c 8bbc 354f f03d
00000060: e099 1e3e ef61 8abd 85b1 50be 9c54 f6bd
00000070: ea34 8e3c 721a 0cbe 0d12 943e a1ad 35be
00000080: 3d6f efbc ef33 bb3d 1522 403e 97eb 19be
00000090: a842 4cbe fef1 ae3e 0a1e 2dbe eb15 ec3b
000000a0: 964a cb3e 1307 8bbc ea92 943e a4d8 0f3d
000000b0: e72f 543e 2e4d 95be 4d60 c93c 60a1 3e3e
000000c0: d03f 143e 6c42 9fbe ae5b 5b3d 7302 353e
000000d0: 60e9 e5bc c601 9dbe acd8 8dbd ab67 5ebd
000000e0: de66 663d 6e1e 58be 5524 9e3d 1edd 71bb
000000f0: 9d62 b13d 7b41 453e e6a9 443d d756 403e
00000100: 913c 153e c870 f3bd df38 76bd dd90 b13c
00000110: f4de ba3d 6edf 903e 3479 e6bc 56eb 253c
00000120: a6f1 983d 2268 6b3c fb21 0cbe 2a8a d3bd
00000130: 0cd7 61bb 885f 7abd 594b 27be b8f7 873d
00000140: 3b13 8cbe 1931 673e ad02 15bd 44be 183e
00000150: 1112 9cbc b9da 2d3e 1148 bfbe 6920 843e
00000160: 535a 4b3e 4f89 9c3c 8855 12bc 5ac3 19bd
00000170: c5c3 673e fbad 9ebd b8c4 213e f56c 7abd
00000180: 4189 b93d 25ed 323e 774b 0fbe 1539 80bc
00000190: 3000 0bbd 97fc ae3e 7a2c 4c3d 1827 0cbe
000001a0: 6bc2 2b3e 0610 c3be 070e e53e 3211 e93d
000001b0: 16b6 9ebe 3d68 7cbe 2793 1bbe 69ab ffbd
000001c0: c829 b4bd a2a9 dcbd c6f4 b4bd 1914 713d
000001d0: 0f69 b73c 271b c3bd fe87 003d 9fb8 453d
000001e0: 750a 28bd dffe 04be dba7 793d 7ae9 37be
000001f0: c1b1 11be f2ac d73d bcca 413e afba 81bd
00000200: ae2e 47bd a583 983c f234 b53d d7c1 92bd
00000210: ae6f f23d 2cdd b93d 7bca 2f3d 9bbe db3c
00000220: 203f 9e3d 20e3 09be af2b 29be beb6 463e
00000230: 92d3 e33c d8d6 7ebd 1f03 373e ada3 3a3e
00000240: f6a4 e1bd 1249 32be ea8c 9ebd 0947 b43c
00000250: 8729 35be cf58 ca3d 0dd9 02be 5ec1 d5bc
00000260: 4402 c3be 3e7a bf3d 5b79 1c3e dd3c 48be
00000270: ed65 143e eaf1 6b3e 3f51 8dbd fdd7 5cbd
00000280: ec6f 0c3e 8019 763e a7bf 893d 7845 fbbc
00000290: 6f0b 4fbe 7ab8 173d 78b1 473d b81d 9fbe
000002a0: fba9 67bd 8149 d03e c222 5cbe f890 203e
000002b0: 44c9 e73d cae3 113e 20c0 243c 4e91 573c
000002c0: 36ea 1cbd 75a5 9d3e 12ec 6fbc 55de abbd
000002d0: 7bdd f53d e94d 1d3e 0b9a 3fbd af03 003e
000002e0: 3a56 17be 622d 163d b4e5 6a3d e621 b3bd
000002f0: c213 00be 0c29 a43e 200d 93bd afc1 4b3d
00000300: 6dbf 0a3e d9cc f93d d2de d1bd 755d b03d
00000310: 546b 0c3c e722 13be d1e8 203e fa4b 76be
00000320: 3904 efbd 3d81 bebe 063c 723e 3bc9 67be
00000330: 722e 65be 6f9d 10be ef3a 963d d10b af3d
00000340: 5364 b0bd 23e0 58be 7f18 b33d 3992 2dbe
00000350: 720d 2ebd 0813 2a3e cdd6 cbbd ebea a33c
00000360: eaf9 babd a7ee c03d 7e6c b1bd 054c 1b3d
00000370: 6560 9a3e ecca 333e 9a71 f2bd 6a21 8cbe
00000380: 9b53 4c3d f037 ccbd 7acf d63e f1f4 01be
00000390: 3cf5 8cbd fd87 cf3e 92e4 4fbd 6989 fabd
000003a0: ea1a 7c3e f709 6e3e c52a 7bbe f04c 283c
000003b0: 6fa5 213d f3c6 7ebd 5b6d 5ebc e39d c03d
000003c0: 765b 813e 1447 b9bd 84f1 e1bd b79e 063d
000003d0: f569 623d b625 29bd 72dc d93d 98ae 8cbd
000003e0: 7487 48bd a691 a73d 1f6b 91bd 0f97 c93d
000003f0: 02d7 69be 213c 793e 0e82 343d 4a9d 273d
0.14125314 0.11515506 0.031171951 -0.01221637 -0.09553154 -0.026997909 0.2251926 -0.013604548
0.11500999 0.009989012 -0.12039892 -0.14927907 0.050527148 0.005228372 -0.068204254 0.019079365
-0.23010784 -0.008909275 -0.2126914 0.22484317 -0.02149792 0.1962896 -0.016981374 0.117338575
0.15488386 -0.067569606 -0.20380218 -0.12027857 0.017359216 -0.13681963 0.28920022 -0.17742015
-0.029227847 0.09140765 0.18763001 -0.15031277 -0.19947302 0.34169 -0.1690599 0.0072047613
0.39705342 -0.016971147 0.29018337 0.035118714 0.20721398 -0.29160446 0.024582053 0.18616247
0.14477468 -0.31105363 0.05355423 0.17676716 -0.028065383 -0.30665416 -0.069260925 -0.054298084
0.056250446 -0.21105358 0.077217735 -0.0036905478 0.08661387 0.1926326 0.04801359 0.18783127
0.14573886 -0.11886746 -0.06011283 0.021675522 0.09124556 0.28295463 -0.028133966 0.010126909
0.07467966 0.014368089 -0.13684838 -0.10329087 -0.0034460453 -0.061126262 -0.16337337 0.066390455
-0.27358422 0.22577323 -0.036379505 0.1491633 -0.019051583 0.16977967 -0.3735967 0.25805977
0.19858675 0.019108443 -0.008931525 -0.037539817 0.22633274 -0.07748028 0.15797698 -0.061139066
0.09059382 0.17473276 -0.13993631 -0.015652219 -0.033935726 0.34177086 0.049847104 -0.13686788
0.16773383 -0.38098162 0.44737265 0.11380233 -0.30998296 -0.24649139 -0.15192853 -0.12483866
-0.08797032 -0.107745424 -0.08835749 0.058857057 0.022388963 -0.09526663 0.031379692 0.04827177
-0.041025598 -0.1298785 0.060951095 -0.17960158 -0.14227964 0.105310336 0.18924993 -0.06334435
-0.0486285 0.01861746 0.08847989 -0.07165878 0.118377075 0.09075388 0.04291771 0.026824286
0.07726884 -0.13465548 -0.1652057 0.19405648 0.027810846 -0.06221661 0.17872284 0.182265
-0.11017792 -0.17410687 -0.07741721 0.022006528 -0.17691623 0.0988022 -0.12778111 -0.026093181
-0.38087666 0.09349488 0.15280668 -0.19554467 0.14492007 0.23041502 -0.06900262 -0.05391692
0.1371457 0.24033165 0.06726008 -0.030672774 -0.20219205 0.037041165 0.04875323 -0.3107736
-0.05655859 0.4068108 -0.21497634 0.15680301 0.11317685 0.14247051 0.010055572 0.013157202
-0.0383093 0.30790296 -0.014643686 -0.08392016 0.12005135 0.15361752 -0.046777766 0.12501405
-0.14778987 0.036664374 0.05734797 -0.087467 -0.12507537 0.32062566 -0.07180238 0.049745258
0.13549586 0.12197275 -0.10247578 0.086115755 0.008570511 -0.14368783 0.15713812 -0.2405242
-0.11670727 -0.37207976 0.2365571 -0.22635357 -0.22380999 -0.14122556 0.073354594 0.08547176
-0.08612885 -0.21179251 0.08744907 -0.16950311 -0.04249329 0.16608822 -0.099530794 0.020009479
-0.091296986 0.09420519 -0.08663271 0.037914295 0.30151668 0.17557877 -0.11838074 -0.27369243
0.04988442 -0.09971607 0.41955167 -0.12691094 -0.06882712 0.40533438 -0.05075509 -0.1223324
0.24619642 0.23245989 -0.24528034 0.01027225 0.03946441 -0.06220145 -0.013575877 0.094051145
0.25265092 -0.0904676 -0.110323936 0.032866206 0.05527683 -0.04129573 0.1063775 -0.068692386
-0.048957303 0.08182077 -0.0710051 0.09843265 -0.22835925 0.24339344 0.044069342 0.040921487
