artifacts/degradation-transformer-model:v1/degradation_transformer_model.safetensors (safetensors, 738672 bytes, 38 tensors)

lm_head.weight f4 [500, 64]
00000000: 0a7e e6be 24c6 b03e b560 193e 3d5f 063f
00000010: 69e2 fd3f 767c 773e 6a3c 41bf 5b41 a03f
00000020: ea85 9abf f311 db3f 240a 4db8 5d3e a33f
00000030: 122b 2e3d bafc 0dbe f983 2040 2ced b23e
00000040: 6fbf efbf 7e85 6cbf 5df4 4ebf 8bf6 3fbf
00000050: c97a be3f 56bf f43f bfe1 523f 8640 213f
00000060: f621 c33f 8d2c fc3e 94e1 bb3f 5569 1d3d
00000070: fad5 e03e 0bc3 ce3f 869d 863f 0235 01c0
00000080: 2ddf 12c0 584f 1b3f ff8d 50bd a95d 9cbe
00000090: d3cf cd3f 2094 25bf c03d 9ebf 2a21 8dbf
000000a0: d6d2 20bf 61ce a43e 4015 8dbf bb3f 89bf
000000b0: 1906 75bf 8256 8bbf 852f 66bf 2905 9c3f
000000c0: 9981 fdbf dfa8 2abd 40df 2bbe a156 48bf
000000d0: 421e d73f 9270 533f b849 733f 6a9e 2f3e
000000e0: 2cff 7d3f 87b5 38bf 7f8b 2140 051a 7a3f
000000f0: 82d1 5cbf 5f0b 25bf 79ba 67be 5ad7 5d3e
00000100: be47 f2bf d08f dfbd 73e3 84bf 89e8 ddbe
00000110: a743 613f abe8 e2bf 540f 193f f12e 99be
00000120: 0c23 e53e aeee d43f 0b78 b6bd 5256 bebf
00000130: 9b00 193f 666f 183f d3a2 ff3f 37ae 233f
00000140: 098f 8e40 1b87 823e a843 9f3f baa8 5d3f
00000150: ffaf 89bd 8867 253f 85a1 0d40 05ed ae3e
00000160: 5e50 94bf ac34 5c3f 1c57 6abf c5d9 ca3f
00000170: 328b 9cbd 4ff5 ff3f fb08 26be ae6e b33f
00000180: 8e37 7f3e 801a 3e40 993f 293c 48f3 adbf
00000190: 2921 8bbf de80 02c0 86bf 03c0 adcd 603f
000001a0: 1753 b43c 1773 893f a5cb 043f 6be0 2a3d
000001b0: 61a4 0abd 2efb cf3f 3e85 f5bf b464 0e40
000001c0: 9ed8 7fbf c99d 263e 1f77 a73f 135f 973f
000001d0: 00c9 78bf 5214 3cbf d5db a83f 0858 3ac0
000001e0: 8746 1f40 f3b4 5dbf a5da 8a3f d369 073e
000001f0: e13a f2be c1cc 29c0 1402 f8bf b8f0 ed3f
00000200: a885 a8bf 4986 453e 04bc b13d 8f49 c9be
00000210: 9f0e ec3f 2eef aa3d 48eb 993f e1be abbf
00000220: 645c f23f dc95 153f 2658 4abf f8e8 0b3f
00000230: 3967 82bf 1b40 0a3f 323c dfbd d1d8 90bf
00000240: 15bc 293f ea8b d93e 39e0 be3f bb9c 97bf
00000250: db05 173f 06ce dcbe fe57 d43f 5426 07bf
00000260: f1e4 14be ee83 0dc0 a4d3 a8be 2f49 2cbf
00000270: b71c 4e40 abe9 d43f c40d 733f 9b36 693f
00000280: b885 f73f 2689 5c3f 8f13 53c0 f697 523e
00000290: 5a02 21bf a369 e03f c428 b0bf 2c93 c4bc
000002a0: f929 f7bf dd9e e53d dea2 a83f 540b 50c0
000002b0: 9911 453d cfe0 86bd b427 4e3f 3c2f dbbf
000002c0: f15e 843e 91e3 aabf ea0e 5abf 4750 99bf
000002d0: 6365 da3f c9f2 0140 72a0 a8bf bbdb bb3f
000002e0: f360 afbf 68f5 0dbf 1f55 8dbf 6216 af3e
000002f0: f0be 72bf 5aa8 823f faa6 d1bf ab42 f63e
00000300: 74df d53c 705a 82bf 9161 453f 217a d73f
00000310: 2884 1f40 48fd 7b3e 1896 54bf 0f9f 7fbd
00000320: f2a5 4ebd 4785 1bbe ce3c 1dc0 f8d4 eabd
00000330: fb8b 873f e7d7 c13e 987c 223f e54e 153f
00000340: 9a64 413f 8913 863e d630 953f bbff ecbe
00000350: a643 b23f d007 aebe c319 0fbf 8748 a53f
00000360: 1ad5 5d3e e066 80bf 6b06 9d3f 9582 dcbd
00000370: 30ae adbf 2a3b 0740 b514 0440 7407 e7bf
00000380: c992 47bf 9d21 263e 3172 8f3f a21d a8bf
00000390: f188 7abf a457 66bf adf9 0dc0 82a9 4bbf
000003a0: d0a5 243f 6a51 c9bf aaba b4be 2b48 193d
000003b0: 01d4 23bf 5cfc 20bf 8926 5fbe f655 633e
000003c0: 8a64 06c0 e20a 49be f519 a13e b9ee 913f
000003d0: bb11 bbbf 15b5 293f 7b87 ca3e 7c28 49be
000003e0: e818 d93f 450d 063f 14a1 c4bf 1e07 f7bf
000003f0: 8f30 4abf fea1 97bf e08f 78bf 7031 de3f
-0.45018035 0.3452617 0.14978297 0.5248907 1.983472 0.24168572 -0.7548281 1.2519945
-1.2072117 1.7114853 -4.8885253e-05 1.2753407 0.042521544 -0.13865939 2.508055 0.34946573
-1.8730296 -0.9239119 -0.8084162 -0.7498557 1.4881221 1.9120891 0.8237571 0.6298908
1.5244739 0.4925274 1.4678216 0.03843053 0.4391325 1.6153272 1.0516822 -2.0188603
-2.2948716 0.60667944 -0.050916668 -0.30540207 1.6079048 -0.64679146 -1.2362595 -1.1025746
-0.6282171 0.32188705 -1.102211 -1.0722574 -0.9571243 -1.0885775 -0.8991626 1.2189075
-1.9805175 -0.041664954 -0.16784382 -0.78257185 1.6806109 0.82593644 0.9503436 0.17150274
0.99217486 -0.7215199 2.5241392 0.9769595 -0.86257184 -0.64470476 -0.22629727 0.21664181
-1.8928144 -0.10916102 -1.0381912 -0.43341473 0.87993854 -1.7727255 0.59789014 -0.29918626
0.447533 1.6635339 -0.08909615 -1.4870093 0.5976655 0.5954498 1.9971565 0.63937706
4.4549603 0.25493702 1.2442522 0.8658558 -0.06723022 0.646111 2.2129834 0.34165207
-1.1587026 0.8601787 -0.9153917 1.5847708 -0.07643737 1.9996737 -0.16214363 1.4018152
0.24923536 2.9703674 0.010330104 -1.3589869 -1.0869495 -2.0391154 -2.0585647 0.87813836
0.022012277 1.0738248 0.51873237 0.041717928 -0.03384817 1.6248529 -1.9181287 2.2248964
-0.99939907 0.16271128 1.3083228 1.1825889 -0.971817 -0.73468506 1.3192087 -2.911623
2.4886796 -0.8660423 1.0847975 0.13223962 -0.47310546 -2.6531222 -1.9375634 1.8589087
-1.3165789 0.19289507 0.08678439 -0.39313933 1.8441962 0.08346401 1.2024927 -1.3417627
1.8934445 0.5843179 -0.79040754 0.5465236 -1.0187751 0.5400407 -0.10900153 -1.1316167
0.66302615 0.42489558 1.4912177 -1.1844705 0.5899331 -0.43125933 1.6589353 -0.5279286
-0.14540459 -2.2111773 -0.3297397 -0.6729917 3.2205026 1.663381 0.9494288 0.91098946
1.9337683 0.8614677 -3.2980688 0.20565781 -0.62894213 1.7532238 -1.3762441 -0.023995958
-1.9309684 0.112119414 1.3174703 -3.2506914 0.048112486 -0.065858476 0.8052933 -1.712379
0.25853685 -1.3350698 -0.8517901 -1.1977624 1.7062191 2.0304434 -1.3173964 1.4676431
-1.3701462 -0.55452585 -1.1041602 0.34196764 -0.948226 1.0207627 -1.6379082 0.4809774
0.026107527 -1.0183849 0.77102 1.6834146 2.4924412 0.24608338 -0.83041525 -0.06240755
-0.050451227 -0.1518756 -2.4568362 -0.11466402 1.0589594 0.37860033 0.63471365 0.5832351
0.7554413 0.2618678 1.1655529 -0.46288857 1.3926895 -0.33990335 -0.55898684 1.2912759
0.21663323 -1.0031395 1.2267584 -0.10767094 -1.3568783 2.112986 2.0637639 -1.804915
-0.7795835 0.1622376 1.1206723 -1.3134043 -0.97865206 -0.8997748 -2.218364 -0.79555523
0.6431551 -1.5727971 -0.35298663 0.03742234 -0.6399537 -0.6288507 -0.21792044 0.2220076
-2.0998864 -0.19633058 0.31465116 1.1400977 -1.4614786 0.66291934 0.39556488 -0.1964435
1.6960726 0.52364 -1.5361657 -1.9299047 -0.78980345 -1.1846311 -0.97094536 1.7358837

tbls_list.0.ff.first_proj.bias f4 [256]
00000000: 983f 2abe 3a3e e5be d35f d8be 7892 82be
00000010: 0144 d7be 5e9a 19be e789 30bf d21e b83c
00000020: fb62 78be 9da9 4fbe 2842 8cbe 378c 7dbe
00000030: 6173 5abe 4c97 c0be e4a0 8fbe 7b27 a4be
00000040: 3dd4 00bf c194 55be fa6a cfbe 19c1 cbbe
00000050: 909d 51be b32b c0be 042d a2be abc0 c7be
00000060: 254f 68be 5556 bebe 863c aabe 47af 20bf
00000070: 11df 42be 5643 efbe 45cc d5be e519 43be
00000080: c1d7 57be 108d 94be d094 67be 2bfe 3fbe
00000090: 6004 82be 17b8 23be 6df0 d0bd 93e4 45be
000000a0: e3b9 e2be 3d91 9abe 7f82 9abe 6b01 b3be
000000b0: 49c6 63be 8420 39bf 29d8 ecbe 5957 a6be
000000c0: ef35 cdbd a076 a2be 1045 1abf 4892 8bbd
000000d0: e417 8abe edec 0cbf 5d55 90be 8c3e 09bf
000000e0: 6ced 98bd 60e2 febd efd9 cbbe ea77 51be
000000f0: b984 b9be 2d01 ccbe 88bf a1be 208a e3be
00000100: c263 5cbe d332 2abe 20aa 2dbf 86eb dcbe
00000110: cb72 04bf 291e b3be d21a 76be c77f 82be
00000120: ae3f 06bf a501 0bbf 067b 9abe 52c7 c4be
00000130: 03e8 dd3d 4f8b 91be 4c6f afbd 0144 ccbd
00000140: 46a8 99be b581 61be c0db b4be be92 1cbe
00000150: fea4 99bd 9ca6 01bf d2c5 59be 7709 99be
00000160: f828 f1be 3162 eabe f8c3 7cbe 624c 98bd
00000170: 4e1c 91be e5a6 cbbe 881a cebe 612d 49be
00000180: 74df dcbe 9a0d 18bf d3a5 a0be 6140 f8be
00000190: df3f adbe 5abd 5abe 3fb5 3bbe 0ec0 7fbe
000001a0: 40d6 cebe eb4f 8fbe f610 1ebf 258e 90be
000001b0: 309e 3cbe fe2b a0bd cd77 c2be 9918 38be
000001c0: 759a 92be b725 98be bc38 44be a917 88bd
000001d0: de07 88be f988 8cbe fd59 95be c649 f7be
000001e0: 9af0 c3bd 9eac c7bd 8de3 88be f386 0bbe
000001f0: 5d3f edbe 10da 86be 3d71 fdbe 31bb a5be
00000200: 4e9f c1be 1319 c9be 6e8e b3bd c694 e4be
00000210: 610e b1be fe64 d7be d53b 8bbe 44ea 1fbf
00000220: bad7 26bf 813c e8be e10e c6be 83dc 0fbf
00000230: 6ebd d0be 24bf 10bf 1e2f 5ebd 021d 6cbe
00000240: 37f8 1cbe 257f a6be 8d17 bfbe 2d11 bbbe
00000250: 9fd4 f6be 0037 b5be e9d1 70be 69b1 8cbe
00000260: 4521 09bf 1d50 32be fb7f 81bd f09c 52be
00000270: 6974 81be ca45 09bf 74a4 bcbe fcdc 3bbe
00000280: fb86 fbbe 0471 19be 9298 debe 7105 c5be
00000290: b0cf 99be 5bd1 d1bd 7bd4 bcbe cf71 a7be
000002a0: 0520 67be 6539 24bf 2310 66be 0617 12bf
000002b0: ab13 9ebe 6c2f 97be feac 5fbe 6c66 b4be
000002c0: 1598 05bf 9d31 91be 9250 f0be 8f06 b2be
000002d0: 8722 f5be 459b b7be 1ed7 d1be 10e9 03bf
000002e0: fce5 96be 2470 02bf 8b27 18bd 5639 39be
000002f0: 50be 1ebf 81c2 00bf 85b2 9ebe 14e2 03bf
00000300: 31a6 a1be 570d 8dbd f51b c8be 1500 bfbe
00000310: cf93 09be 5211 cfbe 7630 dabe 11dc d8be
00000320: c96f ecbe 7c6f a7be e629 aebe 3eb6 f6be
00000330: aadb 11bf 8214 d7be 853a 99be 293a f2be
00000340: 2625 50be 8185 a6be 185e 81be 4523 0cbf
00000350: 40cd 37be 6362 fbbd 6a94 cfbe e526 8bbe
00000360: 7167 6cbe 8a37 26bf ab45 a6be 7daa afbe
00000370: f799 6ebe 7cc8 7dbe 86b9 aabe d6bb 3fbe
00000380: f2c7 29be 0a14 f1be b843 87be d86b dabd
00000390: e862 f5be 6435 b8be b584 f0be 72df 24bf
000003a0: eda7 44be 34c6 77be 250e 69be 99f6 83be
000003b0: 436d a7be 009f 9fbe b21c 08be 42d6 aabe
000003c0: c5c2 37bf cb9e b2be 291c eebe f683 0bbf
000003d0: 561c f4be f90c 10bf 124f 1dbe 9c93 7fbe
000003e0: ff7d 98bd ef87 09be 6612 0fbf 6ccc edbe
000003f0: aeb8 44be c153 c8be 121f 0dbf 1434 ffbe
-0.16625822 -0.44774038 -0.42260608 -0.25502372 -0.4204407 -0.15000293 -0.6896042 0.022475634
-0.24256508 -0.20279546 -0.27394223 -0.24760519 -0.21333076 -0.3761543 -0.28052437 -0.3206137
-0.5032385 -0.20857526 -0.40511304 -0.3979576 -0.20470262 -0.3753334 -0.3167497 -0.39014181
-0.22686441 -0.3717524 -0.332493 -0.6276745 -0.19030406 -0.4673106 -0.41757408 -0.19052847
-0.21078397 -0.29013872 -0.22615361 -0.18749301 -0.25393963 -0.15988193 -0.102021076 -0.19325475
-0.44282445 -0.30188933 -0.30177686 -0.3496202 -0.22243609 -0.7231524 -0.46258667 -0.32488516
-0.10020053 -0.3173113 -0.6026163 -0.0681501 -0.26971352 -0.5504902 -0.28190127 -0.53611064
-0.0746716 -0.12445521 -0.39814708 -0.204559 -0.36234072 -0.39844647 -0.3159144 -0.4444132
-0.2152243 -0.1662095 -0.67837715 -0.4314844 -0.5173766 -0.34983948 -0.24033669 -0.2548811
-0.5244092 -0.54299384 -0.30171984 -0.3843332 0.10835268 -0.28426597 -0.0856615 -0.09973908
-0.30011195 -0.22022136 -0.35323906 -0.15290353 -0.07502173 -0.5064485 -0.21266869 -0.29890034
-0.4710157 -0.4577804 -0.24684131 -0.07436444 -0.28341907 -0.39775768 -0.40254617 -0.19646217
-0.4313923 -0.59395754 -0.31376514 -0.48486617 -0.33837792 -0.21361294 -0.18330859 -0.24975607
-0.40397835 -0.2799066 -0.6174463 -0.28233448 -0.18419719 -0.07820891 -0.37982026 -0.17978133
-0.28633466 -0.29716274 -0.19162267 -0.06645138 -0.26568502 -0.27448252 -0.29170218 -0.48298472
-0.095673755 -0.09749721 -0.26736107 -0.13625698 -0.46337405 -0.26338243 -0.49500456 -0.32369378
-0.37816852 -0.39276943 -0.08767401 -0.44644755 -0.34581283 -0.42069238 -0.27194086 -0.62466836
-0.6517292 -0.4535866 -0.38683227 -0.5619585 -0.40769523 -0.5654166 -0.054244153 -0.2305794
-0.15329061 -0.3251888 -0.37322655 -0.36536542 -0.48209092 -0.35393524 -0.23517574 -0.27479103
-0.5356639 -0.17413373 -0.063232385 -0.2056768 -0.25284126 -0.53622115 -0.36844218 -0.18346018
-0.4912642 -0.14984518 -0.43475777 -0.38480714 -0.30041265 -0.102450095 -0.3688086 -0.32704017
-0.22570808 -0.6415008 -0.22467093 -0.5706638 -0.3087438 -0.29528368 -0.21843335 -0.35234392
-0.52185184 -0.28358164 -0.4693647 -0.3477063 -0.47877905 -0.3586065 -0.40984434 -0.515275
-0.2947234 -0.50952363 -0.037147086 -0.18088278 -0.62009144 -0.5029679 -0.30995575 -0.5151684
-0.31572106 -0.0688731 -0.3908383 -0.3730475 -0.13435291 -0.40442902 -0.42615098 -0.42355397
-0.46179035 -0.32702243 -0.3401634 -0.48185915 -0.56975806 -0.42007834 -0.2992746 -0.47309998
-0.20326671 -0.3252373 -0.252671 -0.5474132 -0.1794939 -0.12274625 -0.40542918 -0.27178112
-0.23086335 -0.64928496 -0.32475027 -0.3430976 -0.2330092 -0.2478351 -0.33344668 -0.18723997
-0.1658018 -0.470856 -0.26418853 -0.10665101 -0.47927022 -0.35978234 -0.46976247 -0.6440345
-0.19204684 -0.24196702 -0.22759302 -0.25774077 -0.32700548 -0.31175995 -0.13292196 -0.3336659
-0.7178157 -0.34886774 -0.4650586 -0.5449823 -0.4767787 -0.56269795 -0.15362194 -0.24958652
-0.07445907 -0.13430761 -0.5588745 -0.46445024 -0.19211075 -0.391264 -0.55125535 -0.4984442

tbls_list.0.ff.first_proj.weight f4 [256, 64]
00000000: f3cf 95be 69f1 fe3d 1c4f 023d 9505 6fbd
00000010: 7556 a9be f087 e5be 51a3 96be 1931 c43e
00000020: 095e 073e 01a8 943e d29d e53e 053b a03e
00000030: 9318 2f3f 07cf 243e 3ac7 aabd 4d5d 93be
00000040: ece5 90bd ccd8 a3be f6d4 ddbe b869 233d
00000050: 06c6 d3bd af28 bebe 1a1f e23e 7c55 de3b
00000060: a321 823e 6c39 653d 8d04 c03e 4083 70bd
00000070: 4132 a9bc d983 90bb 593e bfbe aac2 e3bc
00000080: de0a 07be d1b9 b4be e275 b3bc 9bae c2ba
00000090: 90b1 3c3e bdf0 ad3e 1d52 aebd 85ec 383e
000000a0: 10e9 8abe 29fb 5a3e 7fd4 48be 8261 11be
000000b0: 268e de3e c4e2 83bd 3609 0cbd ebe2 42bd
000000c0: 5fba 003e 3d0f 163c 680f eabe 3e58 613e
000000d0: c07c 903e 1dc4 dd3e e7ad 723e 0753 27be
000000e0: 82bd e53e 95d0 debe 2dbb 9abd f40e 873e
000000f0: 509c e83e f1c7 cfbe 2d80 12be 20d2 0dbf
00000100: f742 0cbd 397f 983d 62fa 063f 232d 823e
00000110: 3267 e5be 5c0c 1abf bfda 38be e740 463e
00000120: e972 37bf 4b3a 133d bb81 a53d 6951 98be
00000130: a6fa 583e a174 a4be b965 563d 24b9 b6bd
00000140: 0f40 413d 09d1 413e 2324 e43e d453 9dba
00000150: d837 ebbd be34 17be 8cca 663e 3ec0 bebe
00000160: 4c2f 593e 9566 6e3d 1f3b 49be f393 88be
00000170: 7bd9 a33e bdc5 613e 7727 8cbf a24b 21be
00000180: d1ee 2f3f 38b1 893e e9ff 2d3e 3678 ce3c
00000190: 235b ef3d 98eb 5a3e 303a 9bbb f6d6 043d
000001a0: 94b1 59be 1fdf 44bc 5816 3e3d df42 88bd
000001b0: 8d49 9d3e c4ae 2e3d 7906 bebe 48dd bf3e
000001c0: 37b4 9b3d 4d47 233e dd6f a7be 7687 543d
000001d0: 5c3e 7e3e f2c8 d83b 7db4 243e 6973 70be
000001e0: f4ff 5d3e 370e fb3e fb3d a73d 8460 eb3d
000001f0: bbb7 bcbe 41b2 81be 5e2d 903e aa95 d13d
00000200: 3dbd 7ebe c2bd 303e 6daf 7b3d 1e7d 80be
00000210: 0e0c 40be 0c62 cb3c 0e39 053e 6adf 053c
00000220: fe5c 18be 3950 4d3e 78a3 3bbe 8c22 ca3d
00000230: b7a0 843e 3ddb 7c3e a823 fc3d bb3d d73c
00000240: 06df b43d 9cc6 f5bd 2b47 d03d d91a ff3e
00000250: d2c3 d83d 60d8 6dbe 850d d03e 09c3 b5be
00000260: 4de8 083d 37e8 593e c1f6 3f3e 01b5 5bbc
00000270: 4b7e c23d db74 38be 02d8 abbe c5a6 fa3c
00000280: ae77 2d3e 83e8 67be 1e64 54bc 7ddc 203c
00000290: 03d4 7d3e c6dd 643e d1eb 3b3e 0913 4e3e
000002a0: b2b9 b7be ff10 823e 8c74 773e 0aaf a33c
000002b0: 7aed 683e 3879 60be d57d 2c3d ef2e 11be
000002c0: 162d 48be d1c4 373e b03c 85bd db4d d8be
000002d0: a688 eebd f4a1 343e 6f9c 6c3d 05c5 ffbe
000002e0: 2d3e bbbe 9104 103e 09bf 2bbe e8bf 013f
000002f0: e90c 33be 0ac0 143e 69d9 8d3d dca6 67bd
00000300: f5b4 f7be 1fe4 babe 1d01 d5bd ba38 cd3d
00000310: 5c06 e7be e256 8a3d 70fe 96be bc73 2f3d
00000320: cbe9 943d ffc0 0f3e ec4c a3be 2581 bebb
00000330: 8abd 903d dfad 543e f633 b4be 9979 cc3d
00000340: 8bfd cfbe 5b78 b6bd 9cb3 313e 5e27 d63e
00000350: a432 56bd 431d 4c3d df2b 653e 8992 4d3e
00000360: a871 b0be fc23 c73d abab 953e b546 81be
00000370: e6c2 143f aeb4 0bbf ff96 d1be 8f14 653d
00000380: 2413 933d 1b89 de3d 1a95 f53e 6390 df3e
00000390: 47d7 233e c079 463e 5eba 053f b7ba 3abe
000003a0: 8d9d 84bd dfd5 893d 747d 3bbe ce62 2abe
000003b0: 6aff df3e f444 c2be 7405 acbe 8492 5ebe
000003c0: 15ac 04be 321f 1c3e 314b b5bd e84a 0f3e
000003d0: 71d7 623d 1048 9ebe 8d2c 2fbe 11ba 67be
000003e0: 95a6 623d 5c0d c93e d590 073e f7d8 463f
000003f0: 76cf 1e3e 0610 533e 598d c13e 0b58 7abd
-0.29260215 0.12448389 0.031813726 -0.058354933 -0.33073774 -0.44830275 -0.29421476 0.3831871
0.13219465 0.29034427 0.4484697 0.31295028 0.6839687 0.160946 -0.08338781 -0.2878212
-0.07075104 -0.3200134 -0.4332654 0.039895743 -0.10340504 -0.37140414 0.44164354 0.006785093
0.25416288 0.055962965 0.37503472 -0.05871892 -0.020653846 -0.0044102487 -0.37352255 -0.027802784
-0.13187739 -0.35298017 -0.021906797 -0.0014853062 0.1842711 0.3397273 -0.085117556 0.18058975
-0.27130938 0.21384872 -0.19612311 -0.14197353 0.43467826 -0.064397365 -0.03418847 -0.047579687
0.12571095 0.0091589065 -0.4571488 0.22006318 0.28220177 0.43313685 0.23699151 -0.16340266
0.44871145 -0.4351851 -0.07555232 0.26378596 0.45431757 -0.4058223 -0.14306708 -0.5539875
-0.03424355 0.07446141 0.52725804 0.25425062 -0.44805294 -0.6017511 -0.18052195 0.19360696
-0.71659714 0.035944264 0.08081385 -0.2974961 0.21189365 -0.3212023 0.052343104 -0.089220315
0.04718023 0.18927397 0.4455882 -0.0012003132 -0.11485261 -0.14766213 0.22538203 -0.37256044
0.21209449 0.0582033 -0.19651459 -0.26675376 0.32001862 0.22048087 -1.0949544 -0.15751508
0.6872378 0.2689302 0.16992153 0.025203805 0.11687305 0.21378934 -0.004737161 0.032431565
-0.21259147 -0.012016087 0.046408027 -0.0665338 0.30720177 0.04264714 -0.37114313 0.37473512
0.07602733 0.15945168 -0.32702532 0.051886998 0.24828476 0.0066157514 0.16084476 -0.23481525
0.2167967 0.49034283 0.08166119 0.11493018 -0.36858925 -0.2533131 0.28159612 0.10233624
-0.24876876 0.17259887 0.061446596 -0.25095457 -0.18754598 0.024827026 0.13010046 0.008170942
-0.14879224 0.20050134 -0.18324077 0.098698705 0.25903866 0.24693008 0.123114884 0.026274553
0.08831601 -0.12000772 0.10169824 0.4982517 0.10584225 -0.23227072 0.40635315 -0.35500363
0.033424664 0.21279989 0.18746473 -0.013409854 0.09496745 -0.18013327 -0.33563238 0.0305971
0.16940185 -0.2264729 -0.012963323 0.0098181935 0.24787907 0.22350225 0.18351676 0.20124449
-0.35883862 0.25403592 0.24165553 0.019980926 0.2274684 -0.21921241 0.04211219 -0.1417806
-0.19548449 0.17946173 -0.06505716 -0.422469 -0.11647157 0.17639905 0.057766374 -0.49955
-0.36570874 0.14064242 -0.16772093 0.5068345 -0.17485394 0.14526382 0.06926233 -0.056555614
-0.48380247 -0.36502168 -0.10400603 0.10020585 -0.4512204 0.06754853 -0.29490995 0.042834982
0.07271155 0.14038466 -0.31894624 -0.005813735 0.07067402 0.20769452 -0.35195893 0.099841304
-0.40623125 -0.08909675 0.17353672 0.4182691 -0.05229439 0.049832594 0.22380017 0.2007543
-0.34461713 0.0972366 0.29232535 -0.25249258 0.5810989 -0.5457257 -0.40935513 0.05592781
0.07181385 0.108659945 0.47965318 0.43664846 0.1600009 0.19382381 0.522375 -0.18235289
-0.06475363 0.06730246 -0.18309575 -0.16639253 0.43749553 -0.37943232 -0.3359791 -0.21735579
-0.12956269 0.15246275 -0.08852232 0.13993418 0.055381242 -0.30914354 -0.17106839 -0.22629572
0.055334646 0.39268005 0.13238843 0.7767481 0.15508828 0.20611581 0.37803152 -0.06111912

tbls_list.0.ff.layernorm.bias f4 [64]
00000000: 248a debe dd05 f3bd 2666 02be 1694 d63d
00000010: 58b4 acbe e96a d4be 9c53 c4be 91c5 953e
00000020: 5aa0 adbe 0aa9 1f3d f939 c53d f3a7 d3bc
00000030: fa92 8e3e 4ccf 813e 7cb4 d43c a1fc 2d3d
00000040: 9540 143d 13dc 223e 1373 f63d dbf4 8c3e
00000050: f90e e6bc 9469 2cbe dd6d bf3e 2701 51be
00000060: 76f5 743d 7129 363e cfd9 8dbc d9d5 dc3c
00000070: 6794 443e 14fa 17be 70e1 bebe 4005 b0bd
00000080: ebae 683e 266f 27be 9d5a 2fbc c3b6 67be
00000090: 4dcc b03d fdb5 bbbc e202 ac3e 4ad8 af3d
000000a0: 6678 42bd 459a f53d f6cd 07be 9a93 8cbc
000000b0: a972 163e ffca cebd 2fad 8bbe 2b01 153e
000000c0: 8922 acbe 6bf3 a73e a6b3 0fbe 074b a23d
000000d0: e4dd e33d 9f9d 403e b1fe 963c 1252 03be
000000e0: 1980 84bd f9ce 1e3e a3fe 53be 0963 9b3e
000000f0: 6e73 15be 158a 1e3d b538 fd3c 830e 9fbe
-0.43464768 -0.11866353 -0.12734279 0.10477464 -0.3373134 -0.41487816 -0.3834504 0.29252294
-0.339114 0.038979568 0.09630198 -0.02583692 0.2784651 0.25353467 0.025964968 0.042477254
0.036194403 0.15904264 0.120336674 0.2753056 -0.028083311 -0.1683715 0.37388507 -0.20410596
0.059804402 0.17789246 -0.017315773 0.02695744 0.19197236 -0.14841491 -0.3728137 -0.08594751
0.22722976 -0.16350994 -0.010702756 -0.22628312 0.08632717 -0.022913927 0.3359595 0.08586176
-0.047478102 0.11992315 -0.13262162 -0.017160226 0.14692177 -0.10097312 -0.27280566 0.14551227
-0.33620098 0.328029 -0.14033374 0.079244666 0.11126307 0.18810128 0.018431993 -0.12824276
-0.06469745 0.15508641 -0.20702605 0.30348995 -0.14594814 0.038705904 0.03091083 -0.3106576

tbls_list.0.ff.layernorm.weight f4 [64]
00000000: 00f5 083f d69b 273f 16dc 1d3f 10dd cd3e
00000010: 85f1 db3e fac2 173f f016 233f 0cba 723f
00000020: 28ae fb3e fbee 5e3e de7e 763f 566a ed3e
00000030: d0df 8e3f df2c 3e3f 641c 553f b0bf 0a3f
00000040: d7d5 4d3f 741a a83e 5137 a33f da7c 003f
00000050: c48e 2c3f c3e5 103f 6f0f 223f 6d1c d73d
00000060: 4acb 543f d3b1 143f 4728 193f 81cb 513f
00000070: 333e 453f d6a7 353f b99c 4f3f 0256 453f
00000080: 414f 0f3f ad5b 063f b374 2e3f d6bb 343f
00000090: 0f2b a13e e108 333f 30d6 423f 1bf1 533f
000000a0: 5dad 903f 4ae9 023f c800 d13e 36c7 653f
000000b0: 2939 a93e 3a5b 383f 9d54 5b3f 4e57 5e3f
000000c0: 8425 223f a616 193f bc54 653f b467 0b3f
000000d0: 18be 673f 92d4 823f 0449 803f 16ac dd3e
000000e0: b943 4f3f 073e 9a3e 2efa 863f 2801 0e3f
000000f0: dfbd 483f a067 1d3f 4d1e c83e 196f fd3e
0.5349884 0.6547216 0.6166395 0.4020772 0.42957702 0.59281886 0.63706875 0.94815135
0.49156308 0.21770851 0.96287334 0.4637019 1.1162052 0.7428722 0.83246446 0.5419874
0.8040442 0.32832682 1.2751256 0.5019051 0.67405343 0.5660059 0.633048 0.10503469
0.83122694 0.5808384 0.59827083 0.8195115 0.77048033 0.7095922 0.81098515 0.7708436
0.55980307 0.52483636 0.6814682 0.70599115 0.31478164 0.69935423 0.76108074 0.8278977
1.1302906 0.5113722 0.4082091 0.89757097 0.33051422 0.720142 0.85675985 0.86851966
0.63338494 0.59800184 0.8958242 0.54455113 0.90524435 1.0221121 1.0022283 0.43295354
0.8096271 0.30125448 1.0545099 0.55470514 0.7841472 0.61486244 0.39085618 0.49498823

tbls_list.0.ff.second_proj.bias f4 [64]
00000000: 67d6 febe 1bc0 2bbe f984 ac3d 7da4 4cbe
00000010: 3629 3ebf 866d 8abf 36c7 9dbe 4e02 a23e
00000020: 84cf 8abe 7429 e13e 78ba 1a3f f2c0 083e
00000030: 92a0 bb3e 1775 6a3e 4269 a5be ab0c cabc
00000040: db47 383e 972f 05bf 03e9 8a3e 35bc b63e
00000050: 02e7 043e ab3f 7dbe 5944 89bd e42d cf3e
00000060: 3bdd 713d ec02 0e3e 83d1 a03c c5c2 8abc
00000070: 4712 313e fe9b cebe 0eb1 9cbe cf05 55be
00000080: cf9c a7bd ad18 623e 88ad 3f3e 4a12 a6be
00000090: 7dc6 ba3e e4c7 cc3d eee7 fd3e 3754 423d
000000a0: f325 0ebf 5c64 293e a0a6 ecbe af50 5a3e
000000b0: 3e73 383f b7d9 afbe ad02 b3be 0b2d 213e
000000c0: eebb 4ebe 698d 8b3e b86f 27be 7ad1 e7bd
000000d0: 5c67 a93e 602d b83e 21f4 603e 6052 e1be
000000e0: 695a b53e 684b 533e aca4 66bd bafa 053f
000000f0: 63d0 d4bd e5e5 82be 708f b33d 6f69 5bbe
-0.4977295 -0.16772501 0.084238 -0.19984622 -0.7428163 -1.0814674 -0.30816048 0.31642383
-0.27111447 0.4397694 0.6044078 0.13354853 0.36645943 0.22896229 -0.32306868 -0.024664244
0.1799616 -0.5202574 0.271309 0.35690466 0.12978747 -0.24731319 -0.067024894 0.404647
0.059048872 0.13868302 0.019631153 -0.016938576 0.17292129 -0.40353388 -0.30603832 -0.20802997
-0.08184206 0.22079726 0.1871854 -0.32435828 0.3647956 0.099990636 0.4959101 0.047443595
-0.55526656 0.1654219 -0.46220875 0.21319841 0.72050846 -0.3434579 -0.3496298 0.15739839
-0.20188877 0.27256325 -0.16351211 -0.11319251 0.3308667 0.35972118 0.21968128 -0.4400816
0.3542054 0.20634234 -0.056309387 0.52335703 -0.10391309 -0.2556602 0.08767593 -0.21426938

tbls_list.0.ff.second_proj.weight f4 [64, 256]
00000000: 2ee9 43bd 3f40 67be fe62 943c ae3f 4ebc
00000010: 3fd0 13be 03f3 d7be 4046 15be 4c24 76bd
00000020: bcf4 fc3d 7a98 03bd b63c fbbe 07ed 1abd
00000030: a828 2c3e bab5 623d 8209 693d 55c8 20bc
00000040: 555d 89bc 0774 df3c a747 fcbd 57c6 7abd
00000050: 180f 83be 7558 bf3d a8bc 883d 811f e0bd
00000060: 9c5e 883d 8e78 52bc ec00 093e 704c 37be
00000070: 5e49 41be 2552 adbe bff1 9dbd 837e 63be
00000080: 3b75 72bd f24e 60be bc38 723d 0b0d 813e
00000090: 7caa 3fbe 8136 21be e77b 66be 8e71 97bd
000000a0: fcbc 48be 34ab 1cbe 3809 853d e0cd 9b3d
000000b0: f3df 2a3b 375b 063f e3bd 1cbe 536e ba3c
000000c0: 494e 2dbe d9af 913d dfb2 153e e5cf 1b3d
000000d0: 82dd bbbb ea2d 843d 4f08 2dbe 441d 583c
000000e0: 727e d639 8757 42be dc61 20be 69eb 893e
000000f0: 1078 d03d cffa 82bd 6b71 43be 4f6f e6bd
00000100: 38ac 90be 52eb f1be 2572 2e3d 2e90 ab3d
00000110: c921 8d3d d58d 10be 9849 38be e46f 9a3d
00000120: 1e40 29be 4ee0 dabd fca6 343c 7f8a b0bd
00000130: 3fea 9dbe 8c9d 093e 8bdb 73be 2f03 f6bc
00000140: e45f d4be 4736 9abe 260c f9be 1647 4fbe
00000150: 9ca6 c63c 4028 58be 149b b8bd 7302 25bd
00000160: a788 67be e190 afbe 3e75 01bf 18d8 cc3e
00000170: 11fb 553e 3d8c 64be 1da5 b3be 41b6 7a3d
00000180: 5bb0 8c3d 684d f6bd 6068 90bd 12c6 a23d
00000190: 3572 95bd 3baf 57bd e2b7 2ebe 0cdc 13bd
000001a0: fcf8 68be dd96 6dbe c678 97be c0b9 c43d
000001b0: 6ca7 a63d 23b1 45be b45b bdbd 8978 c6bd
000001c0: 70d5 0b3e 1bb1 7c3d 5241 24bd e31d 033f
000001d0: 8703 553d f793 14be 2932 5fbe 52de d73d
000001e0: 5a28 28be ccc4 b73e d2ce b7bb 7e52 9abe
000001f0: 0f3e d73e 3226 38be fa2c 01bf a043 2cbd
00000200: 1a86 9a3d 05d6 26bd 8bd4 123e ab48 b0be
00000210: bbe2 55be 2760 4abe 625e 6bbe 0784 44bd
00000220: 4034 b9be 3a24 56be 712b ccbe 89c2 803d
00000230: bda7 7cbe aef3 cf3c ff50 96be e603 b73e
00000240: a23b fa3d 22c8 3cbe 199e 61be bdd1 aebe
00000250: 3ef3 233e d7fe a43d 701e 03bf 088d 80be
00000260: 797d 103e c51e c73d 899f 963e 2b70 923b
00000270: 65d6 623d b010 8ebe 7620 f33e 243e 8abe
00000280: 8968 b7be f1a0 7f3c f4e4 83bd 84e3 f13e
00000290: b6e9 75bd f237 98be bd1c 8fbd 5f90 b5be
000002a0: 89f3 a43d a40b 9d3d 9198 29be 2324 93be
000002b0: 2789 c6be 7945 67be 8623 353e 0a2b 92bd
000002c0: 9204 bbbd 88d5 bfbd 32bf dcbc 9d2b 52bd
000002d0: 0068 113d 015a babd 5d98 34be 83d7 223e
000002e0: 2c1c e63d 2c98 00bd 795f fbbe a39a 32be
000002f0: caea 8e3c 3835 d13e 2b05 ac3d e215 7a3c
00000300: e6a9 713c 57c9 d0be 1001 5b3e 74b0 c3bd
00000310: b9d5 bbbb a312 ab3d 9c46 8a3e 8e56 04bc
00000320: 507c 9a3c 1d4e 613d 8d1f b93d 0cab 88be
00000330: bffe 823d 4085 d23d b942 7ebe 2a95 44bd
00000340: f5ea fbbd 1785 af3d d6ac 77be 1dcd 42bd
00000350: bedd dfbd 267b a1be 79ea 9ebe 557d bebd
00000360: d17c b2be 8746 ae3e 0690 543d 5b86 993d
00000370: 3f78 123e 6a8d 5e3d a650 053e 1479 6dbd
00000380: 34ff d6be bf81 53be ca32 f6bd 2304 8f3d
00000390: ccdf d1bd ad14 96be 434b a9bd 4332 97be
000003a0: eb73 8f3d 9ff4 c23d 1cf5 a43d 543d 213d
000003b0: 5444 303d 659e 65bd 4a2a 51be 7f80 8f3c
000003c0: a2a2 723d c6d3 51be 6e0d 42be dd7c a8be
000003d0: 0dfc ebbd 0b97 e13c 2d76 9fbe ea87 ccbc
000003e0: 8f36 8dbe 1729 06be 7e3a 8abe 1e3b 0ebe
000003f0: ce45 1abe 7338 273e a0dc 1abe 1e13 7b3e
-0.0478298 -0.22583102 0.01811361 -0.012588425 -0.14434908 -0.4217759 -0.1457758 -0.06009321
0.12351367 -0.032127835 -0.49069756 -0.037823703 0.16812384 0.05534909 0.056893833 -0.009813388
-0.016768137 0.027277006 -0.12318354 -0.061224308 -0.25597453 0.09343044 0.06676608 -0.10943509
0.0665867 -0.012846125 0.13379258 -0.17900252 -0.18875644 -0.33851734 -0.07712125 -0.22216229
-0.05919383 -0.21905115 0.059136137 0.25205263 -0.18717378 -0.15743448 -0.22508202 -0.07394706
-0.19603342 -0.15299684 0.06495899 0.07607627 0.0026073426 0.5248293 -0.15306811 0.022757685
-0.16924395 0.071136184 0.14619015 0.03804006 -0.005733193 0.0645407 -0.168977 0.013190571
0.0004091147 -0.18978702 -0.1566233 0.26937416 0.1017915 -0.06395494 -0.19086234 -0.11251699
-0.28256392 -0.47249848 0.042589325 0.083771095 0.0689121 -0.14116605 -0.17996824 0.07540873
-0.16528365 -0.10687314 0.01102614 -0.08620166 -0.30842778 0.13439006 -0.23814218 -0.030030815
-0.4147941 -0.30119535 -0.4864208 -0.20241961 0.024249367 -0.21109104 -0.09013954 -0.04028554
-0.22610722 -0.3429022 -0.5056952 0.40008616 0.20896555 -0.22319122 -0.3508691 0.061208967
0.06869575 -0.12026483 -0.07051158 0.07947935 -0.07297174 -0.052657347 -0.17062333 -0.036098525
-0.2275123 -0.23202081 -0.2958433 0.096057415 0.08137402 -0.19305854 -0.092460066 -0.09690959
0.13655639 0.06169234 -0.040101357 0.5121748 0.052005317 -0.14509569 -0.21796478 0.10540451
-0.16421643 0.35892332 -0.0056093717 -0.30141062 0.42039534 -0.1798332 -0.50459254 -0.04205668
0.07545109 -0.04073145 0.14338891 -0.3443044 -0.20887272 -0.19763242 -0.22985223 -0.047977474
-0.36172676 -0.20912257 -0.39876893 0.06287105 -0.24673362 0.02538475 -0.2935867 0.35745162
0.12218405 -0.1843572 -0.22032966 -0.34144393 0.16010758 0.08056419 -0.5121832 -0.25107598
0.14110364 0.09722666 0.2941859 0.004468938 0.055380244 -0.27747107 0.47485703 -0.27000535
-0.35821941 0.015602336 -0.06440154 0.47243893 -0.060037337 -0.29730183 -0.06987903 -0.3546171
0.08054263 0.07668236 -0.16562106 -0.28738508 -0.38776514 -0.22585095 0.17689332 -0.07137115
-0.09131731 -0.093669 -0.026946638 -0.051311124 0.035499573 -0.09099198 -0.17636247 0.15902524
0.11235842 -0.031395122 -0.49096277 -0.17441802 0.01744594 0.40860915 0.08399423 0.015264006
0.01474998 -0.4077861 0.21387124 -0.0955514 -0.005732265 0.08353164 0.27006996 -0.008077277
0.018858105 0.055006135 0.09039221 -0.26692998 0.06396245 0.10279322 -0.2483014 -0.047993816
-0.12300674 0.08570307 -0.24187025 -0.047558893 -0.10930966 -0.31539267 -0.31038263 -0.09301249
-0.34860852 0.34038183 0.051895164 0.074963294 0.14303683 0.05433408 0.13019046 -0.057976797
-0.4199158 -0.20654963 -0.12021406 0.06983211 -0.10247764 -0.2931265 -0.08266308 -0.29530534
0.070045315 0.09519314 0.080545634 0.039365128 0.043033913 -0.05605926 -0.20426288 0.017517326
0.05923713 -0.20490941 -0.18950436 -0.32907763 -0.11522684 0.027537843 -0.31144848 -0.024967153
-0.27580687 -0.13101612 -0.2699775 -0.13889739 -0.15065691 0.16330127 -0.15123224 0.24519011

tbls_list.0.mha.kproject.weight f4 [64, 64]
00000000: 2440 1c3e eff8 a6be 0bc7 8e3e ea39 d3bd
00000010: 1a35 b4bd d1af 5cbd 0040 8dbe 8ff7 b83e
00000020: f11b 463e 39ef afbe 9216 eabd 1e14 7abe
00000030: 3427 b93e 747e edbe bba5 37bf 6d42 49bc
00000040: a920 8cbe 98d6 09bf 9395 003f 041c b43e
00000050: 78ed 08be a4ae 7cbe d413 a03d 7a9f 033f
00000060: 5534 ad3e 4849 4c3e 9044 f83e f7da e73e
00000070: b469 5abe 60eb c93e c373 1c3c 782f 35be
00000080: d6bd 66be 7f66 a4be f72e a23e 08ff 213e
00000090: ce79 b93e 6714 263d 9146 dc3b 9b28 613e
000000a0: 7412 6f3c df20 98be 00f9 c8be fa7d a63e
000000b0: 737b cebe 84b8 3cbe 9be8 c93b 8e0c 673d
000000c0: 037f 0fbf 9f68 5a3e 7c6c fdbe 9b94 21be
000000d0: b2f0 34bd 1102 f73e 653f 9fbe e648 b33d
000000e0: 4b90 24bd 5c95 b5be f8c9 d2be 7e92 f9bd
000000f0: c98c 9bbc 1a9d 13bf 4b20 583e 4da4 03bf
00000100: a49b a33e ab46 c13e 5d2f 103e 3d16 3bbe
00000110: 276a 3fbe fb9d ac3d c407 3f3e 2601 af3e
00000120: 8ecc 1bbd 1d7f 8dbe 66fe 893c e918 d83e
00000130: 5d5c 533d 7559 01bf 1fbf 21be c39c 61be
00000140: 6899 bf3e 3b26 ffbe 4f18 013f 8666 273f
00000150: 99b2 3a3e 2bec 32be 1ae9 cc3e 1d86 b93d
00000160: 62e3 3cbe 80a4 623e 2863 853e a48f 5dbe
00000170: 44a3 423e 7d28 703e 5d87 df3d b676 4dbf
00000180: 87a5 9f3d d85e 14be 8af4 a03e f943 853e
00000190: b1bf 90be c4f7 f0be 0996 a2be 5825 38be
000001a0: 033c d43e 67df bbbe dab3 03bf 78c6 843e
000001b0: 0d51 cfbc 131a 833e 7fa1 adbe e68b 13bd
000001c0: 9dd7 f13d 10b3 8e3d 2cf7 53bd f762 bebd
000001d0: ee98 b33d 4748 db3c b216 90be 9a1e 223d
000001e0: 489a 093e ab16 143b 0c08 00be 6307 11bf
000001f0: 0916 d53c 6c9d 96be 138e f23e 084c 17bf
00000200: b573 f43e 0c9e 373f 9c09 a23e 54f4 a3bd
00000210: bb86 09bc ad15 84be 3330 fc3d 4448 12bf
00000220: be59 013e ee49 973e ee22 9b3e 2c8a 943e
00000230: bfbf 98be 296b 94be 9e03 643e 33fb 74be
00000240: 4d69 653e 3b56 dfbe 51d8 56be 0494 3b3e
00000250: d066 ba3d e15e d23d 9ae2 0ebe cd14 a43d
00000260: d62e 30bf 3126 5d3e d546 8a3d c7c5 21be
00000270: b35b 5a3f 62cd ef3c 0c74 79bd 638d 0fbe
00000280: 3a42 623c ceda 253e ab77 b6be 01d3 c1be
00000290: f004 6abe 6a03 54be 20ce f13c 1937 ccbd
000002a0: 0976 1f3d 4d32 323e c216 0ebe 306f 183e
000002b0: c202 f43d 4cb7 6b3e 86fa d9be 7ee4 95be
000002c0: f7bc 093f 5e05 7ebe d5a4 0e3f 8dca c13e
000002d0: 4a37 c6be 2f91 a3be 8056 25be 72d2 af3e
000002e0: a4c9 88be 24d0 8b3c fbf1 f4be bda0 a6be
000002f0: 685e b33e 77f8 883d 9da8 f53e b835 78be
00000300: 44a3 d63e b435 09bf 450c 96be 9a61 7cbd
00000310: da50 91bd b3d4 e6be 5e3b 27bf a2bd 8d3f
00000320: 21dc 173e e053 a7be 91e6 183e 2181 47be
00000330: f5e0 a33d efa9 04be 2943 aebd 61cf 79be
00000340: 5025 0ebf 17dc cfbe 5e79 ae3e 3b5e a63e
00000350: eb1e 8c3c f5a1 de3d d821 a93d aaee 90bc
00000360: 9ef4 433f 7a5f b93e dbc7 653d 77cf 053d
00000370: 2d59 dbbe 59f4 25be 0c7d 93bd 47e5 afbd
00000380: ccad a4be 8aac 95be 4b50 a33d 7ce9 d6be
00000390: fa92 7b3e 5e66 b03d 3dbf 2c3f 557c cc3e
000003a0: 3e52 86bf ff8e ef3d eed7 213e d161 f93e
000003b0: 4696 15be f787 773d 6f72 5f3f 326a af3e
000003c0: 2844 85bd 5701 e13d e598 9cbe 3267 dd3e
000003d0: 690b 523d 96d0 053f 27ed 88be 7a9f aebd
000003e0: 3fc8 a7bd 665d 733e ea8a c53e 2547 1e3f
000003f0: e787 d83e 1e21 9cbe 3e62 a43b 6ebe 4cbf
0.15258843 -0.32611796 0.27886233 -0.103137806 -0.08799191 -0.05387861 -0.2758789 0.36126372
0.19346596 -0.343622 -0.11430086 -0.24421737 0.36162722 -0.4638554 -0.7173726 -0.012283904
-0.27368668 -0.5384307 0.5022823 0.35177624 -0.13371837 -0.24675995 0.07816282 0.51415217
0.3382899 0.1994983 0.4848981 0.45284244 -0.21329385 0.3943739 0.009549084 -0.17693889
-0.22533354 -0.32109448 0.31676456 0.15819943 0.36225742 0.0405468 0.0067222794 0.21988146
0.014591802 -0.2971258 -0.39252472 0.32517987 -0.4032856 -0.18429762 0.006161762 0.056408457
-0.5605318 0.21328972 -0.4949683 -0.15779345 -0.044174857 0.48243764 -0.31103054 0.08754139
-0.04017667 -0.35465515 -0.41169715 -0.12186144 -0.01898803 -0.5766159 0.21106069 -0.5142258
0.31954682 0.37749228 0.14080568 -0.18270202 -0.18692838 0.0842857 0.18655306 0.34180564
-0.038036875 -0.27636042 0.01684494 0.42206505 0.051601756 -0.50527126 -0.15795563 -0.22032456
0.37421727 -0.49833855 0.50427717 0.65390813 0.18232192 -0.17472903 0.40021592 0.09058783
-0.18446115 0.22133064 0.26052213 -0.21636826 0.19007593 0.23452945 0.1091449 -0.80259264
0.07795244 -0.14489305 0.31436568 0.26028422 -0.2827125 -0.4706403 -0.31755093 -0.17982996
0.41452035 -0.3669388 -0.51446307 0.2593267 -0.025307203 0.2560583 -0.33912274 -0.03602209
0.11808703 0.06967747 -0.051749393 -0.0929622 0.087694034 0.026767863 -0.28142315 0.039579965
0.1343776 0.002259652 -0.1250307 -0.56651896 0.026011484 -0.29416978 0.4737402 -0.5910039
0.47744527 0.71725535 0.31647956 -0.08005586 -0.008393939 -0.25797787 0.12313881 -0.5714152
0.1263189 0.2954859 0.30300087 0.29011667 -0.2983379 -0.28988007 0.22267005 -0.2392395
0.2240345 -0.43620476 -0.20980956 0.18318182 0.09101641 0.10272003 -0.13953629 0.0801178
-0.68821466 0.215966 0.067517914 -0.15798102 0.8529617 0.029272739 -0.060901687 -0.14018779
0.013809735 0.16196749 -0.35638174 -0.37856296 -0.22853446 -0.20704427 0.029517233 -0.099714465
0.038930926 0.17402 -0.13875869 0.14886165 0.119145885 0.23019141 -0.42573947 -0.29275888
0.5380396 -0.24806735 0.55720264 0.37849846 -0.38714057 -0.31946704 -0.16146278 0.34340245
-0.2671634 0.017067023 -0.47840866 -0.3254451 0.35032964 0.06688016 0.47980204 -0.24239242
0.41921437 -0.5359757 -0.29306236 -0.061616518 -0.07095499 -0.45084152 -0.6532496 1.1073496
0.14830066 -0.3268118 0.14931704 -0.19482853 0.080018915 -0.1295545 -0.085089035 -0.24395515
-0.55525684 -0.40597603 0.3407697 0.32493767 0.017104587 0.108707346 0.08258408 -0.017691929
0.7654513 0.36205655 0.0560988 0.032668557 -0.42841473 -0.16206492 -0.07201585 -0.08588653
-0.32163846 -0.292332 0.07974299 -0.4197501 0.24567786 0.08613275 0.67479306 0.39938608
-1.0493848 0.11697196 0.15805027 0.4870744 -0.14608106 0.0604324 0.87283987 0.34260708
-0.065071404 0.10986584 -0.305854 0.43242794 0.051280413 0.522714 -0.26743433 -0.085265115
-0.08192491 0.23766097 0.38582546 0.6182731 0.42291185 -0.30494016 0.005016594 -0.7997807

tbls_list.0.mha.layernorm.bias f4 [64]
00000000: f817 b43e 959a 433e a0cd 043d 6d05 aa3c
00000010: 1837 313f 1119 023f 550a 3d3e fa59 d4bd
00000020: be77 ef3e 0954 a3be fc44 90bd a448 6d3d
00000030: a002 19bf 83dd 15be efe1 353e 7606 04be
00000040: 6d8b 86be d455 213d d5f5 7abe 6b17 47bf
00000050: 0d77 0ebe a1df 8f3e 2c52 abbf 54ae 453f
00000060: 59f8 4fbe b1b2 88be d382 2d3d bfd1 5d3d
00000070: f572 62be 2afc 963e 3c09 213f ebc5 a83e
00000080: 1805 debd 2a6b 61bd a707 cfbd 1d3f bb3d
00000090: 8256 16be 2369 2e3c 8432 dabe 0cd9 c4be
000000a0: d305 8b3e 8a66 93be 0789 b83d 4ff0 4dbd
000000b0: d2af 03bf 2328 843e 291e 7b3e 002a 7d3c
000000c0: 46e1 233e 9e87 d8be 8697 eb3d 0159 fdbd
000000d0: bd7b a7bd 08cb d5be c561 c8be 4f3e 963e
000000e0: ca12 793e 208c 56be 3118 f43d 979f 1bbf
000000f0: 055f 433e 3e04 4cbd 13a5 32be db0f a53d
0.35174537 0.19101937 0.03242266 0.02075454 0.6922469 0.508195 0.18460973 -0.10368724
0.46771044 -0.3190005 -0.07044408 0.057930604 -0.5976963 -0.14635281 0.17761968 -0.1289309
-0.26278248 0.039388493 -0.2450784 -0.7777011 -0.13912602 0.28100303 -1.3384452 0.7721913
-0.20309581 -0.2669883 0.04236109 0.054155108 -0.22114165 0.2948926 0.62904716 0.329635
-0.10840815 -0.05503384 -0.101088814 0.09142897 -0.14681438 0.010645184 -0.42616665 -0.38446844
0.2715288 -0.2878917 0.09010511 -0.050278004 -0.51440156 0.25811872 0.24523224 0.015451908
0.16003904 -0.42290968 0.1150351 -0.12370492 -0.08177898 -0.41756463 -0.39137092 0.29344413
0.24323574 -0.20951891 0.11918677 -0.6079039 0.19079216 -0.049808733 -0.17445783 0.08059665

tbls_list.0.mha.layernorm.weight f4 [64]
00000000: d5a2 9d3f b414 2c3f 518b 313f ac4e b73e
00000010: cb1e 9b3f 03ba 943f d77f 423f 0210 713f
00000020: f569 5b3f 1119 533f c3d4 b63f 2c48 ca3e
00000030: 843c ad3f 7b35 7d3f 40e8 953f d656 3c3f
00000040: 4d06 9a3f 8e59 523f 61cd a93f 63b8 7d3f
00000050: b86d 5a3f 8c2c 3b3f 410d bf3f b8ff f33e
00000060: 52fd 833f 3e69 5a3f 410c 5f3f 5eb2 633f
00000070: 6d76 653f 3b31 6a3f 7225 963f 1601 6d3f
00000080: 2c53 3b3f a514 853f 6750 3e3f a219 673f
00000090: 3aa2 293f 2694 5d3f b628 9f3f fd3c 973f
000000a0: 0a18 b03f 6865 543f a548 533f 97bb 8e3f
000000b0: 952a 7c3f 658d 563f 5243 913f edce 723f
000000c0: 3388 893f a478 8d3f d567 693f 0470 4d3f
000000d0: c1ea 833f b3ac 953f 7c23 8b3f cf15 653f
000000e0: 4dd8 9f3f 9afe 1d3f f4a8 743f c62a 843f
000000f0: 0c3c 573f 49fa 993f c52f 3b3f b2ee 5b3f
1.2315317 0.6721909 0.69353205 0.3580221 1.2118772 1.1619266 0.7597632 0.9416505
0.8570855 0.82460123 1.428368 0.39508188 1.3534093 0.9890973 1.1711502 0.7357
1.2033173 0.821679 1.3265802 0.99109477 0.8532367 0.7311485 1.492592 0.47656035
1.0311682 0.85316837 0.8712807 0.8894404 0.8963383 0.9148137 1.1730177 0.9257978
0.73173785 1.0396925 0.74341434 0.9027349 0.66263163 0.8655418 1.2434299 1.1815487
1.3757336 0.82967234 0.8253272 1.1150998 0.98502475 0.838095 1.134867 0.94846994
1.074469 1.1052442 0.9117406 0.8024905 1.0306016 1.1693329 1.0870204 0.894864
1.2487885 0.61716616 0.955703 1.0325553 0.84076 1.2029506 0.73119766 0.85911095

tbls_list.0.mha.out_project.weight f4 [64, 64]
00000000: 61da 963c b56e 743e 5bc6 77be 937d 523e
00000010: 5748 123f 9847 6bbe 16e0 a1be b225 fd3e
00000020: 97e1 9cbd e916 34bd 7318 d13e 2cb0 9e3e
00000030: e558 71be 823e 07bf 640d af3e e20c 46be
00000040: 96b1 c13e 4cc1 e0be 5993 aebb 963f e73d
00000050: 3d69 84bd 438f b2bd a6d1 3b3e e7aa aabd
00000060: 9b61 1b3f da71 aebe 731d 853c 38fe 59bd
00000070: e6ce eb3e cb15 203e 5768 033f a598 c8bd
00000080: a958 e13e 5cb3 89be d2d3 94be 812d 0bbe
00000090: ec99 dabd d658 0cbe 1859 ce3e dbdf 893d
000000a0: ba08 94be 275f 1cbf f9a5 303f a2fd 0cbf
000000b0: 0531 793e 033a 51be c828 6e3e a1ec 6bbe
000000c0: 42a7 303d 5b14 17be 50db 323e 1874 5e3e
000000d0: a716 21be 1d8a 24bd c594 b23e 466b edbe
000000e0: 4515 753d ce09 da3d 26b8 913d d51a ab3d
000000f0: 7131 b2bd 88e1 2abe 9cf0 5fbb 20e3 57be
00000100: 02b8 ca3c f19e dcbe fba4 00be 4e9e 3fbe
00000110: 67a3 dfbc b2ed debd fa85 e6bd 36bf ba3d
00000120: b353 b13e 8f09 58be 5905 1c3e d8f9 96be
00000130: 8321 c2be eaa5 65be 1954 213e 4879 9c3e
00000140: c0b1 d33e b565 ad3e 1258 8b3d dca3 7a3e
00000150: 41ab 063e 060d efbe ebab 8abe 7298 86bc
00000160: 6073 8abe 37e6 863e dcc4 2b3e bf1b 033f
00000170: b1f4 86be 1c92 3ebd 5c9b debd 492d 14bc
00000180: 532b bdbd bd28 7bbe 7685 d43d a3b3 3c3d
00000190: 702d 32be 6e92 1bbe 2a1f 763d e0a7 a9be
000001a0: d323 e03d 1af9 adbd 241e a13e 6a5c 723e
000001b0: 01e7 673d 5d73 91be e5b1 a93e cc08 f13d
000001c0: 8dd8 603d 57cf 84be 4261 203d 9819 e9ba
000001d0: b14b c8be ea09 5b3d 6b99 30bf 23be 243d
000001e0: 10bc f63d 68e9 183e 3206 9bbe 056d 113d
000001f0: 98aa 27be 5381 eebd ad92 0bbd 134b 1c3b
00000200: 8dd1 aa3d 33cb 663c 5dbf 25be fd83 0dbe
00000210: fc9f 833d a0e1 723e 4f83 5cbe b473 b3be
00000220: 6b3b 7ebe c132 98be a8a2 ba3e 2b9f 83bc
00000230: 5a17 08be 1ab3 16bb 8ffb c1be 98a1 b93d
00000240: 25a7 5d3e a8ab 6f3e f4ab 933e 0c53 94be
00000250: d3c6 c8bd ef64 8dbe e27f 18bd 8118 aebd
00000260: eb5f aebe f02e c4be 2950 853d a4fc 883e
00000270: ef2c 183e 5c77 973e 7dd4 f7be 664c c3bd
00000280: 8f16 713e 086e 8c3c d7a4 e73c 5018 ba3d
00000290: d1b8 3b3d c0eb 6f3d 73de 1dbe 8e60 8b3e
000002a0: bf14 83bd c4df 3c3e f23b 91be 3750 38be
000002b0: 054e e33d 6de5 713e 3d10 d53d 81a1 59be
000002c0: a707 22be 74ff acbc 9865 b63e 79e8 ce3b
000002d0: 111e c1be 6b98 0b3e 041f 0bbe 846c 33be
000002e0: 8ea8 b4be d456 aa3d 4f79 3dbe e164 903e
000002f0: 0296 01be afa9 ae3e 6ce3 05bd 43cc 003c
00000300: 3a78 323e 9fd9 13be a6e2 7dbe bea7 2c3d
00000310: 5f5e 37bd 0127 63bd 186b 41be 89b1 72be
00000320: 6388 b8be fc4d 5d3d c2cc 6f3d 53b8 8a3c
00000330: 553b 263e 59d0 183e a4d0 92be 2f37 a2bd
00000340: b18a b2bb 1b5d 7cbd 1444 ec3d 5142 adbd
00000350: 75b5 afbe ed1f 7abe ccd8 9b3e b8cb 583e
00000360: e1cc 8bbe 3506 7bbd ecb9 cabb 9489 d33d
00000370: 97dc eebd 9f0a 28bf be54 4bbe 3e6f 14be
00000380: 5fad 88be 5fe2 b1bc 37de 8a3e 85dc 10be
00000390: e147 2bbe e9ae 703e 3d3a 0abe cab2 89be
000003a0: 2bbf 9abd 5ba4 9abe 1399 5b3e ce8a 80be
000003b0: 85c9 e1be 0d32 bebe 55bf 0d3d 846b 3bbe
000003c0: d2e0 993e c0b0 b33d 5c6f f73d eecc b23d
000003d0: 926e 003e 4292 5c3d a3c6 c6bd f71a 213d
000003e0: 2620 54bb a497 5fbd beff 53bc 5bdc d2bd
000003f0: ff87 e1bd f19f 8ebe d4d0 85be 7c73 133d
0.018414678 0.23870356 -0.2419676 0.20555715 0.5714163 -0.2297653 -0.31616277 0.49442822
-0.07660215 -0.04396716 0.40838966 0.30993783 -0.23569067 -0.52829754 0.34189904 -0.19340852
0.378308 -0.43897474 -0.005327624 0.11291425 -0.06465385 -0.08718731 0.18341693 -0.08333378
0.6069581 -0.34071237 0.016249394 -0.053220958 0.46056288 0.15633313 0.51331085 -0.0979474
0.44012955 -0.26894653 -0.29067856 -0.13591577 -0.106738895 -0.13705763 0.40302348 0.0673215
-0.28912908 -0.6108269 0.69003254 -0.5507451 0.24335106 -0.20432286 0.23257744 -0.23039486
0.04312826 -0.14753859 0.17466474 0.21723974 -0.15731297 -0.040170778 0.34879127 -0.46370906
0.059834737 0.10646401 0.07115202 0.08354727 -0.087008364 -0.16687596 -0.0034170514 -0.21082735
0.024745945 -0.43090013 -0.12562935 -0.18712732 -0.027299596 -0.108851805 -0.11256023 0.09118502
0.3463417 -0.21097396 0.15236415 -0.2948749 -0.37916192 -0.22426572 0.15754737 0.3056128
0.4134655 0.3386666 0.068039075 0.2447657 0.13151266 -0.46689624 -0.27084288 -0.016430113
-0.2704115 0.26347515 0.16774315 0.5121421 -0.2635856 -0.04652606 -0.10869476 -0.009044
-0.09236779 -0.24527259 0.10377018 0.046069752 -0.17400146 -0.15192577 0.060088314 -0.3313589
0.10944333 -0.08494778 0.31468308 0.23668066 0.056616787 -0.28408328 0.33143535 0.11769256
0.05489402 -0.25939438 0.039155252 -0.0017784117 -0.39120248 0.05347625 -0.689841 0.04022039
0.12047589 0.14932787 -0.30278164 0.03550436 -0.1637367 -0.116457604 -0.034075428 0.0023848459
0.0834075 0.014086532 -0.1618628 -0.13819881 0.06426999 0.23718882 -0.21534465 -0.35049212
-0.24827354 -0.29726222 0.36452222 -0.016067108 -0.13290158 -0.0022994936 -0.37887236 0.09064025
0.21645792 0.23405325 0.28842127 -0.2896961 -0.09803548 -0.2761607 -0.037231334 -0.085007675
-0.34057555 -0.3831706 0.0650943 0.2675525 0.14860891 0.2958325 -0.48404303 -0.09536056
0.23543762 0.01714231 0.028276844 0.090866685 0.04583055 0.058574438 -0.15416889 0.27222103
-0.064004414 0.18444735 -0.28366047 -0.1799935 0.110988654 0.23622675 0.10403488 -0.21253015
-0.15823232 -0.021117903 0.35624385 0.006314334 -0.3771825 0.13632362 -0.1358605 -0.17521864
-0.35284847 0.083173424 -0.18503307 0.28201964 -0.1265488 0.34113833 -0.03268759 0.0078612
0.17428675 -0.14438485 -0.24793491 0.04215216 -0.044767734 -0.05545712 -0.1888851 -0.23700537
-0.36041555 0.05402945 0.05854488 0.016933596 0.16233571 0.14923228 -0.28674805 -0.07920682
-0.005448662 -0.06161223 0.11536422 -0.084599145 -0.34318128 -0.24426241 0.3043884 0.21171463
-0.27304748 -0.061285216 -0.0061867144 0.10328975 -0.11663168 -0.65641207 -0.19856545 -0.1449556
-0.26694772 -0.021714387 0.2712266 -0.14146622 -0.16726638 0.23504223 -0.13498779 -0.26894218
-0.07555994 -0.30203518 0.21445112 -0.251059 -0.4409906 -0.3714756 0.034606297 -0.18302733
0.30054337 0.08773947 0.12081787 0.087304935 0.12542179 0.05385042 -0.09705856 0.039332356
-0.0032367795 -0.054587975 -0.012939392 -0.10295936 -0.11012267 -0.278564 -0.26135886 0.035998806
